ml_saves/model_episode_200.pth (torch, 575376 bytes, 24 tensors)

network.0.weight f4 [128, 134]
00000000: 4af5 b6bc 85a9 a8ba 517e 4dbd 9b75 8cbd
00000010: 4d2b 88bd 51ad 65bd 3c10 333d 6cc0 e0bc
00000020: 6f6a 5ebd 940d a9bc 0458 00bd 4054 5a3c
00000030: 8c07 713d 5e88 a83d 78e7 d1bc 5cfb 82bc
00000040: f2a5 64bd 2c52 943d c220 8bbd 963b ab3d
00000050: d2c1 1c3d 70dd 983b 841f 293d 882a abbc
00000060: 2831 463c 6840 57bd 0414 043d 8af2 a33d
00000070: f942 a2bd 8cd4 483d 60d6 da3b a0ee 013d
00000080: 304d d53c 6e5a 953d 5858 713d 5044 85bd
00000090: 0037 e83b 0ae3 e8bc 8c13 8fbc 8084 d73a
000000a0: 1373 6dbd 606f 50bb 34a8 53bd e45a 203d
000000b0: d021 abbb 793e 95bd 50e8 b43b 1f0f a3bd
000000c0: 04f2 843d c6f6 8c3d 7bc6 a2bd dcef 8abd
000000d0: 90bc a43b 38a0 6dbc 58ed 7abd 381e 05bd
000000e0: de32 82bd 68fd 72bc 13dc 9dbd 3dd3 23bd
000000f0: b9cf 24bd 3bab 09bd 34be 8c3d 7474 5ebd
00000100: ee1f 30bd 64cb 6f3d b00c a2bb 92a8 0dbd
00000110: f895 1fbd dcc8 aabc 2091 063b 2f3d 81bd
00000120: a070 c6bb 38e1 1c3d c05f 113c a8e2 a53d
00000130: 6cb3 113d 039d 98bd 38ad 203d eca4 e23c
00000140: 6f37 71bd dc18 92bd 1871 66bc c0dd 99bd
00000150: b879 f2bc e258 65bd cca0 3d3d 0008 1f3b
00000160: 2cb9 83bc 9079 1f3d 707f 563d f347 aebd
00000170: b87d 553c bd50 8dbd c815 4cbd 8a12 a53d
00000180: d05e a13d b2c1 84bd d0b4 89bc c0e2 47bb
00000190: 2f38 83bd 268d 68bd a00d 803d 6cbc 703d
000001a0: fc01 4c3d e832 9bbd 542e b3bc d6ae a1bd
000001b0: c868 8cbc 78f9 acbd 2483 b2bc 9c00 21bd
000001c0: 9e74 963d f01c e73b 20fa 833c f06c 08bc
000001d0: 1858 13bd 4c92 3cbd 0da2 90bd 4020 39bc
000001e0: 1c88 bb3c 080d 783c badf 993d 9c23 503d
000001f0: ccab 083d f06b af3b ecef 87bc b4de a0bd
00000200: 7cf6 823d f0e0 b9bc 9018 7c3d 3c96 233d
00000210: 2e73 8a3d f0d6 853b 8dc6 c6bc 1717 a1bc
00000220: 70f8 d7bb 8c11 ab3d 26c1 103d 307c 8abc
00000230: 0bc1 81bd 60cd dfbc 6279 9dbd a0f1 063d
00000240: a02b 2cbd 2029 9c3c 0013 8f3d e02f 3f3d
00000250: 24af a13d f6fb 83bd 54b4 8ebd 8857 743d
00000260: d242 81bd 907f 29bc beb6 c8bc 22a0 123d
00000270: 8442 aebc 6690 71bd 48f7 16bc 3887 803d
00000280: 9877 3f3c b0a3 853d 910f 2abd 841d a83c
00000290: c046 40bd 8e83 9abd 23df 83bd dcb8 3bbd
000002a0: c86f 533d 7147 98bd 3c37 193d f4b2 e43c
000002b0: 9f18 9ebd d4c0 813c 8a01 2bbd 28f2 65bd
000002c0: 3841 6e3d fa74 833d 3869 a9bd 4a49 e8bc
000002d0: a813 bd3c 0036 073b 9d33 82bd 8428 833d
000002e0: f875 283d 1cc4 643d fc44 e1bc 943d a43c
000002f0: ebed 85bd ec4d 643d b2f3 033d 0407 753d
00000300: cc21 b83c a828 fcbc 0c06 483d 485e 32bd
00000310: aa73 adbd d6b8 cdbc 383c 513d 1690 863d
00000320: d06c 2abd 7e75 81bd 6cd4 533d 8491 91bd
00000330: 184e 2a3c 8551 68bd 8455 c5bc 0ca9 633d
00000340: 9047 17bc e8d1 2fbc fc3e 24bd d82b 93bd
00000350: b472 a43d 9883 b0bc f80c 6f3d 6019 5cbd
00000360: 40fc 8a3d c029 363d f0ff b6bc c6a5 01bd
00000370: 7db7 a5bd 8ef9 57bd 9136 94bd 106b c03b
00000380: a04e 0a3b 81ff 41bd 0c25 3abd 7af1 90bd
00000390: 00ba b439 3887 a13d 3e88 edbc 2aa7 41bd
000003a0: 2890 45bc 14da 383d 9840 3abd 90f8 65bc
000003b0: 18d6 7e3d ec75 963c 2078 613d 5e39 a33d
000003c0: 6651 81bd 76ad 94bd 441f 253d c0d4 af3a
000003d0: 1837 873d 702b 65bc 4888 9cbc c1e6 32bd
000003e0: f59f 06bd 78db d2bc 187d 9e3c 40e9 a73c
000003f0: 207b 8e3d ddc1 abbd a032 53bb 40d2 f33a
-0.02233376 -0.0012867904 -0.050169293 -0.06858369 -0.06648884 -0.05607349 0.043716654 -0.027435504
-0.05430072 -0.020636357 -0.03133394 0.013325751 0.058845088 0.08229135 -0.025623068 -0.015988998
-0.05582232 0.072422355 -0.067933574 0.083609745 0.03827078 0.0046650693 0.04128982 -0.020894304
0.012096681 -0.052551657 0.03224565 0.08005245 -0.0792293 0.049030825 0.0066783875 0.03172171
0.026037782 0.07292639 0.05892214 -0.0650717 0.0070866346 -0.028428573 -0.017465375 0.0016442686
-0.05797107 -0.0031804666 -0.051674083 0.03914918 -0.0052225366 -0.07287306 0.005520858 -0.079618685
0.06491473 0.06883006 -0.079480134 -0.06784031 0.005027361 -0.014503531 -0.061261505 -0.032499522
-0.063573584 -0.014830925 -0.077079915 -0.039996374 -0.040237162 -0.033610564 0.06872216 -0.054310277
-0.0429992 0.058543578 -0.00494536 -0.03458459 -0.03896138 -0.02084773 0.0020533279 -0.06310498
-0.0060559064 0.038300723 0.008872926 0.08099872 0.0355715 -0.074518226 0.039227694 0.027666532
-0.058890756 -0.07133648 -0.01406505 -0.075129986 -0.029599056 -0.05599297 0.046295926 0.0024266243
-0.016079508 0.03893429 0.052367628 -0.08509817 0.013030462 -0.06900165 -0.04982546 0.08060177
0.07879412 -0.06482257 -0.01680985 -0.0030500144 -0.064072005 -0.056775235 0.06252599 0.058773443
0.04980658 -0.07578069 -0.021872677 -0.078946754 -0.017139807 -0.0844602 -0.021791048 -0.03930722
0.07346462 0.00705301 0.01611048 -0.008326754 -0.035972685 -0.046037957 -0.07062159 -0.011299193
0.02289205 0.015139826 0.075133756 0.05081521 0.033366963 0.0053534433 -0.016593896 -0.07854977
0.063946694 -0.022690266 0.061546862 0.039938197 0.0676025 0.0040844604 -0.024264598 -0.01966433
-0.0065908954 0.08352956 0.03534045 -0.01690492 -0.06335648 -0.02731961 -0.076891676 0.032945275
-0.04203379 0.019062579 0.06986046 0.046676517 0.078947335 -0.06444542 -0.069679886 0.05965379
-0.06311573 -0.010345355 -0.0245012 0.035797246 -0.021271951 -0.0589756 -0.00921423 0.06275791
0.011686228 0.065253615 -0.04151875 0.020521887 -0.046942472 -0.07544623 -0.06439044 -0.045830593
0.051620275 -0.07435501 0.03740619 0.027917363 -0.0771954 0.015839018 -0.041749515 -0.05613914
0.058167666 0.06418796 -0.08272022 -0.02835526 0.023080662 0.0020631552 -0.06357501 0.06404212
0.04112813 0.055851087 -0.027498715 0.020048894 -0.0653952 0.055738375 0.032214828 0.059821144
0.022477053 -0.030781105 0.04883389 -0.043546945 -0.08469327 -0.02511255 0.05108282 0.06570451
-0.041607678 -0.06321238 0.051716253 -0.07107833 0.010394596 -0.056718368 -0.024088629 0.055581138
-0.00923337 -0.010731198 -0.04009913 -0.07186097 0.080296904 -0.021547124 0.058361977 -0.053735137
0.06786394 0.04447341 -0.022338837 -0.031652234 -0.08091638 -0.05272823 -0.0723697 0.005872138
0.0021103993 -0.04736281 -0.045445487 -0.07077308 0.00034470856 0.07887119 -0.02899563 -0.04727856
-0.012058295 0.04512985 -0.045471758 -0.014036313 0.062215894 0.018366776 0.0550462 0.07969926
-0.06314354 -0.072596475 0.04031302 0.0013414845 0.06602305 -0.013987407 -0.019107953 -0.043677095
-0.03286739 -0.025739416 0.019346759 0.020496964 0.06957078 -0.08386586 -0.003222622 0.0018602088

network.0.bias f4 [128]
00000000: 5870 523f 3d51 193f 288d 3abb 9232 193f
00000010: 762b 1a3f 035f b6bd 3a04 30bf dcb0 6ebc
00000020: 42f8 423f bc0b 6840 786b 7540 d918 41bd
00000030: 2f81 d23f df4c 203b 879b e4bd fc54 903d
00000040: 81bb c5bd b467 123f b4c9 193f 540f a240
00000050: 4fb4 d03c a256 b440 2b86 3940 1d71 a03f
00000060: 6c5c a8bd 459d 61bd 7500 6c40 0910 a23c
00000070: 1297 053d 506e 8f3c 2ba2 b740 81b2 c3bd
00000080: d904 3dbd f25d ffbb b567 8c40 18fb 33c0
00000090: 8110 153d cf15 b4ba 5511 e0bd 4c72 cdbc
000000a0: 002d 5640 8841 9c3c 8cd4 44c0 3c3f 9ebf
000000b0: 8fb1 8b40 9298 c5bd 9c31 ef3f c87e bdbd
000000c0: 9078 f3bd 5366 bfbe 1717 5cbc 3b53 84bc
000000d0: d0a9 633f 14dc 203c a519 5d3f 2ed7 80bd
000000e0: c27c 8640 3ad8 923f 2db1 3f3c 7007 c1bf
000000f0: acc6 83bd b603 4e40 db6c c3bd eaaf 86bc
00000100: 177d bd40 1312 ab40 1090 c33f bac2 9340
00000110: 78b2 c9bf 16f9 81bd 3851 f7bc 5161 97bd
00000120: 057d 543f 3c93 cf3b f6af a7bd c764 ef3f
00000130: 9489 9a40 7043 883f fc34 05bf f1bb 9f3c
00000140: 9045 bc3b 195d 16be 9191 6d3c b291 9bbd
00000150: 2c23 48bd 7e73 aabd d929 f93c 9575 b6bd
00000160: d807 7c40 936d ff3c f0a7 7fbd 9b68 3d40
00000170: d037 c13f 51a3 75be 6f07 5f3d 57ea 09bd
00000180: eee8 5dc0 1b52 f5bc 9446 303c a99f 923c
00000190: ac32 d23c 060a 8340 c08d a3bd c3f3 b2bd
000001a0: 4292 873c f11b a640 e820 cf3c 917e 69bd
000001b0: 7307 4040 4f5e 74bd ac04 9b40 a2a5 8940
000001c0: 8d79 153f 1101 af40 0884 313d 285e 7ebd
000001d0: 429c 87bd 988c c1bc d3a8 a140 1f56 17bd
000001e0: faa1 bfbf 0b21 b440 a39d 9e40 4e9a 4fbd
000001f0: 07c4 a040 6df3 47bd fdfc 8cbd 6884 e3bd
0.8220267 0.59889585 -0.0028465483 0.5984279 0.60222566 -0.08904841 -0.6875645 -0.014568534
0.7616006 3.6257162 3.8346844 -0.047142837 1.6445674 0.0024459881 -0.11162477 0.070474595
-0.09654904 0.5718949 0.600734 5.064371 0.025476603 5.6355753 2.898814 1.253452
-0.08220753 -0.055081625 3.687528 0.019783037 0.032614775 0.017508656 5.738546 -0.09555531
-0.0461472 -0.0077931816 4.3876595 -2.8122005 0.036392692 -0.001373941 -0.10940806 -0.025078915
3.3464966 0.019074216 -3.0754728 -1.2363048 4.3654246 -0.09648241 1.8687015 -0.09252697
-0.1188823 -0.37382755 -0.013433239 -0.016152969 0.8893099 0.009818096 0.86367255 -0.06291042
4.202729 1.1472237 0.011699957 -1.5080395 -0.06434378 3.2189765 -0.09542247 -0.016441304
5.9215198 5.3459563 1.5278339 4.6175203 -1.5757589 -0.063463375 -0.030190095 -0.073916085
0.83003265 0.0063346904 -0.08187859 1.870263 4.829294 1.064558 -0.5203397 0.019498797
0.005745597 -0.14683951 0.014500038 -0.075961486 -0.048861668 -0.0832281 0.030415462 -0.08909146
3.9379787 0.031180179 -0.062416017 2.9595096 1.5095158 -0.23988082 0.05445045 -0.03367075
-3.467342 -0.029946378 0.010759015 0.017898398 0.025658928 4.0949736 -0.07986021 -0.087379
0.016549233 5.190911 0.025284246 -0.05700547 3.0004547 -0.059660252 4.8443203 4.301469
0.58388597 5.46888 0.043338805 -0.062101513 -0.06621601 -0.02362661 5.0518584 -0.036947366
-1.4971306 5.6290336 4.956743 -0.050684266 5.023929 -0.048816133 -0.06884191 -0.11109239

network.2.weight f4 [128, 128]
00000000: b79d 093d 9187 7e3d 5e9a f1bc 2608 693d
00000010: a228 c1bd f463 483d f37b bebc c5b1 9bbd
00000020: 4934 443d 4b21 403d 045a 8cbd 68b7 5bbd
00000030: c400 193d 7d62 a4bd b604 30bd c6f3 233d
00000040: 4033 fcba 30cf 8ebd f460 0abd cc27 d33b
00000050: 518a 07bd c7a6 9b3b 9ba2 16bd 96f2 03bc
00000060: b2b9 45bd c9d8 873d 29ef a4bd a29e 03bd
00000070: c2ef 443d 183a 493c cbbe 24be dddf 4c3d
00000080: 307e fa3b 4328 71bb d0d2 1bbe 6102 d2bd
00000090: 42e3 403d dd82 9c3d 98ca 42bd e7e4 a13d
000000a0: b47e 9c3c c8d2 a83c 3a53 dcbd af18 57bd
000000b0: 9d42 01be 1580 9cbd d7aa a6bd 94de 9abd
000000c0: 40a6 8a3d 38ae a13d 2c05 99bd 9013 6ebc
000000d0: 43e9 5dbc 208a 463d 666e 85bd 6c07 ecbc
000000e0: ed54 ba3c c5f2 683d 3369 8cbd e699 273c
000000f0: 428d 4b3c 474c f3bc 7206 98bd 24cf f4bc
00000100: f6e5 86bd 9959 80bd c2f2 293d 22a9 8dbd
00000110: 9c52 8cbc 884c 223c a713 96bd 64b7 b1bc
00000120: 78ab 503d 483f 723c 6f1b 833d f62f 23bd
00000130: 7447 0b3d 88fb 1ebd 6cdf 82bd 229b 283d
00000140: 20c2 3bbd 584c 0a3d 915e 803d 9031 41bc
00000150: c0ea 67bb 4074 263b 8b62 a4bd b6d2 403d
00000160: 3b86 8e3b 4452 86bd 46db 723d e8d1 b0bd
00000170: 0bfc 3b3c 4c0d 53bd 381d ed3b ab46 3dbd
00000180: ad09 90bc 4dac 34bd b7a0 91bd 91dc 7d3d
00000190: 679b 873d 630d 0c3c d00b 67bd 1284 8cbd
000001a0: 0e31 1f3d 36d6 5cbd e122 40bd 622e 203d
000001b0: 7749 253d 54e6 a33c a6d5 f73c 152a 28bd
000001c0: c8f0 403d d1f2 dcbd 6021 04bc 60cf 51bc
000001d0: 143f 40bb d8f0 153c 2353 83bc c1d4 c13a
000001e0: eca8 0f3d 6122 243d b931 5fbd 05f5 80bd
000001f0: bd4f 38bd 638a 9fbd be08 313d 5774 a1bd
00000200: 6028 a3bd f5b0 d73c 15b6 9e3d 57c2 d33b
00000210: 725f 263a 5abb 733d f478 febe 107e bf3c
00000220: 7a9b cbbd 0000 e83e 1803 2a3f 6a95 6c3d
00000230: f24b 9abd 721f aebd 88f4 363c d4b3 96bd
00000240: f7ef 3bbd f4bb 0b3d 2c59 1e3c 3693 053d
00000250: 1073 da3c 6ea5 1c3e d359 2f3f e841 c0bd
00000260: 402e db3c 99c5 8e3d 3893 4e3f f87a 1e3c
00000270: 2e94 2f3d a03b aabb 7d2f e53b 7342 61bd
00000280: 00b6 fb3a 587c efbc edbb 9e3c 2183 b5be
00000290: b842 c0bc 5312 a4bb 2848 1f3c 7013 91bb
000002a0: aa0e 7e3e 2c28 0d3d 92a6 7b3d 7165 b7bf
000002b0: 8b76 003f 51d3 5cbd 132c 053f 5a3a ba3b
000002c0: 5014 f63c 3488 83bc 0ed2 7c3d 0052 203a
000002d0: 10b3 2cbd a062 7b3c d623 d1bd c0b1 fdba
000002e0: b48a 94bd c935 77be 3b24 8c3d 4c4f 10be
000002f0: c5ed 9abd 9fd8 bc3f fa86 333d 39e9 b13d
00000300: f943 823e 3a6d c63b db6c e23b 03f0 543e
00000310: 4e3d 52be cce7 e83c 7dc9 873d 0f68 9e3d
00000320: 2545 babd 7227 0a3d ddd0 913d b665 e73d
00000330: dc87 d23d 635e 6dbd e654 08be 6de1 fa3c
00000340: 8044 36bb d7a6 7f3e f519 833d 2d6c a73d
00000350: 177b b3bd c06b 5abd 0b99 9cbd a0fd 6f3c
00000360: e9ed 0e3d 40c1 90bd 3a65 703d 733f d13f
00000370: 9b90 3dbd ec54 b1be 5ad3 483d 8698 923b
00000380: 0e03 28be da93 37bd c02e 72bb ec38 da3c
00000390: 7022 363c 8da3 d03e e5cf a6bd d186 9a3d
000003a0: dc65 d5bd 3b6b dcbe 91af c73d c001 36bd
000003b0: 9601 293f 84a4 b1bc 6e8c bdbe 7267 8dbd
000003c0: 3ceb f7bd 8a0f eabd 7079 afbb 42de 5abd
000003d0: c736 a53d 1059 3bbc 94f5 913e ffcf a13d
000003e0: 8e13 a3bd 2ea6 073f 265d 773d 0bae 68bd
000003f0: 2f7d babd 6757 df3d 6c1f 3e3d 8b70 993d
0.033597674 0.062141005 -0.029492553 0.056892537 -0.09431578 0.048923448 -0.023252463 -0.07602266
0.047901426 0.04690675 -0.068531066 -0.053641707 0.037354246 -0.08026598 -0.042973243 0.040027402
-0.0019241348 -0.06973112 -0.033783868 0.006443953 -0.033090893 0.004750106 -0.036776166 -0.008053442
-0.048272796 0.06633145 -0.08053429 -0.032133706 0.048080213 0.012281917 -0.16088407 0.05001818
0.0076444373 -0.003679768 -0.15217137 -0.1025436 0.04709173 0.07642148 -0.04755649 0.07904988
0.019103386 0.02060832 -0.10758062 -0.052513774 -0.12623067 -0.07641617 -0.08138054 -0.07561985
0.06769991 0.07894558 -0.074716896 -0.014531031 -0.013544383 0.04847157 -0.065151975 -0.028812133
0.022745574 0.056872148 -0.06856003 0.010229563 0.012423815 -0.029699458 -0.07423104 -0.029883929
-0.0658683 -0.062670894 0.041491278 -0.06917025 -0.017129235 0.009905942 -0.07327967 -0.021693893
0.050944775 0.014785595 0.06401717 -0.03984066 0.03400369 -0.038814098 -0.063902706 0.04116357
-0.04583943 0.033764213 0.06268037 -0.011791602 -0.0035387725 0.002539888 -0.08026608 0.04707595
0.0043494976 -0.0655866 0.059291147 -0.086337864 0.011473666 -0.051526353 0.007236149 -0.046209972
-0.017582739 -0.04410963 -0.07110732 0.061977927 0.066214375 0.0085481135 -0.05640775 -0.06861128
0.03886514 -0.053915225 -0.046908263 0.039106734 0.040353265 0.02000729 0.030253243 -0.041055758
0.047104627 -0.10788501 -0.008064598 -0.01280579 -0.0029334472 0.00915166 -0.016030854 0.0014788137
0.035073206 0.04007185 -0.05449078 -0.06296734 -0.04499792 -0.07790067 0.043221228 -0.07883518
-0.07966685 0.026329497 0.07749573 0.006462376 0.000634662 0.059504844 -0.49701655 0.023375541
-0.09941764 0.453125 0.6641097 0.05775968 -0.07534017 -0.085020915 0.011166699 -0.07358518
-0.045883145 0.034114793 0.009664815 0.032611094 0.026666194 0.15297481 0.68496436 -0.093875706
0.026755452 0.069712825 0.8069339 0.009672873 0.042865925 -0.005195096 0.0069941864 -0.05499501
0.001920402 -0.029234096 0.01937672 -0.35451606 -0.023469314 -0.005007067 0.009721793 -0.004427366
0.24810281 0.03446214 0.06143815 -1.4327832 0.5018088 -0.053912465 0.52020377 0.0056832256
0.030038983 -0.016056158 0.06172376 0.00061157346 -0.042162955 0.015343338 -0.10211913 -0.0019355342
-0.07253018 -0.24141611 0.06842848 -0.1409275 -0.07564882 1.4753608 0.043829896 0.08687062
0.25442484 0.0060555013 0.0069099492 0.20794682 -0.20531198 0.028430842 0.06630228 0.07734691
-0.090952195 0.033729024 0.07119916 0.11298697 0.10279819 -0.057951342 -0.13313636 0.03062507
-0.0027811825 0.24965988 0.06401435 0.0817493 -0.08763712 -0.053325415 -0.07646378 0.014647871
0.034894858 -0.070681095 0.058690287 1.6347488 -0.046280485 -0.34635103 0.049029686 0.0044737486
-0.16407415 -0.044818737 -0.0036954135 0.02663847 0.011116609 0.4074978 -0.081451215 0.075452454
-0.10419819 -0.4305056 0.097502835 -0.044435263 0.66018045 -0.021684892 -0.37021202 -0.06904496
-0.12105414 -0.11428745 -0.0053550526 -0.053434618 0.080670886 -0.011434808 0.28507674 0.07901
-0.07962714 0.52987945 0.060391568 -0.056806605 -0.09105908 0.109053425 0.046416685 0.07492169

network.2.bias f4 [128]
00000000: 4b6d bcbd 0920 1e3f 5d99 5fbd 6ab9 01bd
00000010: e45f 7c40 49df 1bbe 4b63 a740 4ae7 043f
00000020: 0046 9fbd f1e0 68bd 5f2c 8dbd 61de e6bd
00000030: 3e4d febc 2cb2 93bd c0f1 323d eb46 a53f
00000040: 2642 a5bd e22a 6a40 b7c9 bebc ec75 aa40
00000050: 679d 4b40 5376 22bd 8d1a 1f40 fc62 aabd
00000060: 9e9f b040 a161 60bd 3b7f ac40 14b6 f8bc
00000070: 629b 18be 0c74 3b40 c678 a940 6908 a940
00000080: faf5 2a3d e20c 9440 65da ee3c 55cd 9740
00000090: f0b2 2d3f ab43 9c40 4e71 9f40 5161 53bd
000000a0: 0c51 c13c f3d3 01be 8727 cd3c 1903 a73c
000000b0: d3d9 85bd d2a4 44bd 5421 a540 ffb0 b1bd
000000c0: 6a88 e0ba 78af 9c40 0ed4 9b40 f38e 11be
000000d0: 14d9 b440 6684 963c 58dc 9f40 5b9b 7b40
000000e0: e953 9ebc 6b91 ccbd c670 2440 11e2 a240
000000f0: 6bf5 a340 14b5 9f40 3e5d 8dbc 38d5 0dbd
00000100: 8996 9bbd eec8 3ebd f138 a740 f3f1 4bbe
00000110: a02a ac40 cad0 2e3d b64c a940 6a6c b040
00000120: d640 37bc c92d 16be d24c 9c40 c7aa aa40
00000130: 544f a540 483e 51bd 43e8 93be cd63 37bf
00000140: dfd9 68bd 4b07 38be c48e 0bbe 8f54 9d3f
00000150: 471c a840 c4c5 7abd 2ffc ab40 9321 19bd
00000160: 6112 6cbc 365a 1e3c fe69 a140 3336 8c40
00000170: 5121 fc3b 530a 20be da97 b5bd e990 693d
00000180: 2970 a740 c9f9 a740 2dcc babd 0ec9 b0bd
00000190: ae58 a7be 63f2 06be f328 a840 e8ca a13c
000001a0: a04c fdbd f7e9 c03f a90e 85bc 5a09 26bc
000001b0: 9f2b ccbd ea12 ae40 707b ce3c c5fc 35be
000001c0: e01a cc3f fcf6 55be 9319 0ebe ebe2 94c0
000001d0: 81e7 763c 53ff a240 5f08 433c 53b7 d8bd
000001e0: e4e8 adbd 9fd2 d7bc 98b4 aebd 21ad 26bd
000001f0: 4082 253c 1274 a840 9026 8bbd b978 9f40
-0.092005335 0.6176763 -0.054589618 -0.031670965 3.9433527 -0.15221895 5.2308707 0.5191542
-0.07777023 -0.056855146 -0.06893229 -0.11272884 -0.031042691 -0.07211718 0.043687582 1.2912267
-0.080692574 3.6588674 -0.023289545 5.3268948 3.181482 -0.039663624 2.4859955 -0.08319661
5.5194845 -0.054780606 5.390531 -0.03036026 -0.14903024 2.928958 5.295993 5.2822766
0.041738488 4.6265726 0.029156873 4.743815 0.6785116 4.8832603 4.982581 -0.05160648
0.023598216 -0.12678508 0.025043262 0.02038722 -0.06535687 -0.048008747 5.1603184 -0.086763375
-0.0017130498 4.8964195 4.8696356 -0.14214687 5.651499 0.01837368 4.9956474 3.9313571
-0.01932712 -0.09988674 2.5693831 5.090096 5.1237082 4.9908543 -0.017256375 -0.03462717
-0.07597072 -0.04657834 5.225701 -0.19916515 5.3802032 0.042679586 5.290614 5.513234
-0.011184892 -0.14665903 4.8843775 5.333347 5.1659336 -0.051084787 -0.2888814 -0.7163666
-0.056848403 -0.17971532 -0.1362868 1.229143 5.253452 -0.06122376 5.374534 -0.037385534
-0.014408679 0.009665063 5.0441885 4.381616 0.0076944013 -0.15628938 -0.08866854 0.057022963
5.2324414 5.2492414 -0.09120975 -0.08632098 -0.32684845 -0.131784 5.2549987 0.019750074
-0.12368131 1.50714 -0.016242342 -0.0101340655 -0.099692576 5.439809 0.025205344 -0.17772205
1.5945702 -0.20894998 -0.13876943 -4.6527 0.015069843 5.0936675 0.011903851 -0.10581841
-0.08491686 -0.02634555 -0.08530539 -0.040692452 0.010101855 5.2641687 -0.067944646 4.9834867

network.4.weight f4 [12, 128]
00000000: 51fc 513a a69f 233f 8758 03bd 1096 37bc
00000010: ad81 4d3e 0428 023d 3b9a c53e 3086 a13d
00000020: 84b4 e03c 33fd 9b3d 948e 0ebd 1573 a6bd
00000030: e439 b0bd 34cb 9dbd 3c63 afbd 1217 a9be
00000040: b8f3 5ebc 09ad da3e d89d 81bc 4cf2 e33e
00000050: 657c 103f 4cd3 8b3d 551e 0e3f d4af f03c
00000060: 0f5c 013f bc6b 33bd cea4 043f 427a 913c
00000070: 34c4 a93d 4847 8e3f ed84 0e3f a703 043f
00000080: 2fcf c2bd b2ff 1d3f 9602 9f3a 19f9 543f
00000090: 7191 073e 65b6 023f 40f3 033f c214 1cbd
000000a0: c010 6fbc 9eb7 1b3c b264 573d dc12 033d
000000b0: 11cb c73c 2b48 9e3d 90e1 0c3f b94f 043d
000000c0: d9fc 25bc fe62 be3f c3ac c83e 7881 1bbd
000000d0: 26fc 253f b55f e83d 092b f03e 73d6 013f
000000e0: f0c6 01bd 0eca 17bd 84ec 3f3f 63ef ee3e
000000f0: 439f 163f 5c8f 083f 3749 97bd 45e1 92bc
00000100: 3c22 1bbb 68a5 583d 904e 003f 4fa9 4dbc
00000110: 9a9d 0f3f 1605 0f3d 2d38 113f eeb6 513f
00000120: fc90 04bd 6dcb f63c f044 293e f464 f93e
00000130: a18f f93e 801c 6a3d 6043 d53c 4bce 4cbc
00000140: ff19 b03a d0af ea3e 74a1 a03b 259e d33e
00000150: fffb 0a3f fe0d 3dbc bdca 043f 3930 a73d
00000160: 02fb 69bd c655 3c3d 06e7 e73e 825c 963e
00000170: 9355 fbba ae67 e2bb a826 053e b536 5ebd
00000180: edb4 f13e 9143 e13e a555 83bb 0034 5d39
00000190: 5e3f e13c 2360 bb3c 9a92 023f 8f17 0c3c
000001a0: b0eb 8e3d 0291 4a3f a55f 8d3d 9c60 7d3b
000001b0: c68a 063e 62e3 013f 68af f7bc f0cf d9bc
000001c0: 1a9a d53e e18f 0f3f f5d7 323d bb70 9bbe
000001d0: 6abf 3abd d6d4 fa3e 6f45 1e3d 762f 113d
000001e0: d8be 88bb 2378 78bc 0fee 0dbc 27f6 e3bc
000001f0: 4aa8 4b3d dd41 113f 14e0 df3c 1845 bb3e
00000200: b0b8 6abd cf26 4f3e ef42 5b3b 1e6f a9bd
00000210: 5497 653d 7584 05bd 4aa3 f13e 6646 bd3d
00000220: 925f 3bbd 9e6c 403d 16d9 da3d 7d4c 5c3d
00000230: e66a 473c b426 e93d 077e b23d 2d07 393e
00000240: a051 243b 766c dc3e 826d d23d b7f4 ea3e
00000250: 125f 493f 7874 82bd 483d 5c3f 75ea ab3d
00000260: 76e1 fb3e b15b 33bd f78d f53e 7595 b63c
00000270: baa3 a2bd 1080 9b3f c24a 0e3f da62 033f
00000280: 722a 243d 4fd8 133f a388 a73d 5ba0 533f
00000290: 9e63 2b3f 9fd7 ec3e cbad fa3e e6fc 93bd
000002a0: d6a4 dcbc 2b53 8e3d 5986 a7bd 34f2 abbd
000002b0: c657 e23d bc3f 0dbc 49fc 173f 4251 9cbc
000002c0: c42c 6fbd a4e2 ab3f 2974 023f 7506 c13c
000002d0: d6c4 aa3e aee8 b63d cd2c e33e f677 ad3e
000002e0: c89e afbc 47e5 3cbd 0994 433f 2131 fe3e
000002f0: 524b 123f eba5 0c3f 5871 95bc 5343 2e3d
00000300: 45bb f5ba 1c9d 94bb 61ee d83e d5a7 bc3c
00000310: b419 0b3f 3e85 99bd b847 f23e 3eff 323f
00000320: f7bd 98bd 49eb 603d ba21 8a3e 5c0d f73e
00000330: 8103 d63e 52d6 b33d c35c 9e3d 82f0 dc3e
00000340: dba6 173d 5c42 b8be d585 c7bc 1a23 e43e
00000350: 8dd1 023f 8bbb 3cbd 7bc8 093f f5bb 97bc
00000360: 4a1d 60bc 7fd1 adbc dd36 053f 0c34 183f
00000370: 5d6f 413d 2cbf b93d ce77 083d c062 aebd
00000380: 7e92 ea3e 94e8 f53e c51b 53bd 59f9 843d
00000390: aeb8 a9b9 6308 97bd b47f 023f 16ca 783d
000003a0: a312 ba3d 29bd 1d3f e981 1a3d 8629 523d
000003b0: e977 a53c a181 053f b896 743b 00dc cfba
000003c0: f5c1 433f 4f5a e7bd 59af 95bc 386d 0abf
000003d0: 2493 3a3d fcf0 df3e a69c 853d 4dc7 9abc
000003e0: ab14 8d3d 4cfa 74bd 5b8e 9abb eb0b 86bd
000003f0: 4943 b0bc fce4 123f 1e20 c53c 2250 be3e
0.00080103154 0.6391548 -0.032066848 -0.011205211 0.20068999 0.031776443 0.3859423 0.07886922
0.027429827 0.07616653 -0.03480394 -0.08127419 -0.08604792 -0.077047735 -0.08563849 -0.33025414
-0.013607912 0.4271014 -0.015822336 0.44520795 0.5643981 0.06827411 0.55515033 0.029380716
0.50531095 -0.043803915 0.5181397 0.017758492 0.08289376 1.1115503 0.5567158 0.51568073
-0.095121734 0.61718285 0.0012131508 0.8319259 0.13239075 0.5105956 0.51543045 -0.038105734
-0.014591396 0.009504227 0.052586265 0.032000408 0.024388822 0.07728609 0.5503168 0.032302592
-0.010131084 1.487396 0.39194307 -0.037965268 0.64837873 0.1134638 0.46907833 0.5071785
-0.031683862 -0.03705793 0.7497027 0.46667013 0.58836764 0.5334375 -0.073870115 -0.017929683
-0.0023671528 0.05289212 0.50119877 -0.012552573 0.56099856 0.03491696 0.5672634 0.81919754
-0.03236483 0.030126298 0.16530204 0.48709834 0.48742393 0.057156086 0.026033103 -0.012500356
0.0013435482 0.4583726 0.004902059 0.41331592 0.54290766 -0.0115389805 0.51871854 0.081634946
-0.057124145 0.045980237 0.45293444 0.29367453 -0.0019175283 -0.0069093322 0.13003027 -0.05425139
0.47208348 0.43996862 -0.0040080124 0.00021095574 0.027496036 0.02287299 0.51004946 0.008550539
0.069785476 0.79127514 0.06903008 0.003866232 0.13138875 0.50737584 -0.030235007 -0.02658841
0.41719133 0.56078917 0.043662984 -0.30359444 -0.045592703 0.48990506 0.038640436 0.035445653
-0.004173141 -0.015165362 -0.008662715 -0.027827336 0.04972104 0.56741124 0.027328528 0.36576152
-0.057305038 0.20229648 0.0033456644 -0.08273147 0.05605252 -0.032597024 0.47194892 0.09241943
-0.04574544 0.046978585 0.10685937 0.053783882 0.012171483 0.11384335 0.08715444 0.18069144
0.0025073066 0.430515 0.10274793 0.45889828 0.7866069 -0.06369871 0.8603101 0.083943285
0.4919545 -0.043788616 0.47959873 0.022288064 -0.079413846 1.2148457 0.5558282 0.5132271
0.04007954 0.57751936 0.08180358 0.8266656 0.6694888 0.46258256 0.4896072 -0.07225971
-0.026934069 0.06949457 -0.08179922 -0.08395806 0.11051898 -0.0086211525 0.5936933 -0.019081715
-0.0583923 1.342854 0.50958496 0.02356265 0.333533 0.08931099 0.44370118 0.33880585
-0.021438017 -0.046117093 0.7639776 0.49646857 0.5714618 0.5494067 -0.018242523 0.042544674
-0.0018747827 -0.0045353305 0.4236937 0.023029247 0.54336095 -0.07496117 0.47320342 0.6992072
-0.07458108 0.054911885 0.26978856 0.4825238 0.41799548 0.08781113 0.07732537 0.43152243
0.03702436 -0.35988128 -0.024355808 0.4455803 0.51101 -0.046077292 0.53821534 -0.018522242
-0.013678858 -0.02121806 0.5203684 0.5945442 0.047225345 0.09069666 0.03331738 -0.08514929
0.4581489 0.48029006 -0.051540155 0.06492872 -0.0003237179 -0.073746465 0.5097611 0.0607396
0.09085586 0.6161676 0.03772155 0.05130913 0.02019878 0.52150923 0.003732128 -0.0015858412
0.7646783 -0.11296522 -0.018272089 -0.54072905 0.04555048 0.43738544 0.06524019 -0.018893862
0.06888708 -0.059809014 -0.004716677 -0.06545242 -0.021516459 0.5738065 0.024063166 0.3717051

network.4.bias f4 [12]
00000000: 3641 1c40 90d9 cf3f 1e53 e83f 51de 1040
00000010: 2589 0840 4433 9f40 d021 4640 734c c23f
00000020: 1678 0440 d69b 0240 bcfd 7d40 55d1 8b40
2.4414802 1.623827 1.8150365 2.263569 2.1333706 4.975008 3.0958138 1.517958
2.0698295 2.0407615 3.9686117 4.369303

network.0.weight f4 [128, 134]
00000000: 4af5 b6bc 85a9 a8ba 517e 4dbd 9b75 8cbd
00000010: 4d2b 88bd 51ad 65bd 3c10 333d 6cc0 e0bc
00000020: 6f6a 5ebd 940d a9bc 0458 00bd 4054 5a3c
00000030: 8c07 713d 5e88 a83d 78e7 d1bc 5cfb 82bc
00000040: f2a5 64bd 2c52 943d c220 8bbd 963b ab3d
00000050: d2c1 1c3d 70dd 983b 841f 293d 882a abbc
00000060: 2831 463c 6840 57bd 0414 043d 8af2 a33d
00000070: f942 a2bd 8cd4 483d 60d6 da3b a0ee 013d
00000080: 304d d53c 6e5a 953d 5858 713d 5044 85bd
00000090: 0037 e83b 0ae3 e8bc 8c13 8fbc 8084 d73a
000000a0: 1373 6dbd 606f 50bb 34a8 53bd e45a 203d
000000b0: d021 abbb 793e 95bd 50e8 b43b 1f0f a3bd
000000c0: 04f2 843d c6f6 8c3d 7bc6 a2bd dcef 8abd
000000d0: 90bc a43b 38a0 6dbc 58ed 7abd 381e 05bd
000000e0: de32 82bd 68fd 72bc 13dc 9dbd 3dd3 23bd
000000f0: b9cf 24bd 3bab 09bd 34be 8c3d 7474 5ebd
00000100: ee1f 30bd 64cb 6f3d b00c a2bb 92a8 0dbd
00000110: f895 1fbd dcc8 aabc 2091 063b 2f3d 81bd
00000120: a070 c6bb 38e1 1c3d c05f 113c a8e2 a53d
00000130: 6cb3 113d 039d 98bd 38ad 203d eca4 e23c
00000140: 6f37 71bd dc18 92bd 1871 66bc c0dd 99bd
00000150: b879 f2bc e258 65bd cca0 3d3d 0008 1f3b
00000160: 2cb9 83bc 9079 1f3d 707f 563d f347 aebd
00000170: b87d 553c bd50 8dbd c815 4cbd 8a12 a53d
00000180: d05e a13d b2c1 84bd d0b4 89bc c0e2 47bb
00000190: 2f38 83bd 268d 68bd a00d 803d 6cbc 703d
000001a0: fc01 4c3d e832 9bbd 542e b3bc d6ae a1bd
000001b0: c868 8cbc 78f9 acbd 2483 b2bc 9c00 21bd
000001c0: 9e74 963d f01c e73b 20fa 833c f06c 08bc
000001d0: 1858 13bd 4c92 3cbd 0da2 90bd 4020 39bc
000001e0: 1c88 bb3c 080d 783c badf 993d 9c23 503d
000001f0: ccab 083d f06b af3b ecef 87bc b4de a0bd
00000200: 7cf6 823d f0e0 b9bc 9018 7c3d 3c96 233d
00000210: 2e73 8a3d f0d6 853b 8dc6 c6bc 1717 a1bc
00000220: 70f8 d7bb 8c11 ab3d 26c1 103d 307c 8abc
00000230: 0bc1 81bd 60cd dfbc 6279 9dbd a0f1 063d
00000240: a02b 2cbd 2029 9c3c 0013 8f3d e02f 3f3d
00000250: 24af a13d f6fb 83bd 54b4 8ebd 8857 743d
00000260: d242 81bd 907f 29bc beb6 c8bc 22a0 123d
00000270: 8442 aebc 6690 71bd 48f7 16bc 3887 803d
00000280: 9877 3f3c b0a3 853d 910f 2abd 841d a83c
00000290: c046 40bd 8e83 9abd 23df 83bd dcb8 3bbd
000002a0: c86f 533d 7147 98bd 3c37 193d f4b2 e43c
000002b0: 9f18 9ebd d4c0 813c 8a01 2bbd 28f2 65bd
000002c0: 3841 6e3d fa74 833d 3869 a9bd 4a49 e8bc
000002d0: a813 bd3c 0036 073b 9d33 82bd 8428 833d
000002e0: f875 283d 1cc4 643d fc44 e1bc 943d a43c
000002f0: ebed 85bd ec4d 643d b2f3 033d 0407 753d
00000300: cc21 b83c a828 fcbc 0c06 483d 485e 32bd
00000310: aa73 adbd d6b8 cdbc 383c 513d 1690 863d
00000320: d06c 2abd 7e75 81bd 6cd4 533d 8491 91bd
00000330: 184e 2a3c 8551 68bd 8455 c5bc 0ca9 633d
00000340: 9047 17bc e8d1 2fbc fc3e 24bd d82b 93bd
00000350: b472 a43d 9883 b0bc f80c 6f3d 6019 5cbd
00000360: 40fc 8a3d c029 363d f0ff b6bc c6a5 01bd
00000370: 7db7 a5bd 8ef9 57bd 9136 94bd 106b c03b
00000380: a04e 0a3b 81ff 41bd 0c25 3abd 7af1 90bd
00000390: 00ba b439 3887 a13d 3e88 edbc 2aa7 41bd
000003a0: 2890 45bc 14da 383d 9840 3abd 90f8 65bc
000003b0: 18d6 7e3d ec75 963c 2078 613d 5e39 a33d
000003c0: 6651 81bd 76ad 94bd 441f 253d c0d4 af3a
000003d0: 1837 873d 702b 65bc 4888 9cbc c1e6 32bd
000003e0: f59f 06bd 78db d2bc 187d 9e3c 40e9 a73c
000003f0: 207b 8e3d ddc1 abbd a032 53bb 40d2 f33a
-0.02233376 -0.0012867904 -0.050169293 -0.06858369 -0.06648884 -0.05607349 0.043716654 -0.027435504
-0.05430072 -0.020636357 -0.03133394 0.013325751 0.058845088 0.08229135 -0.025623068 -0.015988998
-0.05582232 0.072422355 -0.067933574 0.083609745 0.03827078 0.0046650693 0.04128982 -0.020894304
0.012096681 -0.052551657 0.03224565 0.08005245 -0.0792293 0.049030825 0.0066783875 0.03172171
0.026037782 0.07292639 0.05892214 -0.0650717 0.0070866346 -0.028428573 -0.017465375 0.0016442686
-0.05797107 -0.0031804666 -0.051674083 0.03914918 -0.0052225366 -0.07287306 0.005520858 -0.079618685
0.06491473 0.06883006 -0.079480134 -0.06784031 0.005027361 -0.014503531 -0.061261505 -0.032499522
-0.063573584 -0.014830925 -0.077079915 -0.039996374 -0.040237162 -0.033610564 0.06872216 -0.054310277
-0.0429992 0.058543578 -0.00494536 -0.03458459 -0.03896138 -0.02084773 0.0020533279 -0.06310498
-0.0060559064 0.038300723 0.008872926 0.08099872 0.0355715 -0.074518226 0.039227694 0.027666532
-0.058890756 -0.07133648 -0.01406505 -0.075129986 -0.029599056 -0.05599297 0.046295926 0.0024266243
-0.016079508 0.03893429 0.052367628 -0.08509817 0.013030462 -0.06900165 -0.04982546 0.08060177
0.07879412 -0.06482257 -0.01680985 -0.0030500144 -0.064072005 -0.056775235 0.06252599 0.058773443
0.04980658 -0.07578069 -0.021872677 -0.078946754 -0.017139807 -0.0844602 -0.021791048 -0.03930722
0.07346462 0.00705301 0.01611048 -0.008326754 -0.035972685 -0.046037957 -0.07062159 -0.011299193
0.02289205 0.015139826 0.075133756 0.05081521 0.033366963 0.0053534433 -0.016593896 -0.07854977
0.063946694 -0.022690266 0.061546862 0.039938197 0.0676025 0.0040844604 -0.024264598 -0.01966433
-0.0065908954 0.08352956 0.03534045 -0.01690492 -0.06335648 -0.02731961 -0.076891676 0.032945275
-0.04203379 0.019062579 0.06986046 0.046676517 0.078947335 -0.06444542 -0.069679886 0.05965379
-0.06311573 -0.010345355 -0.0245012 0.035797246 -0.021271951 -0.0589756 -0.00921423 0.06275791
0.011686228 0.065253615 -0.04151875 0.020521887 -0.046942472 -0.07544623 -0.06439044 -0.045830593
0.051620275 -0.07435501 0.03740619 0.027917363 -0.0771954 0.015839018 -0.041749515 -0.05613914
0.058167666 0.06418796 -0.08272022 -0.02835526 0.023080662 0.0020631552 -0.06357501 0.06404212
0.04112813 0.055851087 -0.027498715 0.020048894 -0.0653952 0.055738375 0.032214828 0.059821144
0.022477053 -0.030781105 0.04883389 -0.043546945 -0.08469327 -0.02511255 0.05108282 0.06570451
-0.041607678 -0.06321238 0.051716253 -0.07107833 0.010394596 -0.056718368 -0.024088629 0.055581138
-0.00923337 -0.010731198 -0.04009913 -0.07186097 0.080296904 -0.021547124 0.058361977 -0.053735137
0.06786394 0.04447341 -0.022338837 -0.031652234 -0.08091638 -0.05272823 -0.0723697 0.005872138
0.0021103993 -0.04736281 -0.045445487 -0.07077308 0.00034470856 0.07887119 -0.02899563 -0.04727856
-0.012058295 0.04512985 -0.045471758 -0.014036313 0.062215894 0.018366776 0.0550462 0.07969926
-0.06314354 -0.072596475 0.04031302 0.0013414845 0.06602305 -0.013987407 -0.019107953 -0.043677095
-0.03286739 -0.025739416 0.019346759 0.020496964 0.06957078 -0.08386586 -0.003222622 0.0018602088

network.0.bias f4 [128]
00000000: 5870 523f 3d51 193f 288d 3abb 9232 193f
00000010: 762b 1a3f 035f b6bd 3a04 30bf dcb0 6ebc
00000020: 42f8 423f bc0b 6840 786b 7540 d918 41bd
00000030: 2f81 d23f df4c 203b 879b e4bd fc54 903d
00000040: 81bb c5bd b467 123f b4c9 193f db0f a240
00000050: 4fb4 d03c fa56 b440 2b86 3940 1d71 a03f
00000060: 6c5c a8bd 459d 61bd 7500 6c40 0910 a23c
00000070: 1297 053d 506e 8f3c b2a2 b740 81b2 c3bd
00000080: d904 3dbd f25d ffbb 7367 8c40 f7fb 33c0
00000090: 8110 153d cf15 b4ba 5511 e0bd 4c72 cdbc
000000a0: 5b2d 5640 8841 9c3c 8cd4 44c0 6142 9ebf
000000b0: 8fb1 8b40 9298 c5bd 9c31 ef3f c87e bdbd
000000c0: 9078 f3bd 5366 bfbe 1717 5cbc 3b53 84bc
000000d0: d0a9 633f 14dc 203c a519 5d3f 2ed7 80bd
000000e0: c27c 8640 3ad8 923f 2db1 3f3c 7007 c1bf
000000f0: acc6 83bd b603 4e40 db6c c3bd eaaf 86bc
00000100: 2a7d bd40 1312 ab40 1090 c33f 8ac3 9340
00000110: 78b2 c9bf 16f9 81bd 3851 f7bc 5161 97bd
00000120: 057d 543f 3c93 cf3b f6af a7bd c764 ef3f
00000130: 9489 9a40 7043 883f fc34 05bf f1bb 9f3c
00000140: 9045 bc3b 195d 16be 9191 6d3c b291 9bbd
00000150: 2c23 48bd 7e73 aabd d929 f93c 9575 b6bd
00000160: ad08 7c40 936d ff3c f0a7 7fbd 9b68 3d40
00000170: d037 c13f 51a3 75be 6f07 5f3d 57ea 09bd
00000180: 58e9 5dc0 1b52 f5bc 9446 303c a99f 923c
00000190: ac32 d23c 060a 8340 c08d a3bd c3f3 b2bd
000001a0: 4292 873c f11b a640 e820 cf3c 917e 69bd
000001b0: 7307 4040 4f5e 74bd ac04 9b40 b4a5 8940
000001c0: 8d79 153f cd01 af40 0884 313d 285e 7ebd
000001d0: 429c 87bd 988c c1bc 47a9 a140 1f56 17bd
000001e0: faa1 bfbf 5221 b440 a39d 9e40 4e9a 4fbd
000001f0: 83c3 a040 6df3 47bd fdfc 8cbd 6884 e3bd
0.8220267 0.59889585 -0.0028465483 0.5984279 0.60222566 -0.08904841 -0.6875645 -0.014568534
0.7616006 3.6257162 3.8346844 -0.047142837 1.6445674 0.0024459881 -0.11162477 0.070474595
-0.09654904 0.5718949 0.600734 5.0644355 0.025476603 5.6356173 2.898814 1.253452
-0.08220753 -0.055081625 3.687528 0.019783037 0.032614775 0.017508656 5.7386103 -0.09555531
-0.0461472 -0.0077931816 4.387628 -2.8122537 0.036392692 -0.001373941 -0.10940806 -0.025078915
3.3465183 0.019074216 -3.0754728 -1.2364007 4.3654246 -0.09648241 1.8687015 -0.09252697
-0.1188823 -0.37382755 -0.013433239 -0.016152969 0.8893099 0.009818096 0.86367255 -0.06291042
4.202729 1.1472237 0.011699957 -1.5080395 -0.06434378 3.2189765 -0.09542247 -0.016441304
5.921529 5.3459563 1.5278339 4.6176195 -1.5757589 -0.063463375 -0.030190095 -0.073916085
0.83003265 0.0063346904 -0.08187859 1.870263 4.829294 1.064558 -0.5203397 0.019498797
0.005745597 -0.14683951 0.014500038 -0.075961486 -0.048861668 -0.0832281 0.030415462 -0.08909146
3.9380295 0.031180179 -0.062416017 2.9595096 1.5095158 -0.23988082 0.05445045 -0.03367075
-3.4673672 -0.029946378 0.010759015 0.017898398 0.025658928 4.0949736 -0.07986021 -0.087379
0.016549233 5.190911 0.025284246 -0.05700547 3.0004547 -0.059660252 4.8443203 4.3014774
0.58388597 5.46897 0.043338805 -0.062101513 -0.06621601 -0.02362661 5.0519137 -0.036947366
-1.4971306 5.6290674 4.956743 -0.050684266 5.023866 -0.048816133 -0.06884191 -0.11109239

network.2.weight f4 [128, 128]
00000000: b79d 093d 9187 7e3d 5e9a f1bc 2608 693d
00000010: a228 c1bd f463 483d f37b bebc c5b1 9bbd
00000020: 4934 443d 4b21 403d 045a 8cbd 68b7 5bbd
00000030: c400 193d 7d62 a4bd b604 30bd c6f3 233d
00000040: 4033 fcba 30cf 8ebd f460 0abd cc27 d33b
00000050: 518a 07bd c7a6 9b3b 9ba2 16bd 96f2 03bc
00000060: b2b9 45bd c9d8 873d 29ef a4bd a29e 03bd
00000070: c2ef 443d 183a 493c cbbe 24be dddf 4c3d
00000080: 307e fa3b 4328 71bb d0d2 1bbe 6102 d2bd
00000090: 42e3 403d dd82 9c3d 98ca 42bd e7e4 a13d
000000a0: b47e 9c3c c8d2 a83c 3a53 dcbd af18 57bd
000000b0: 9d42 01be 1580 9cbd d7aa a6bd 94de 9abd
000000c0: 40a6 8a3d 38ae a13d 2c05 99bd 9013 6ebc
000000d0: 43e9 5dbc 208a 463d 666e 85bd 6c07 ecbc
000000e0: ed54 ba3c c5f2 683d 3369 8cbd e699 273c
000000f0: 428d 4b3c 474c f3bc 7206 98bd 24cf f4bc
00000100: f6e5 86bd 9959 80bd c2f2 293d 22a9 8dbd
00000110: 9c52 8cbc 884c 223c a713 96bd 64b7 b1bc
00000120: 78ab 503d 483f 723c 6f1b 833d f62f 23bd
00000130: 7447 0b3d 88fb 1ebd 6cdf 82bd 229b 283d
00000140: 20c2 3bbd 584c 0a3d 915e 803d 9031 41bc
00000150: c0ea 67bb 4074 263b 8b62 a4bd b6d2 403d
00000160: 3b86 8e3b 4452 86bd 46db 723d e8d1 b0bd
00000170: 0bfc 3b3c 4c0d 53bd 381d ed3b ab46 3dbd
00000180: ad09 90bc 4dac 34bd b7a0 91bd 91dc 7d3d
00000190: 679b 873d 630d 0c3c d00b 67bd 1284 8cbd
000001a0: 0e31 1f3d 36d6 5cbd e122 40bd 622e 203d
000001b0: 7749 253d 54e6 a33c a6d5 f73c 152a 28bd
000001c0: c8f0 403d d1f2 dcbd 6021 04bc 60cf 51bc
000001d0: 143f 40bb d8f0 153c 2353 83bc c1d4 c13a
000001e0: eca8 0f3d 6122 243d b931 5fbd 05f5 80bd
000001f0: bd4f 38bd 638a 9fbd be08 313d 5774 a1bd
00000200: 6028 a3bd f5b0 d73c 15b6 9e3d 57c2 d33b
00000210: 725f 263a 5abb 733d f478 febe 107e bf3c
00000220: 7a9b cbbd 0000 e83e 1803 2a3f 6a95 6c3d
00000230: f24b 9abd 721f aebd 88f4 363c d4b3 96bd
00000240: f7ef 3bbd f4bb 0b3d 2c59 1e3c 3693 053d
00000250: 1073 da3c 6ea5 1c3e d359 2f3f e841 c0bd
00000260: 402e db3c 99c5 8e3d 3893 4e3f f87a 1e3c
00000270: 2e94 2f3d a03b aabb 7d2f e53b 7342 61bd
00000280: 00b6 fb3a 587c efbc edbb 9e3c 2183 b5be
00000290: b842 c0bc 5312 a4bb 2848 1f3c 7013 91bb
000002a0: aa0e 7e3e 2c28 0d3d 92a6 7b3d 7165 b7bf
000002b0: 8b76 003f 51d3 5cbd 132c 053f 5a3a ba3b
000002c0: 5014 f63c 3488 83bc 0ed2 7c3d 0052 203a
000002d0: 10b3 2cbd a062 7b3c d623 d1bd c0b1 fdba
000002e0: b48a 94bd c935 77be 3b24 8c3d 4c4f 10be
000002f0: c5ed 9abd 9fd8 bc3f fa86 333d 39e9 b13d
00000300: f943 823e 3a6d c63b db6c e23b 03f0 543e
00000310: 4e3d 52be cce7 e83c 7dc9 873d 0f68 9e3d
00000320: 2545 babd 7227 0a3d ddd0 913d b665 e73d
00000330: dc87 d23d 635e 6dbd e654 08be 6de1 fa3c
00000340: 8044 36bb d7a6 7f3e f519 833d 2d6c a73d
00000350: 177b b3bd c06b 5abd 0b99 9cbd a0fd 6f3c
00000360: e9ed 0e3d 40c1 90bd 3a65 703d 733f d13f
00000370: 9b90 3dbd ec54 b1be 5ad3 483d 8698 923b
00000380: 0e03 28be da93 37bd c02e 72bb ec38 da3c
00000390: 7022 363c 8da3 d03e e5cf a6bd d186 9a3d
000003a0: dc65 d5bd 3b6b dcbe 91af c73d c001 36bd
000003b0: 9601 293f 84a4 b1bc 6e8c bdbe 7267 8dbd
000003c0: 3ceb f7bd 8a0f eabd 7079 afbb 42de 5abd
000003d0: c736 a53d 1059 3bbc 94f5 913e ffcf a13d
000003e0: 8e13 a3bd 2ea6 073f 265d 773d 0bae 68bd
000003f0: 2f7d babd 6757 df3d 6c1f 3e3d 8b70 993d
0.033597674 0.062141005 -0.029492553 0.056892537 -0.09431578 0.048923448 -0.023252463 -0.07602266
0.047901426 0.04690675 -0.068531066 -0.053641707 0.037354246 -0.08026598 -0.042973243 0.040027402
-0.0019241348 -0.06973112 -0.033783868 0.006443953 -0.033090893 0.004750106 -0.036776166 -0.008053442
-0.048272796 0.06633145 -0.08053429 -0.032133706 0.048080213 0.012281917 -0.16088407 0.05001818
0.0076444373 -0.003679768 -0.15217137 -0.1025436 0.04709173 0.07642148 -0.04755649 0.07904988
0.019103386 0.02060832 -0.10758062 -0.052513774 -0.12623067 -0.07641617 -0.08138054 -0.07561985
0.06769991 0.07894558 -0.074716896 -0.014531031 -0.013544383 0.04847157 -0.065151975 -0.028812133
0.022745574 0.056872148 -0.06856003 0.010229563 0.012423815 -0.029699458 -0.07423104 -0.029883929
-0.0658683 -0.062670894 0.041491278 -0.06917025 -0.017129235 0.009905942 -0.07327967 -0.021693893
0.050944775 0.014785595 0.06401717 -0.03984066 0.03400369 -0.038814098 -0.063902706 0.04116357
-0.04583943 0.033764213 0.06268037 -0.011791602 -0.0035387725 0.002539888 -0.08026608 0.04707595
0.0043494976 -0.0655866 0.059291147 -0.086337864 0.011473666 -0.051526353 0.007236149 -0.046209972
-0.017582739 -0.04410963 -0.07110732 0.061977927 0.066214375 0.0085481135 -0.05640775 -0.06861128
0.03886514 -0.053915225 -0.046908263 0.039106734 0.040353265 0.02000729 0.030253243 -0.041055758
0.047104627 -0.10788501 -0.008064598 -0.01280579 -0.0029334472 0.00915166 -0.016030854 0.0014788137
0.035073206 0.04007185 -0.05449078 -0.06296734 -0.04499792 -0.07790067 0.043221228 -0.07883518
-0.07966685 0.026329497 0.07749573 0.006462376 0.000634662 0.059504844 -0.49701655 0.023375541
-0.09941764 0.453125 0.6641097 0.05775968 -0.07534017 -0.085020915 0.011166699 -0.07358518
-0.045883145 0.034114793 0.009664815 0.032611094 0.026666194 0.15297481 0.68496436 -0.093875706
0.026755452 0.069712825 0.8069339 0.009672873 0.042865925 -0.005195096 0.0069941864 -0.05499501
0.001920402 -0.029234096 0.01937672 -0.35451606 -0.023469314 -0.005007067 0.009721793 -0.004427366
0.24810281 0.03446214 0.06143815 -1.4327832 0.5018088 -0.053912465 0.52020377 0.0056832256
0.030038983 -0.016056158 0.06172376 0.00061157346 -0.042162955 0.015343338 -0.10211913 -0.0019355342
-0.07253018 -0.24141611 0.06842848 -0.1409275 -0.07564882 1.4753608 0.043829896 0.08687062
0.25442484 0.0060555013 0.0069099492 0.20794682 -0.20531198 0.028430842 0.06630228 0.07734691
-0.090952195 0.033729024 0.07119916 0.11298697 0.10279819 -0.057951342 -0.13313636 0.03062507
-0.0027811825 0.24965988 0.06401435 0.0817493 -0.08763712 -0.053325415 -0.07646378 0.014647871
0.034894858 -0.070681095 0.058690287 1.6347488 -0.046280485 -0.34635103 0.049029686 0.0044737486
-0.16407415 -0.044818737 -0.0036954135 0.02663847 0.011116609 0.4074978 -0.081451215 0.075452454
-0.10419819 -0.4305056 0.097502835 -0.044435263 0.66018045 -0.021684892 -0.37021202 -0.06904496
-0.12105414 -0.11428745 -0.0053550526 -0.053434618 0.080670886 -0.011434808 0.28507674 0.07901
-0.07962714 0.52987945 0.060391568 -0.056806605 -0.09105908 0.109053425 0.046416685 0.07492169

network.2.bias f4 [128]
00000000: 4b6d bcbd 0920 1e3f 5d99 5fbd 6ab9 01bd
00000010: 7f63 7c40 49df 1bbe 4b63 a740 74c3 043f
00000020: 0046 9fbd f1e0 68bd 5f2c 8dbd 61de e6bd
00000030: 3e4d febc 2cb2 93bd c0f1 323d f05c a53f
00000040: 2642 a5bd e22a 6a40 b7c9 bebc 9277 aa40
00000050: 679d 4b40 5376 22bd 8d1a 1f40 fc62 aabd
00000060: c59f b040 a161 60bd 767f ac40 14b6 f8bc
00000070: 629b 18be 2d74 3b40 087a a940 5109 a940
00000080: faf5 2a3d e20c 9440 65da ee3c 55cd 9740
00000090: 6ac5 2d3f ef43 9c40 4e71 9f40 5161 53bd
000000a0: 0c51 c13c f3d3 01be 8727 cd3c 1903 a73c
000000b0: d3d9 85bd d2a4 44bd b921 a540 ffb0 b1bd
000000c0: 6a88 e0ba 78af 9c40 0ed4 9b40 f38e 11be
000000d0: 6cd6 b440 6684 963c 58dc 9f40 549b 7b40
000000e0: e953 9ebc 6b91 ccbd c670 2440 11e2 a240
000000f0: bbf5 a340 05b6 9f40 3e5d 8dbc 38d5 0dbd
00000100: 8996 9bbd eec8 3ebd 3939 a740 f3f1 4bbe
00000110: c52a ac40 cad0 2e3d f74c a940 6a6c b040
00000120: d640 37bc c92d 16be 9c4b 9c40 46ab aa40
00000130: db50 a540 483e 51bd 43e8 93be cd63 37bf
00000140: dfd9 68bd c536 38be c48e 0bbe 8f54 9d3f
00000150: 8c1d a840 c4c5 7abd 75fc ab40 9321 19bd
00000160: 6112 6cbc 365a 1e3c fe69 a140 0f37 8c40
00000170: 5121 fc3b 530a 20be da97 b5bd e990 693d
00000180: 2970 a740 c9f9 a740 2dcc babd 0ec9 b0bd
00000190: ae58 a7be 63f2 06be 6629 a840 e8ca a13c
000001a0: a04c fdbd f7e9 c03f a90e 85bc 5a09 26bc
000001b0: 9f2b ccbd 2d13 ae40 707b ce3c c5fc 35be
000001c0: e01a cc3f fcf6 55be 9319 0ebe 1de3 94c0
000001d0: 81e7 763c 53ff a240 5f08 433c 53b7 d8bd
000001e0: e4e8 adbd 9fd2 d7bc 98b4 aebd 21ad 26bd
000001f0: 4082 253c 6974 a840 9026 8bbd b578 9f40
-0.092005335 0.6176763 -0.054589618 -0.031670965 3.9435728 -0.15221895 5.2308707 0.5186074
-0.07777023 -0.056855146 -0.06893229 -0.11272884 -0.031042691 -0.07211718 0.043687582 1.2918987
-0.080692574 3.6588674 -0.023289545 5.327096 3.181482 -0.039663624 2.4859955 -0.08319661
5.519503 -0.054780606 5.390559 -0.03036026 -0.14903024 2.9289658 5.2961464 5.2823873
0.041738488 4.6265726 0.029156873 4.743815 0.67879355 4.8832927 4.982581 -0.05160648
0.023598216 -0.12678508 0.025043262 0.02038722 -0.06535687 -0.048008747 5.1603665 -0.086763375
-0.0017130498 4.8964195 4.8696356 -0.14214687 5.6511745 0.01837368 4.9956474 3.9313555
-0.01932712 -0.09988674 2.5693831 5.090096 5.1237464 4.990969 -0.017256375 -0.03462717
-0.07597072 -0.04657834 5.225735 -0.19916515 5.380221 0.042679586 5.290645 5.513234
-0.011184892 -0.14665903 4.8842297 5.3334074 5.16612 -0.051084787 -0.2888814 -0.7163666
-0.056848403 -0.17989643 -0.1362868 1.229143 5.253607 -0.06122376 5.3745675 -0.037385534
-0.014408679 0.009665063 5.0441885 4.381721 0.0076944013 -0.15628938 -0.08866854 0.057022963
5.2324414 5.2492414 -0.09120975 -0.08632098 -0.32684845 -0.131784 5.2550535 0.019750074
-0.12368131 1.50714 -0.016242342 -0.0101340655 -0.099692576 5.439841 0.025205344 -0.17772205
1.5945702 -0.20894998 -0.13876943 -4.652724 0.015069843 5.0936675 0.011903851 -0.10581841
-0.08491686 -0.02634555 -0.08530539 -0.040692452 0.010101855 5.26421 -0.067944646 4.9834847

network.4.weight f4 [12, 128]
00000000: 51fc 513a a69f 233f 8758 03bd 1096 37bc
00000010: 3551 4d3e 0428 023d 3b9a c53e 2f70 a13d
00000020: 84b4 e03c 33fd 9b3d 948e 0ebd 1573 a6bd
00000030: e439 b0bd 34cb 9dbd 3c63 afbd b30a a9be
00000040: b8f3 5ebc 09ad da3e d89d 81bc 50f8 e33e
00000050: 657c 103f 4cd3 8b3d 551e 0e3f d4af f03c
00000060: 7260 013f bc6b 33bd 11a8 043f 427a 913c
00000070: 34c4 a93d 0645 8e3f a588 0e3f 1e07 043f
00000080: 2fcf c2bd b2ff 1d3f 9602 9f3a 19f9 543f
00000090: 5d89 073e a2ba 023f 40f3 033f c214 1cbd
000000a0: c010 6fbc 9eb7 1b3c b264 573d dc12 033d
000000b0: 11cb c73c 2b48 9e3d 91e5 0c3f b94f 043d
000000c0: d9fc 25bc fe62 be3f c3ac c83e 7881 1bbd
000000d0: 3702 263f b55f e83d 092b f03e c6d9 013f
000000e0: f0c6 01bd 0eca 17bd 84ec 3f3f 63ef ee3e
000000f0: d7a2 163f 2393 083f 3749 97bd 45e1 92bc
00000100: 3c22 1bbb 68a5 583d 3353 003f 4fa9 4dbc
00000110: 94a1 0f3f 1605 0f3d 2f3c 113f eeb6 513f
00000120: fc90 04bd 6dcb f63c d95f 293e c06c f93e
00000130: a094 f93e 801c 6a3d 6043 d53c 4bce 4cbc
00000140: ff19 b03a ccc5 ea3e 74a1 a03b 259e d33e
00000150: 2900 0b3f fe0d 3dbc 31cf 043f 3930 a73d
00000160: 02fb 69bd c655 3c3d 06e7 e73e 396d 963e
00000170: 9355 fbba ae67 e2bb a826 053e b536 5ebd
00000180: edb4 f13e 9143 e13e a555 83bb 0034 5d39
00000190: 5e3f e13c 2360 bb3c f097 023f 8f17 0c3c
000001a0: b0eb 8e3d 0291 4a3f a55f 8d3d 9c60 7d3b
000001b0: c68a 063e 81e6 013f 68af f7bc f0cf d9bc
000001c0: 1a9a d53e e18f 0f3f f5d7 323d 5472 9bbe
000001d0: 6abf 3abd d6d4 fa3e 6f45 1e3d 762f 113d
000001e0: d8be 88bb 2378 78bc 0fee 0dbc 27f6 e3bc
000001f0: 4aa8 4b3d 4245 113f 14e0 df3c 1845 bb3e
00000200: b0b8 6abd cf26 4f3e ef42 5b3b 1e6f a9bd
00000210: b872 643d 7584 05bd 4aa3 f13e 639c bc3d
00000220: 925f 3bbd 9e6c 403d 16d9 da3d 7d4c 5c3d
00000230: e66a 473c b426 e93d 077e b23d b4c1 383e
00000240: a051 243b 766c dc3e 826d d23d dcf6 ea3e
00000250: 125f 493f 7874 82bd 483d 5c3f 75ea ab3d
00000260: 89de fb3e b15b 33bd 458c f53e 7595 b63c
00000270: baa3 a2bd 7b79 9b3f 544b 0e3f 4863 033f
00000280: 722a 243d 4fd8 133f a388 a73d 5ba0 533f
00000290: bb50 2b3f 38d9 ec3e cbad fa3e e6fc 93bd
000002a0: d6a4 dcbc 2b53 8e3d 5986 a7bd 34f2 abbd
000002b0: c657 e23d bc3f 0dbc 54f8 173f 4251 9cbc
000002c0: c42c 6fbd a4e2 ab3f 2974 023f 7506 c13c
000002d0: 6bb5 aa3e aee8 b63d cd2c e33e 5573 ad3e
000002e0: c89e afbc 47e5 3cbd 0994 433f 2131 fe3e
000002f0: 2a48 123f 74a6 0c3f 5871 95bc 5343 2e3d
00000300: 45bb f5ba 1c9d 94bb 46e9 d83e d5a7 bc3c
00000310: 6418 0b3f 3e85 99bd 1c47 f23e 3eff 323f
00000320: f7bd 98bd 49eb 603d 0c20 8a3e e90e f73e
00000330: fa03 d63e 52d6 b33d c35c 9e3d 82f0 dc3e
00000340: dba6 173d 7f25 b8be d585 c7bc 1a23 e43e
00000350: 4fd2 023f 8bbb 3cbd 42c6 093f f5bb 97bc
00000360: 4a1d 60bc 7fd1 adbc dd36 053f e236 183f
00000370: 5d6f 413d 2cbf b93d ce77 083d c062 aebd
00000380: 7e92 ea3e 94e8 f53e c51b 53bd 59f9 843d
00000390: aeb8 a9b9 6308 97bd 4a7e 023f 16ca 783d
000003a0: a312 ba3d 29bd 1d3f e981 1a3d 8629 523d
000003b0: e977 a53c 0582 053f b896 743b 00dc cfba
000003c0: f5c1 433f 4f5a e7bd 59af 95bc 5487 0abf
000003d0: 2493 3a3d fcf0 df3e a69c 853d 4dc7 9abc
000003e0: ab14 8d3d 4cfa 74bd 5b8e 9abb eb0b 86bd
000003f0: 4943 b0bc 12e1 123f 1e20 c53c 2250 be3e
0.00080103154 0.6391548 -0.032066848 -0.011205211 0.2005051 0.031776443 0.3859423 0.078827254
0.027429827 0.07616653 -0.03480394 -0.08127419 -0.08604792 -0.077047735 -0.08563849 -0.33015975
-0.013607912 0.4271014 -0.015822336 0.44525385 0.5643981 0.06827411 0.55515033 0.029380716
0.5053779 -0.043803915 0.5181895 0.017758492 0.08289376 1.1114814 0.55677253 0.5157336
-0.095121734 0.61718285 0.0012131508 0.8319259 0.13235994 0.5106603 0.51543045 -0.038105734
-0.014591396 0.009504227 0.052586265 0.032000408 0.024388822 0.07728609 0.5503779 0.032302592
-0.010131084 1.487396 0.39194307 -0.037965268 0.6484713 0.1134638 0.46907833 0.5072292
-0.031683862 -0.03705793 0.7497027 0.46667013 0.58842224 0.5334951 -0.073870115 -0.017929683
-0.0023671528 0.05289212 0.5012695 -0.012552573 0.56105924 0.03491696 0.5673246 0.81919754
-0.03236483 0.030126298 0.16540469 0.48715782 0.48746204 0.057156086 0.026033103 -0.012500356
0.0013435482 0.45854032 0.004902059 0.41331592 0.5429712 -0.0115389805 0.5187865 0.081634946
-0.057124145 0.045980237 0.45293444 0.29380205 -0.0019175283 -0.0069093322 0.13003027 -0.05425139
0.47208348 0.43996862 -0.0040080124 0.00021095574 0.027496036 0.02287299 0.5101309 0.008550539
0.069785476 0.79127514 0.06903008 0.003866232 0.13138875 0.50742346 -0.030235007 -0.02658841
0.41719133 0.56078917 0.043662984 -0.30360663 -0.045592703 0.48990506 0.038640436 0.035445653
-0.004173141 -0.015165362 -0.008662715 -0.027827336 0.04972104 0.56746304 0.027328528 0.36576152
-0.057305038 0.20229648 0.0033456644 -0.08273147 0.055773467 -0.032597024 0.47194892 0.09209516
-0.04574544 0.046978585 0.10685937 0.053783882 0.012171483 0.11384335 0.08715444 0.18042642
0.0025073066 0.430515 0.10274793 0.45891464 0.7866069 -0.06369871 0.8603101 0.083943285
0.49193218 -0.043788616 0.4795858 0.022288064 -0.079413846 1.2146448 0.5558369 0.51323366
0.04007954 0.57751936 0.08180358 0.8266656 0.6692006 0.46259475 0.4896072 -0.07225971
-0.026934069 0.06949457 -0.08179922 -0.08395806 0.11051898 -0.0086211525 0.59363294 -0.019081715
-0.0583923 1.342854 0.50958496 0.02356265 0.33341536 0.08931099 0.44370118 0.33877054
-0.021438017 -0.046117093 0.7639776 0.49646857 0.57141364 0.5494149 -0.018242523 0.042544674
-0.0018747827 -0.0045353305 0.42365474 0.023029247 0.5433409 -0.07496117 0.47319877 0.6992072
-0.07458108 0.054911885 0.26977575 0.48253563 0.4179991 0.08781113 0.07732537 0.43152243
0.03702436 -0.35966107 -0.024355808 0.4455803 0.51102155 -0.046077292 0.5381814 -0.018522242
-0.013678858 -0.02121806 0.5203684 0.59458745 0.047225345 0.09069666 0.03331738 -0.08514929
0.4581489 0.48029006 -0.051540155 0.06492872 -0.0003237179 -0.073746465 0.5097395 0.0607396
0.09085586 0.6161676 0.03772155 0.05130913 0.02019878 0.5215152 0.003732128 -0.0015858412
0.7646783 -0.11296522 -0.018272089 -0.54112744 0.04555048 0.43738544 0.06524019 -0.018893862
0.06888708 -0.059809014 -0.004716677 -0.06545242 -0.021516459 0.5737468 0.024063166 0.3717051
