ml_saves/model_episode_400.pth (torch, 575376 bytes, 24 tensors)

network.0.weight f4 [128, 134]
-0.02233376 -0.0012867904 -0.050169293 -0.06858369 -0.06648884 -0.05607349 0.043716654 -0.027435504
-0.05430072 -0.020636357 -0.03133394 0.013325751 0.058845088 0.08229135 -0.025623068 -0.015988998
-0.05582232 0.072422355 -0.067933574 0.083609745 0.03827078 0.0046650693 0.04128982 -0.020894304
0.012096681 -0.052551657 0.03224565 0.08005245 -0.0792293 0.049030825 0.0066783875 0.03172171
0.026037782 0.07292639 0.05892214 -0.0650717 0.0070866346 -0.028428573 -0.017465375 0.0016442686
-0.05797107 -0.0031804666 -0.051674083 0.03914918 -0.0052225366 -0.07287306 0.005520858 -0.079618685
0.06491473 0.06883006 -0.079480134 -0.06784031 0.005027361 -0.014503531 -0.061261505 -0.032499522
-0.063573584 -0.014830925 -0.077079915 -0.039996374 -0.040237162 -0.033610564 0.06872216 -0.054310277
-0.0429992 0.058543578 -0.00494536 -0.03458459 -0.03896138 -0.02084773 0.0020533279 -0.06310498
-0.0060559064 0.038300723 0.008872926 0.08099872 0.0355715 -0.074518226 0.039227694 0.027666532
-0.058890756 -0.07133648 -0.01406505 -0.075129986 -0.029599056 -0.05599297 0.046295926 0.0024266243
-0.016079508 0.03893429 0.052367628 -0.08509817 0.013030462 -0.06900165 -0.04982546 0.08060177
0.07879412 -0.06482257 -0.01680985 -0.0030500144 -0.064072005 -0.056775235 0.06252599 0.058773443
0.04980658 -0.07578069 -0.021872677 -0.078946754 -0.017139807 -0.0844602 -0.021791048 -0.03930722
0.07346462 0.00705301 0.01611048 -0.008326754 -0.035972685 -0.046037957 -0.07062159 -0.011299193
0.02289205 0.015139826 0.075133756 0.05081521 0.033366963 0.0053534433 -0.016593896 -0.07854977
0.063946694 -0.022690266 0.061546862 0.039938197 0.0676025 0.0040844604 -0.024264598 -0.01966433
-0.0065908954 0.08352956 0.03534045 -0.01690492 -0.06335648 -0.02731961 -0.076891676 0.032945275
-0.04203379 0.019062579 0.06986046 0.046676517 0.078947335 -0.06444542 -0.069679886 0.05965379
-0.06311573 -0.010345355 -0.0245012 0.035797246 -0.021271951 -0.0589756 -0.00921423 0.06275791
0.011686228 0.065253615 -0.04151875 0.020521887 -0.046942472 -0.07544623 -0.06439044 -0.045830593
0.051620275 -0.07435501 0.03740619 0.027917363 -0.0771954 0.015839018 -0.041749515 -0.05613914
0.058167666 0.06418796 -0.08272022 -0.02835526 0.023080662 0.0020631552 -0.06357501 0.06404212
0.04112813 0.055851087 -0.027498715 0.020048894 -0.0653952 0.055738375 0.032214828 0.059821144
0.022477053 -0.030781105 0.04883389 -0.043546945 -0.08469327 -0.02511255 0.05108282 0.06570451
-0.041607678 -0.06321238 0.051716253 -0.07107833 0.010394596 -0.056718368 -0.024088629 0.055581138
-0.00923337 -0.010731198 -0.04009913 -0.07186097 0.080296904 -0.021547124 0.058361977 -0.053735137
0.06786394 0.04447341 -0.022338837 -0.031652234 -0.08091638 -0.05272823 -0.0723697 0.005872138
0.0021103993 -0.04736281 -0.045445487 -0.07077308 0.00034470856 0.07887119 -0.02899563 -0.04727856
-0.012058295 0.04512985 -0.045471758 -0.014036313 0.062215894 0.018366776 0.0550462 0.07969926
-0.06314354 -0.072596475 0.04031302 0.0013414845 0.06602305 -0.013987407 -0.019107953 -0.043677095
-0.03286739 -0.025739416 0.019346759 0.020496964 0.06957078 -0.08386586 -0.003222622 0.0018602088
00000000: 4af5 b6bc 85a9 a8ba 517e 4dbd 9b75 8cbd
00000010: 4d2b 88bd 51ad 65bd 3c10 333d 6cc0 e0bc
00000020: 6f6a 5ebd 940d a9bc 0458 00bd 4054 5a3c
00000030: 8c07 713d 5e88 a83d 78e7 d1bc 5cfb 82bc
00000040: f2a5 64bd 2c52 943d c220 8bbd 963b ab3d
00000050: d2c1 1c3d 70dd 983b 841f 293d 882a abbc
00000060: 2831 463c 6840 57bd 0414 043d 8af2 a33d
00000070: f942 a2bd 8cd4 483d 60d6 da3b a0ee 013d
00000080: 304d d53c 6e5a 953d 5858 713d 5044 85bd
00000090: 0037 e83b 0ae3 e8bc 8c13 8fbc 8084 d73a
000000a0: 1373 6dbd 606f 50bb 34a8 53bd e45a 203d
000000b0: d021 abbb 793e 95bd 50e8 b43b 1f0f a3bd
000000c0: 04f2 843d c6f6 8c3d 7bc6 a2bd dcef 8abd
000000d0: 90bc a43b 38a0 6dbc 58ed 7abd 381e 05bd
000000e0: de32 82bd 68fd 72bc 13dc 9dbd 3dd3 23bd
000000f0: b9cf 24bd 3bab 09bd 34be 8c3d 7474 5ebd
00000100: ee1f 30bd 64cb 6f3d b00c a2bb 92a8 0dbd
00000110: f895 1fbd dcc8 aabc 2091 063b 2f3d 81bd
00000120: a070 c6bb 38e1 1c3d c05f 113c a8e2 a53d
00000130: 6cb3 113d 039d 98bd 38ad 203d eca4 e23c
00000140: 6f37 71bd dc18 92bd 1871 66bc c0dd 99bd
00000150: b879 f2bc e258 65bd cca0 3d3d 0008 1f3b
00000160: 2cb9 83bc 9079 1f3d 707f 563d f347 aebd
00000170: b87d 553c bd50 8dbd c815 4cbd 8a12 a53d
00000180: d05e a13d b2c1 84bd d0b4 89bc c0e2 47bb
00000190: 2f38 83bd 268d 68bd a00d 803d 6cbc 703d
000001a0: fc01 4c3d e832 9bbd 542e b3bc d6ae a1bd
000001b0: c868 8cbc 78f9 acbd 2483 b2bc 9c00 21bd
000001c0: 9e74 963d f01c e73b 20fa 833c f06c 08bc
000001d0: 1858 13bd 4c92 3cbd 0da2 90bd 4020 39bc
000001e0: 1c88 bb3c 080d 783c badf 993d 9c23 503d
000001f0: ccab 083d f06b af3b ecef 87bc b4de a0bd
00000200: 7cf6 823d f0e0 b9bc 9018 7c3d 3c96 233d
00000210: 2e73 8a3d f0d6 853b 8dc6 c6bc 1717 a1bc
00000220: 70f8 d7bb 8c11 ab3d 26c1 103d 307c 8abc
00000230: 0bc1 81bd 60cd dfbc 6279 9dbd a0f1 063d
00000240: a02b 2cbd 2029 9c3c 0013 8f3d e02f 3f3d
00000250: 24af a13d f6fb 83bd 54b4 8ebd 8857 743d
00000260: d242 81bd 907f 29bc beb6 c8bc 22a0 123d
00000270: 8442 aebc 6690 71bd 48f7 16bc 3887 803d
00000280: 9877 3f3c b0a3 853d 910f 2abd 841d a83c
00000290: c046 40bd 8e83 9abd 23df 83bd dcb8 3bbd
000002a0: c86f 533d 7147 98bd 3c37 193d f4b2 e43c
000002b0: 9f18 9ebd d4c0 813c 8a01 2bbd 28f2 65bd
000002c0: 3841 6e3d fa74 833d 3869 a9bd 4a49 e8bc
000002d0: a813 bd3c 0036 073b 9d33 82bd 8428 833d
000002e0: f875 283d 1cc4 643d fc44 e1bc 943d a43c
000002f0: ebed 85bd ec4d 643d b2f3 033d 0407 753d
00000300: cc21 b83c a828 fcbc 0c06 483d 485e 32bd
00000310: aa73 adbd d6b8 cdbc 383c 513d 1690 863d
00000320: d06c 2abd 7e75 81bd 6cd4 533d 8491 91bd
00000330: 184e 2a3c 8551 68bd 8455 c5bc 0ca9 633d
00000340: 9047 17bc e8d1 2fbc fc3e 24bd d82b 93bd
00000350: b472 a43d 9883 b0bc f80c 6f3d 6019 5cbd
00000360: 40fc 8a3d c029 363d f0ff b6bc c6a5 01bd
00000370: 7db7 a5bd 8ef9 57bd 9136 94bd 106b c03b
00000380: a04e 0a3b 81ff 41bd 0c25 3abd 7af1 90bd
00000390: 00ba b439 3887 a13d 3e88 edbc 2aa7 41bd
000003a0: 2890 45bc 14da 383d 9840 3abd 90f8 65bc
000003b0: 18d6 7e3d ec75 963c 2078 613d 5e39 a33d
000003c0: 6651 81bd 76ad 94bd 441f 253d c0d4 af3a
000003d0: 1837 873d 702b 65bc 4888 9cbc c1e6 32bd
000003e0: f59f 06bd 78db d2bc 187d 9e3c 40e9 a73c
000003f0: 207b 8e3d ddc1 abbd a032 53bb 40d2 f33a

network.0.bias f4 [128]
0.8220267 0.59889585 -0.0028465483 0.5984279 0.60222566 -0.08904841 -0.5949438 -0.014568534
0.7616006 5.574936 4.9289722 -0.078908294 1.6445674 0.0024459881 -0.11162477 0.070474595
-0.09654904 0.5718949 0.600734 8.967928 0.025476603 9.544252 3.4873013 1.2216871
-0.08220753 -0.055081625 5.005742 0.019783037 0.032614775 0.017508656 10.39779 -0.09555531
-0.0461472 -0.0077931816 7.197378 -6.411351 0.036392692 -0.001373941 -0.10940806 -0.025078915
5.446756 0.019074216 -5.4961 -3.92938 6.3793125 -0.09648241 1.8687015 -0.09252697
-0.1188823 -0.37382755 -0.013433239 -0.016152969 1.7073897 0.009818096 0.86367255 -0.06291042
4.371795 0.65201795 0.011699957 -2.354504 -0.06434378 3.8411412 -0.09542247 -0.016441304
10.525544 6.391039 1.5283198 7.3691688 -3.1216557 -0.063463375 -0.030190095 -0.073916085
0.83003265 -0.02583064 -0.08187859 1.870263 5.791055 1.064558 -0.21043916 0.019498797
0.005745597 0.16623992 0.014500038 -0.075961486 -0.048861668 -0.11499338 0.030415462 -0.12085419
7.616298 0.031180179 -0.062416017 3.601221 1.5095158 0.25328094 0.05445045 -0.03367075
-5.7961802 -0.029946378 0.010759015 0.017898398 0.025658928 5.149365 -0.07986021 -0.087379
0.016549233 5.1591573 0.025284246 -0.05700547 3.7480698 -0.059660252 4.808175 7.850293
0.58388597 8.1324215 0.043338805 -0.062101513 -0.06621601 -0.02362661 8.936819 -0.036947366
-3.0030487 9.797795 9.251783 -0.050684266 8.949311 -0.048816133 -0.06884191 -0.11109239
00000000: 5870 523f 3d51 193f 288d 3abb 9232 193f
00000010: 762b 1a3f 035f b6bd 3d4e 18bf dcb0 6ebc
00000020: 42f8 423f e065 b240 24ba 9d40 ac9a a1bd
00000030: 2f81 d23f df4c 203b 879b e4bd fc54 903d
00000040: 81bb c5bd b467 123f b4c9 193f a27c 0f41
00000050: 4fb4 d03c 42b5 1841 f22f 5f40 3e60 9c3f
00000060: 6c5c a8bd 459d 61bd 0a2f a040 0910 a23c
00000070: 1297 053d 506e 8f3c 595d 2641 81b2 c3bd
00000080: d904 3dbd f25d ffbb ec50 e640 ca29 cdc0
00000090: 8110 153d cf15 b4ba 5511 e0bd 4c72 cdbc
000000a0: d34b ae40 8841 9c3c 0de0 afc0 f67a 7bc0
000000b0: 5423 cc40 9298 c5bd 9c31 ef3f c87e bdbd
000000c0: 9078 f3bd 5366 bfbe 1717 5cbc 3b53 84bc
000000d0: bf8b da3f 14dc 203c a519 5d3f 2ed7 80bd
000000e0: bfe5 8b40 a6ea 263f 2db1 3f3c 32b0 16c0
000000f0: acc6 83bd 42d5 7540 db6c c3bd eaaf 86bc
00000100: a168 2841 6483 cc40 fc9f c33f 3bd0 eb40
00000110: 35c9 47c0 16f9 81bd 3851 f7bc 5161 97bd
00000120: 057d 543f c79a d3bc f6af a7bd c764 ef3f
00000130: 5350 b940 7043 883f 5d7d 57be f1bb 9f3c
00000140: 9045 bc3b cc3a 2a3e 9191 6d3c b291 9bbd
00000150: 2c23 48bd a681 ebbd d929 f93c 6782 f7bd
00000160: b7b8 f340 936d ff3c f0a7 7fbd 687a 6640
00000170: d037 c13f 0aae 813e 6f07 5f3d 57ea 09bd
00000180: 4f7a b9c0 1b52 f5bc 9446 303c a99f 923c
00000190: ac32 d23c 99c7 a440 c08d a3bd c3f3 b2bd
000001a0: 4292 873c d117 a540 e820 cf3c 917e 69bd
000001b0: 60e0 6f40 4f5e 74bd 92dc 9940 9a35 fb40
000001c0: 8d79 153f 661e 0241 0884 313d 285e 7ebd
000001d0: 429c 87bd 988c c1bc 36fd 0e41 1f56 17bd
000001e0: f331 40c0 c5c3 1c41 4e07 1441 4e9a 4fbd
000001f0: 6130 0f41 6df3 47bd fdfc 8cbd 6884 e3bd

network.2.weight f4 [128, 128]
0.033597674 0.062141005 -0.029492553 0.056892537 -0.09431578 0.048923448 -0.023252463 -0.07602266
0.047901426 0.04690675 -0.068531066 -0.053641707 0.037354246 -0.08026598 -0.042973243 0.040027402
-0.0019241348 -0.06973112 -0.033783868 0.006443953 -0.033090893 0.004750106 -0.036776166 -0.008053442
-0.048272796 0.06633145 -0.08053429 -0.032133706 0.048080213 0.012281917 -0.16088407 0.05001818
0.0076444373 -0.003679768 -0.15217137 -0.1025436 0.04709173 0.07642148 -0.04755649 0.07904988
0.019103386 0.02060832 -0.10758062 -0.052513774 -0.12623067 -0.07641617 -0.08138054 -0.07561985
0.06769991 0.07894558 -0.074716896 -0.014531031 -0.013544383 0.04847157 -0.065151975 -0.028812133
0.022745574 0.056872148 -0.06856003 0.010229563 0.012423815 -0.029699458 -0.07423104 -0.029883929
-0.0658683 -0.062670894 0.041491278 -0.06917025 -0.017129235 0.009905942 -0.07327967 -0.021693893
0.050944775 0.014785595 0.06401717 -0.03984066 0.03400369 -0.038814098 -0.063902706 0.04116357
-0.04583943 0.033764213 0.06268037 -0.011791602 -0.0035387725 0.002539888 -0.08026608 0.04707595
0.0043494976 -0.0655866 0.059291147 -0.086337864 0.011473666 -0.051526353 0.007236149 -0.046209972
-0.017582739 -0.04410963 -0.07110732 0.061977927 0.066214375 0.0085481135 -0.05640775 -0.06861128
0.03886514 -0.053915225 -0.046908263 0.039106734 0.040353265 0.02000729 0.030253243 -0.041055758
0.047104627 -0.10788501 -0.008064598 -0.01280579 -0.0029334472 0.00915166 -0.016030854 0.0014788137
0.035073206 0.04007185 -0.05449078 -0.06296734 -0.04499792 -0.07790067 0.043221228 -0.07883518
-0.07966685 0.026329497 0.07749573 0.006462376 0.000634662 0.059504844 -0.5201825 0.023375541
-0.09941764 0.7228052 0.35643783 0.05775968 -0.07534017 -0.085020915 0.011166699 -0.07358518
-0.045883145 0.034114793 0.009664815 0.039168734 0.026666194 -0.21044804 0.8092615 -0.093875706
0.026755452 0.069712825 1.2282406 0.009672873 0.042865925 -0.005195096 -0.23921682 -0.05499501
0.001920402 -0.029234096 0.05196337 -0.5429305 -0.023469314 -0.005007067 0.009721793 -0.004427366
0.37358585 0.03446214 -0.10473883 -1.2400126 0.7901056 -0.053912465 0.52020377 0.0056832256
0.030038983 -0.016056158 0.06172376 0.00061157346 -0.35033545 0.015343338 -0.10211913 -0.0019355342
-0.07253018 -0.86786586 0.06842848 -0.7989093 -0.07564882 1.6786113 0.043829896 0.08687062
0.016924586 0.0060555013 0.0069099492 0.27628377 -0.47394294 0.028430842 0.06630228 0.07734691
-0.090952195 0.033729024 0.07119916 0.11298697 0.10279819 -0.057951342 -0.81993186 0.03062507
-0.0027811825 -0.44972074 0.06401435 0.0817493 -0.08763712 -0.053325415 -0.07646378 0.014647871
0.12257591 -0.070681095 0.058690287 1.2666677 -0.046280485 -1.1435692 0.049029686 0.0044737486
-0.22790475 -0.044818737 -0.0036954135 0.02663847 0.011116609 0.4301806 -0.081451215 0.075452454
-0.10419819 -0.4305056 0.097502835 -0.044435263 0.5394987 -0.021684892 -0.37021202 0.012926159
-0.12105414 -0.0039788326 -0.0053550526 -0.053434618 0.080670886 -0.011434808 0.3159331 0.07901
-0.37992978 0.24343792 -0.14932486 -0.056806605 -0.37237984 0.109053425 0.046416685 0.07492169
00000000: b79d 093d 9187 7e3d 5e9a f1bc 2608 693d
00000010: a228 c1bd f463 483d f37b bebc c5b1 9bbd
00000020: 4934 443d 4b21 403d 045a 8cbd 68b7 5bbd
00000030: c400 193d 7d62 a4bd b604 30bd c6f3 233d
00000040: 4033 fcba 30cf 8ebd f460 0abd cc27 d33b
00000050: 518a 07bd c7a6 9b3b 9ba2 16bd 96f2 03bc
00000060: b2b9 45bd c9d8 873d 29ef a4bd a29e 03bd
00000070: c2ef 443d 183a 493c cbbe 24be dddf 4c3d
00000080: 307e fa3b 4328 71bb d0d2 1bbe 6102 d2bd
00000090: 42e3 403d dd82 9c3d 98ca 42bd e7e4 a13d
000000a0: b47e 9c3c c8d2 a83c 3a53 dcbd af18 57bd
000000b0: 9d42 01be 1580 9cbd d7aa a6bd 94de 9abd
000000c0: 40a6 8a3d 38ae a13d 2c05 99bd 9013 6ebc
000000d0: 43e9 5dbc 208a 463d 666e 85bd 6c07 ecbc
000000e0: ed54 ba3c c5f2 683d 3369 8cbd e699 273c
000000f0: 428d 4b3c 474c f3bc 7206 98bd 24cf f4bc
00000100: f6e5 86bd 9959 80bd c2f2 293d 22a9 8dbd
00000110: 9c52 8cbc 884c 223c a713 96bd 64b7 b1bc
00000120: 78ab 503d 483f 723c 6f1b 833d f62f 23bd
00000130: 7447 0b3d 88fb 1ebd 6cdf 82bd 229b 283d
00000140: 20c2 3bbd 584c 0a3d 915e 803d 9031 41bc
00000150: c0ea 67bb 4074 263b 8b62 a4bd b6d2 403d
00000160: 3b86 8e3b 4452 86bd 46db 723d e8d1 b0bd
00000170: 0bfc 3b3c 4c0d 53bd 381d ed3b ab46 3dbd
00000180: ad09 90bc 4dac 34bd b7a0 91bd 91dc 7d3d
00000190: 679b 873d 630d 0c3c d00b 67bd 1284 8cbd
000001a0: 0e31 1f3d 36d6 5cbd e122 40bd 622e 203d
000001b0: 7749 253d 54e6 a33c a6d5 f73c 152a 28bd
000001c0: c8f0 403d d1f2 dcbd 6021 04bc 60cf 51bc
000001d0: 143f 40bb d8f0 153c 2353 83bc c1d4 c13a
000001e0: eca8 0f3d 6122 243d b931 5fbd 05f5 80bd
000001f0: bd4f 38bd 638a 9fbd be08 313d 5774 a1bd
00000200: 6028 a3bd f5b0 d73c 15b6 9e3d 57c2 d33b
00000210: 725f 263a 5abb 733d ae2a 05bf 107e bf3c
00000220: 7a9b cbbd c309 393f 057f b63e 6a95 6c3d
00000230: f24b 9abd 721f aebd 88f4 363c d4b3 96bd
00000240: f7ef 3bbd f4bb 0b3d 2c59 1e3c 656f 203d
00000250: 1073 da3c b17f 57be c32b 4f3f e841 c0bd
00000260: 402e db3c 99c5 8e3d fd36 9d3f f87a 1e3c
00000270: 2e94 2f3d a03b aabb 41f5 74be 7342 61bd
00000280: 00b6 fb3a 587c efbc 8bd7 543d 7efd 0abf
00000290: b842 c0bc 5312 a4bb 2848 1f3c 7013 91bb
000002a0: a546 bf3e 2c28 0d3d 5081 d6bd bcb8 9ebf
000002b0: 5c44 4a3f 51d3 5cbd 132c 053f 5a3a ba3b
000002c0: 5014 f63c 3488 83bc 0ed2 7c3d 0052 203a
000002d0: 2b5f b3be a062 7b3c d623 d1bd c0b1 fdba
000002e0: b48a 94bd 752c 5ebf 3b24 8c3d 5285 4cbf
000002f0: c5ed 9abd bcdc d63f fa86 333d 39e9 b13d
00000300: 6ea5 8a3c 3a6d c63b db6c e23b 1175 8d3e
00000310: a6a8 f2be cce7 e83c 7dc9 873d 0f68 9e3d
00000320: 2545 babd 7227 0a3d ddd0 913d b665 e73d
00000330: dc87 d23d 635e 6dbd 0ee7 51bf 6de1 fa3c
00000340: 8044 36bb cc41 e6be f519 833d 2d6c a73d
00000350: 177b b3bd c06b 5abd 0b99 9cbd a0fd 6f3c
00000360: 1409 fb3d 40c1 90bd 3a65 703d 2b22 a23f
00000370: 9b90 3dbd 7a60 92bf 5ad3 483d 8698 923b
00000380: dd5f 69be da93 37bd c02e 72bb ec38 da3c
00000390: 7022 363c a240 dc3e e5cf a6bd d186 9a3d
000003a0: dc65 d5bd 3b6b dcbe 91af c73d c001 36bd
000003b0: 961c 0a3f 84a4 b1bc 6e8c bdbe 3ec8 533c
000003c0: 3ceb f7bd de60 82bb 7079 afbb 42de 5abd
000003d0: c736 a53d 1059 3bbc fcc1 a13e ffcf a13d
000003e0: 2886 c2be ca47 793e 9ee8 18be 0bae 68bd
000003f0: 92a8 bebe 6757 df3d 6c1f 3e3d 8b70 993d

network.2.bias f4 [128]
-0.092005335 0.7991623 -0.054589618 -0.06343573 7.3806257 -0.15221895 7.4816127 4.767973
-0.10952763 -0.056855146 -0.06893229 -0.11272884 -0.031042691 -0.07211718 0.043687582 3.260685
-0.101830825 6.3646145 0.7108098 7.540563 5.7052674 -0.039663624 3.8496778 -0.08319661
8.899862 -0.054780606 8.29405 -0.062124815 -0.14903024 6.3561835 8.366175 8.620198
0.009973371 7.087973 0.029156873 7.169003 4.5556655 8.938278 7.5219193 -0.11102456
0.023598216 -0.12678508 0.011854239 -0.0053718365 -0.06535687 -0.08004999 8.812892 -0.086763375
-0.033478778 6.1632943 7.3424325 0.37156278 9.439346 -0.013392095 7.4314175 8.674857
-0.05605773 -0.09988674 2.5693831 7.453634 9.682842 7.1759095 -0.017256375 -0.03462717
-0.07597072 -0.04657834 7.8463373 -0.19916515 8.759226 0.010915892 8.756836 9.125935
-0.011184892 -0.14665903 7.854921 7.0926175 8.009749 -0.051084787 -0.2888814 -0.7638532
-0.056848403 -0.12068065 -0.1362868 1.229143 7.5095625 -0.09298792 9.040903 -0.037385534
-0.014408679 0.009665063 9.046717 7.018238 0.0076944013 -0.15628938 -0.08866854 0.057022963
8.4512415 8.041786 -0.09120975 -0.08632098 -0.32684845 -0.16353302 8.340173 0.019750074
-0.13655499 2.4260676 -0.016242342 -0.0101340655 -0.099692576 7.7464824 0.025205344 -0.17772205
1.784881 -0.20894998 -0.13876943 -5.9659553 0.015069843 8.054169 0.011903851 -0.10581841
-0.08491686 -0.054915152 -0.08530539 -0.07146343 -0.02166243 7.819758 -0.09501216 7.0968375
00000000: 4b6d bcbd e795 4c3f 5d99 5fbd 98ea 81bd
00000010: 162e ec40 49df 1bbe 5f69 ef40 3c93 9840
00000020: 0650 e0bd f1e0 68bd 5f2c 8dbd 61de e6bd
00000030: 3e4d febc 2cb2 93bd c0f1 323d 10af 5040
00000040: ae8c d0bd ecaa cb40 a2f7 353f 4b4c f140
00000050: 8d91 b640 5376 22bd 1f61 7640 fc62 aabd
00000060: d665 0e41 a161 60bd 6eb4 0441 9776 7ebd
00000070: 629b 18be db65 cb40 dadb 0541 55ec 0941
00000080: 5a67 233c add0 e240 65da ee3c 7968 e540
00000090: 03c8 9140 3003 0f41 90b3 f040 d860 e3bd
000000a0: 0c51 c13c f3d3 01be 4838 423c 3b06 b0bb
000000b0: d3d9 85bd 40f1 a3bd 9b01 0d41 ffb0 b1bd
000000c0: 0b21 09bd b539 c540 35f5 ea40 7a3d be3e
000000d0: 9007 1741 856a 5bbc 2cce ed40 37cc 0a41
000000e0: ca9c 65bd 6b91 ccbd c670 2440 2b84 ee40
000000f0: ecec 1a41 0da1 e540 3e5d 8dbc 38d5 0dbd
00000100: 8996 9bbd eec8 3ebd 3215 fb40 f3f1 4bbe
00000110: ca25 0c41 92d8 323c 001c 0c41 d403 1241
00000120: d640 37bc c92d 16be 835b fb40 b9f6 e240
00000130: ef27 0041 483e 51bd 43e8 93be e28b 43bf
00000140: dfd9 68bd 6b27 f7bd c48e 0bbe 8f54 9d3f
00000150: 564e f040 7370 bebd 8aa7 1041 9321 19bd
00000160: 6112 6cbc 365a 1e3c 5abf 1041 6895 e040
00000170: 5121 fc3b 530a 20be da97 b5bd e990 693d
00000180: 4938 0741 28ab 0041 2dcc babd 0ec9 b0bd
00000190: ae58 a7be 3375 27be 5971 0541 e8ca a13c
000001a0: 12d5 0bbe b144 1b40 a90e 85bc 5a09 26bc
000001b0: 9f2b ccbd 2fe3 f740 707b ce3c c5fc 35be
000001c0: fb76 e43f fcf6 55be 9319 0ebe 1be9 bec0
000001d0: 81e7 763c e0dd 0041 5f08 433c 53b7 d8bd
000001e0: e4e8 adbd b6ee 60bd 98b4 aebd 6b5b 92bd
000001f0: 6975 b1bc 753b fa40 bc95 c2bd 4b19 e340

network.4.weight f4 [12, 128]
0.00080103154 0.579032 -0.032066848 -0.011205211 0.7290522 0.031776443 1.318759 0.74170154
0.027429827 0.07616653 -0.03480394 -0.08127419 -0.08604792 -0.077047735 -0.08563849 0.5354565
-0.013607912 1.0653793 0.33042353 1.0253487 1.7618276 0.06827411 1.240684 0.029380716
0.7964429 -0.043803915 0.8755194 0.017758492 0.08289376 1.2590913 1.095275 1.0430495
-0.095121734 1.8448392 0.0012131508 1.6496141 0.59825695 0.9532631 1.1846116 -0.009527543
-0.014591396 0.009504227 0.028884726 0.0002346074 0.024388822 0.054180134 0.48822793 0.032302592
-0.010131084 2.1578116 1.4494414 0.10186625 0.87395656 0.1134638 1.3174182 0.6875448
-0.031683862 -0.03705793 0.7497027 1.3434578 0.6199829 1.3917412 -0.073870115 -0.017929683
-0.0023671528 0.05289212 0.8760468 -0.012552573 0.8091072 0.0031518969 0.987656 1.7992426
-0.03236483 0.030126298 0.7502144 1.2526999 1.1098807 0.057156086 0.026033103 -0.012479674
0.0013435482 0.37422538 0.004902059 0.41331592 1.0231658 -0.0115389805 0.4774665 0.081634946
-0.057124145 0.045980237 1.1335572 1.255518 -0.0019175283 -0.0069093322 0.13003027 -0.05425139
1.0567743 1.614465 -0.0040080124 0.00021095574 0.027496036 0.02287299 1.052635 0.008550539
0.069785476 1.2579458 0.06903008 0.003866232 0.13138875 1.4183835 -0.030235007 -0.02658841
0.6776662 0.56078917 0.043662984 -0.5265466 -0.045592703 1.3057559 0.038640436 0.035445653
-0.004173141 -0.015165362 -0.008662715 -0.027827336 0.04972104 1.0396376 0.027328528 1.1955531
-0.057305038 0.5148209 0.0033456644 -0.08273147 1.2359815 -0.032597024 1.3648244 0.7096826
-0.04574544 0.046978585 0.10685937 0.053783882 0.012171483 0.11384335 0.08715444 0.5620012
0.0025073066 1.0230515 -0.018911483 1.271523 2.1613126 -0.06369871 1.4794282 0.083943285
0.73950773 -0.043788616 0.9248969 -0.009477457 -0.079413846 1.326611 1.1035428 1.2177916
0.04007954 2.0011864 0.08180358 1.5373801 0.62974983 0.96768206 1.1600503 -0.072259925
-0.026934069 0.06949457 -0.09400746 -0.055364873 0.11051898 -0.021659931 0.48801404 -0.019081715
-0.0583923 2.536628 1.2240384 0.09604267 0.82117563 0.08931099 1.5417478 0.6952698
0.010325688 -0.046117093 0.7639776 1.3420981 0.6341662 1.1769751 -0.018242523 0.042544674
-0.0018747827 -0.0045353305 0.8136682 0.023029247 0.7066476 -0.07496117 0.8836838 1.5119596
-0.07458108 0.054911885 1.3216554 1.4672257 1.2323252 0.08781113 0.07732537 0.43152243
0.03702436 -0.17864212 -0.024355808 0.4455803 1.2379034 -0.046077292 0.5437599 -0.018522242
-0.013678858 -0.02121806 1.6478921 1.5542692 0.047225345 0.09069666 0.03331738 -0.08514929
0.8584104 1.2916162 -0.051540155 0.06492872 -0.0003237179 -0.073746465 1.1077092 0.0607396
0.09085586 0.9656831 0.03772155 0.05130913 0.02019878 1.3764418 0.003732128 -0.0015858412
0.99432516 -0.11296522 -0.018272089 -0.53776884 0.04555048 1.1733117 0.06524019 -0.018893862
0.06888708 -0.059809014 -0.004716677 -0.10218878 -0.021516459 1.0344226 0.024063166 1.4553671
00000000: 51fc 513a 713b 143f 8758 03bd 1096 37bc
00000010: 2aa3 3a3f 0428 023d 18cd a83f 27e0 3d3f
00000020: 84b4 e03c 33fd 9b3d 948e 0ebd 1573 a6bd
00000030: e439 b0bd 34cb 9dbd 3c63 afbd ad13 093f
00000040: b8f3 5ebc 595e 883f 462d a93e a03e 833f
00000050: 9183 e13f 4cd3 8b3d bcce 9e3f d4af f03c
00000060: afe3 4b3f bc6b 33bd 0a22 603f 427a 913c
00000070: 34c4 a93d e729 a13f f931 8c3f a582 853f
00000080: 2fcf c2bd b123 ec3f 9602 9f3a 8e26 d33f
00000090: 5e27 193f 0d09 743f 5aa1 973f 6919 1cbc
000000a0: c010 6fbc 9eb7 1b3c a99f ec3c f200 7639
000000b0: 11cb c73c fdeb 5d3d 03f9 f93e b94f 043d
000000c0: d9fc 25bc 9619 0a40 4c87 b93f 419f d03d
000000d0: 9ebb 5f3f b55f e83d 29a1 a83f f002 303f
000000e0: f0c6 01bd 0eca 17bd 84ec 3f3f 6df6 ab3f
000000f0: 33b7 1e3f 9324 b23f 3749 97bd 45e1 92bc
00000100: 3c22 1bbb 68a5 583d 9a44 603f 4fa9 4dbc
00000110: a621 4f3f 0e90 4e3b 06d7 7c3f 954d e63f
00000120: fc90 04bd 6dcb f63c 0d0e 403f 7858 a03f
00000130: 9210 8e3f 801c 6a3d 6043 d53c 8c77 4cbc
00000140: ff19 b03a 789a bf3e 74a1 a03b 259e d33e
00000150: 19f7 823f fe0d 3dbc 7d76 f43e 3930 a73d
00000160: 02fb 69bd c655 3c3d 6718 913f d0b4 a03f
00000170: 9355 fbba ae67 e2bb a826 053e b536 5ebd
00000180: 6144 873f caa6 ce3f a555 83bb 0034 5d39
00000190: 5e3f e13c 2360 bb3c bebc 863f 8f17 0c3c
000001a0: b0eb 8e3d 5e04 a13f a55f 8d3d 9c60 7d3b
000001b0: c68a 063e 978d b53f 68af f7bc f0cf d9bc
000001c0: 887b 2d3f e18f 0f3f f5d7 323d c2cb 06bf
000001d0: 6abf 3abd 0223 a73f 6f45 1e3d 762f 113d
000001e0: d8be 88bb 2378 78bc 0fee 0dbc 27f6 e3bc
000001f0: 4aa8 4b3d d812 853f 14e0 df3c e207 993f
00000200: b0b8 6abd 4dcb 033f ef42 5b3b 1e6f a9bd
00000210: a434 9e3f 7584 05bd 91b2 ae3f c2ad 353f
00000220: 925f 3bbd 9e6c 403d 16d9 da3d 7d4c 5c3d
00000230: e66a 473c b426 e93d 077e b23d 50df 0f3f
00000240: a051 243b 5af3 823f 41ec 9abc 44c1 a23f
00000250: f252 0a40 7874 82bd e75d bd3f 75ea ab3d
00000260: 6150 3d3f b15b 33bd 0bc6 6c3f 5647 1bbc
00000270: baa3 a2bd 64ce a93f e440 8d3f 98e0 9b3f
00000280: 722a 243d 7013 0040 a388 a73d dfc8 c43f
00000290: 4937 213f 03ba 773f 877c 943f 03fd 93bd
000002a0: d6a4 dcbc 2b53 8e3d fc86 c0bd 47c6 62bd
000002b0: c657 e23d 2b70 b1bc fadc f93e 4251 9cbc
000002c0: c42c 6fbd 1d58 2240 4aad 9c3f 05b2 c43d
000002d0: 9138 523f aee8 b63d fe57 c53f 34fd 313f
000002e0: 132d 293c 47e5 3cbd 0994 433f dfc9 ab3f
000002f0: b758 223f 1fa7 963f 5871 95bc 5343 2e3d
00000300: 45bb f5ba 1c9d 94bb 8f4c 503f d5a7 bc3c
00000310: dbe6 343f 3e85 99bd 1a39 623f e487 c13f
00000320: f7bd 98bd 49eb 603d 012c a93f 0dce bb3f
00000330: d5bc 9d3f 52d6 b33d c35c 9e3d 82f0 dc3e
00000340: dba6 173d f6ed 36be d585 c7bc 1a23 e43e
00000350: 9e73 9e3f 8bbb 3cbd d933 0b3f f5bb 97bc
00000360: 4a1d 60bc 7fd1 adbc 21ee d23f 4bf2 c63f
00000370: 5d6f 413d 2cbf b93d ce77 083d c062 aebd
00000380: c9c0 5b3f ae53 a53f c51b 53bd 59f9 843d
00000390: aeb8 a9b9 6308 97bd 6ac9 8d3f 16ca 783d
000003a0: a312 ba3d 0237 773f e981 1a3d 8629 523d
000003b0: e977 a53c 3f2f b03f b896 743b 00dc cfba
000003c0: 188c 7e3f 4f5a e7bd 59af 95bc 38ab 09bf
000003d0: 2493 3a3d 142f 963f a69c 853d 4dc7 9abc
000003e0: ab14 8d3d 4cfa 74bd 5b8e 9abb 5a48 d1bd
000003f0: 4943 b0bc f667 843f 1e20 c53c 7849 ba3f

network.4.bias f4 [12]
3.3120399 5.1135325 3.9668376 3.6604588 6.137841 6.4765944 4.2917128 4.5491085
3.0436037 3.5551443 6.088536 5.675995
00000000: 76f8 5340 0fa2 a340 abe0 7d40 f544 6a40
00000010: 3269 c440 4340 cf40 b655 8940 4c92 9140
00000020: 67ca 4240 7c87 6340 49d5 c240 c0a1 b540

network.0.weight f4 [128, 134]
-0.02233376 -0.0012867904 -0.050169293 -0.06858369 -0.06648884 -0.05607349 0.043716654 -0.027435504
-0.05430072 -0.020636357 -0.03133394 0.013325751 0.058845088 0.08229135 -0.025623068 -0.015988998
-0.05582232 0.072422355 -0.067933574 0.083609745 0.03827078 0.0046650693 0.04128982 -0.020894304
0.012096681 -0.052551657 0.03224565 0.08005245 -0.0792293 0.049030825 0.0066783875 0.03172171
0.026037782 0.07292639 0.05892214 -0.0650717 0.0070866346 -0.028428573 -0.017465375 0.0016442686
-0.05797107 -0.0031804666 -0.051674083 0.03914918 -0.0052225366 -0.07287306 0.005520858 -0.079618685
0.06491473 0.06883006 -0.079480134 -0.06784031 0.005027361 -0.014503531 -0.061261505 -0.032499522
-0.063573584 -0.014830925 -0.077079915 -0.039996374 -0.040237162 -0.033610564 0.06872216 -0.054310277
-0.0429992 0.058543578 -0.00494536 -0.03458459 -0.03896138 -0.02084773 0.0020533279 -0.06310498
-0.0060559064 0.038300723 0.008872926 0.08099872 0.0355715 -0.074518226 0.039227694 0.027666532
-0.058890756 -0.07133648 -0.01406505 -0.075129986 -0.029599056 -0.05599297 0.046295926 0.0024266243
-0.016079508 0.03893429 0.052367628 -0.08509817 0.013030462 -0.06900165 -0.04982546 0.08060177
0.07879412 -0.06482257 -0.01680985 -0.0030500144 -0.064072005 -0.056775235 0.06252599 0.058773443
0.04980658 -0.07578069 -0.021872677 -0.078946754 -0.017139807 -0.0844602 -0.021791048 -0.03930722
0.07346462 0.00705301 0.01611048 -0.008326754 -0.035972685 -0.046037957 -0.07062159 -0.011299193
0.02289205 0.015139826 0.075133756 0.05081521 0.033366963 0.0053534433 -0.016593896 -0.07854977
0.063946694 -0.022690266 0.061546862 0.039938197 0.0676025 0.0040844604 -0.024264598 -0.01966433
-0.0065908954 0.08352956 0.03534045 -0.01690492 -0.06335648 -0.02731961 -0.076891676 0.032945275
-0.04203379 0.019062579 0.06986046 0.046676517 0.078947335 -0.06444542 -0.069679886 0.05965379
-0.06311573 -0.010345355 -0.0245012 0.035797246 -0.021271951 -0.0589756 -0.00921423 0.06275791
0.011686228 0.065253615 -0.04151875 0.020521887 -0.046942472 -0.07544623 -0.06439044 -0.045830593
0.051620275 -0.07435501 0.03740619 0.027917363 -0.0771954 0.015839018 -0.041749515 -0.05613914
0.058167666 0.06418796 -0.08272022 -0.02835526 0.023080662 0.0020631552 -0.06357501 0.06404212
0.04112813 0.055851087 -0.027498715 0.020048894 -0.0653952 0.055738375 0.032214828 0.059821144
0.022477053 -0.030781105 0.04883389 -0.043546945 -0.08469327 -0.02511255 0.05108282 0.06570451
-0.041607678 -0.06321238 0.051716253 -0.07107833 0.010394596 -0.056718368 -0.024088629 0.055581138
-0.00923337 -0.010731198 -0.04009913 -0.07186097 0.080296904 -0.021547124 0.058361977 -0.053735137
0.06786394 0.04447341 -0.022338837 -0.031652234 -0.08091638 -0.05272823 -0.0723697 0.005872138
0.0021103993 -0.04736281 -0.045445487 -0.07077308 0.00034470856 0.07887119 -0.02899563 -0.04727856
-0.012058295 0.04512985 -0.045471758 -0.014036313 0.062215894 0.018366776 0.0550462 0.07969926
-0.06314354 -0.072596475 0.04031302 0.0013414845 0.06602305 -0.013987407 -0.019107953 -0.043677095
-0.03286739 -0.025739416 0.019346759 0.020496964 0.06957078 -0.08386586 -0.003222622 0.0018602088
00000000: 4af5 b6bc 85a9 a8ba 517e 4dbd 9b75 8cbd
00000010: 4d2b 88bd 51ad 65bd 3c10 333d 6cc0 e0bc
00000020: 6f6a 5ebd 940d a9bc 0458 00bd 4054 5a3c
00000030: 8c07 713d 5e88 a83d 78e7 d1bc 5cfb 82bc
00000040: f2a5 64bd 2c52 943d c220 8bbd 963b ab3d
00000050: d2c1 1c3d 70dd 983b 841f 293d 882a abbc
00000060: 2831 463c 6840 57bd 0414 043d 8af2 a33d
00000070: f942 a2bd 8cd4 483d 60d6 da3b a0ee 013d
00000080: 304d d53c 6e5a 953d 5858 713d 5044 85bd
00000090: 0037 e83b 0ae3 e8bc 8c13 8fbc 8084 d73a
000000a0: 1373 6dbd 606f 50bb 34a8 53bd e45a 203d
000000b0: d021 abbb 793e 95bd 50e8 b43b 1f0f a3bd
000000c0: 04f2 843d c6f6 8c3d 7bc6 a2bd dcef 8abd
000000d0: 90bc a43b 38a0 6dbc 58ed 7abd 381e 05bd
000000e0: de32 82bd 68fd 72bc 13dc 9dbd 3dd3 23bd
000000f0: b9cf 24bd 3bab 09bd 34be 8c3d 7474 5ebd
00000100: ee1f 30bd 64cb 6f3d b00c a2bb 92a8 0dbd
00000110: f895 1fbd dcc8 aabc 2091 063b 2f3d 81bd
00000120: a070 c6bb 38e1 1c3d c05f 113c a8e2 a53d
00000130: 6cb3 113d 039d 98bd 38ad 203d eca4 e23c
00000140: 6f37 71bd dc18 92bd 1871 66bc c0dd 99bd
00000150: b879 f2bc e258 65bd cca0 3d3d 0008 1f3b
00000160: 2cb9 83bc 9079 1f3d 707f 563d f347 aebd
00000170: b87d 553c bd50 8dbd c815 4cbd 8a12 a53d
00000180: d05e a13d b2c1 84bd d0b4 89bc c0e2 47bb
00000190: 2f38 83bd 268d 68bd a00d 803d 6cbc 703d
000001a0: fc01 4c3d e832 9bbd 542e b3bc d6ae a1bd
000001b0: c868 8cbc 78f9 acbd 2483 b2bc 9c00 21bd
000001c0: 9e74 963d f01c e73b 20fa 833c f06c 08bc
000001d0: 1858 13bd 4c92 3cbd 0da2 90bd 4020 39bc
000001e0: 1c88 bb3c 080d 783c badf 993d 9c23 503d
000001f0: ccab 083d f06b af3b ecef 87bc b4de a0bd
00000200: 7cf6 823d f0e0 b9bc 9018 7c3d 3c96 233d
00000210: 2e73 8a3d f0d6 853b 8dc6 c6bc 1717 a1bc
00000220: 70f8 d7bb 8c11 ab3d 26c1 103d 307c 8abc
00000230: 0bc1 81bd 60cd dfbc 6279 9dbd a0f1 063d
00000240: a02b 2cbd 2029 9c3c 0013 8f3d e02f 3f3d
00000250: 24af a13d f6fb 83bd 54b4 8ebd 8857 743d
00000260: d242 81bd 907f 29bc beb6 c8bc 22a0 123d
00000270: 8442 aebc 6690 71bd 48f7 16bc 3887 803d
00000280: 9877 3f3c b0a3 853d 910f 2abd 841d a83c
00000290: c046 40bd 8e83 9abd 23df 83bd dcb8 3bbd
000002a0: c86f 533d 7147 98bd 3c37 193d f4b2 e43c
000002b0: 9f18 9ebd d4c0 813c 8a01 2bbd 28f2 65bd
000002c0: 3841 6e3d fa74 833d 3869 a9bd 4a49 e8bc
000002d0: a813 bd3c 0036 073b 9d33 82bd 8428 833d
000002e0: f875 283d 1cc4 643d fc44 e1bc 943d a43c
000002f0: ebed 85bd ec4d 643d b2f3 033d 0407 753d
00000300: cc21 b83c a828 fcbc 0c06 483d 485e 32bd
00000310: aa73 adbd d6b8 cdbc 383c 513d 1690 863d
00000320: d06c 2abd 7e75 81bd 6cd4 533d 8491 91bd
00000330: 184e 2a3c 8551 68bd 8455 c5bc 0ca9 633d
00000340: 9047 17bc e8d1 2fbc fc3e 24bd d82b 93bd
00000350: b472 a43d 9883 b0bc f80c 6f3d 6019 5cbd
00000360: 40fc 8a3d c029 363d f0ff b6bc c6a5 01bd
00000370: 7db7 a5bd 8ef9 57bd 9136 94bd 106b c03b
00000380: a04e 0a3b 81ff 41bd 0c25 3abd 7af1 90bd
00000390: 00ba b439 3887 a13d 3e88 edbc 2aa7 41bd
000003a0: 2890 45bc 14da 383d 9840 3abd 90f8 65bc
000003b0: 18d6 7e3d ec75 963c 2078 613d 5e39 a33d
000003c0: 6651 81bd 76ad 94bd 441f 253d c0d4 af3a
000003d0: 1837 873d 702b 65bc 4888 9cbc c1e6 32bd
000003e0: f59f 06bd 78db d2bc 187d 9e3c 40e9 a73c
000003f0: 207b 8e3d ddc1 abbd a032 53bb 40d2 f33a

network.0.bias f4 [128]
0.8220267 0.59889585 -0.0028465483 0.5984279 0.60222566 -0.08904841 -0.5956417 -0.014568534
0.7616006 5.5752325 4.9297204 -0.078908294 1.6445674 0.0024459881 -0.11162477 0.070474595
-0.09654904 0.5718949 0.600734 8.968215 0.025476603 9.54399 3.487543 1.2216871
-0.08220753 -0.055081625 5.006023 0.019783037 0.032614775 0.017508656 10.397801 -0.09555531
-0.0461472 -0.0077931816 7.1976466 -6.411348 0.036392692 -0.001373941 -0.10940806 -0.025078915
5.447015 0.019074216 -5.4961023 -3.9296148 6.379577 -0.09648241 1.8687015 -0.09252697
-0.1188823 -0.37382755 -0.013433239 -0.016152969 1.7073818 0.009818096 0.86367255 -0.06291042
4.371795 0.65128195 0.011699957 -2.3551674 -0.06434378 3.8413918 -0.09542247 -0.016441304
10.525812 6.391039 1.5283198 7.3694344 -3.1218817 -0.063463375 -0.030190095 -0.073916085
0.83003265 -0.02583064 -0.08187859 1.870263 5.791055 1.064558 -0.21109582 0.019498797
0.005745597 0.16560306 0.014500038 -0.075961486 -0.048861668 -0.11499338 0.030415462 -0.12085419
7.6165576 0.031180179 -0.062416017 3.6019752 1.5095158 0.25262776 0.05445045 -0.03367075
-5.7962375 -0.029946378 0.010759015 0.017898398 0.025658928 5.149649 -0.07986021 -0.087379
0.016549233 5.1591573 0.025284246 -0.05700547 3.7483234 -0.059660252 4.808175 7.850671
0.58388597 8.132688 0.043338805 -0.062101513 -0.06621601 -0.02362661 8.93711 -0.036947366
-3.0032673 9.797733 9.251791 -0.050684266 8.949382 -0.048816133 -0.06884191 -0.11109239
00000000: 5870 523f 3d51 193f 288d 3abb 9232 193f
00000010: 762b 1a3f 035f b6bd f97b 18bf dcb0 6ebc
00000020: 42f8 423f 4e68 b240 45c0 9d40 ac9a a1bd
00000030: 2f81 d23f df4c 203b 879b e4bd fc54 903d
00000040: 81bb c5bd b467 123f b4c9 193f cf7d 0f41
00000050: 4fb4 d03c 2fb4 1841 e833 5f40 3e60 9c3f
00000060: 6c5c a8bd 459d 61bd 5731 a040 0910 a23c
00000070: 1297 053d 506e 8f3c 655d 2641 81b2 c3bd
00000080: d904 3dbd f25d ffbb 1f53 e640 c329 cdc0
00000090: 8110 153d cf15 b4ba 5511 e0bd 4c72 cdbc
000000a0: f24d ae40 8841 9c3c 12e0 afc0 cf7e 7bc0
000000b0: 7f25 cc40 9298 c5bd 9c31 ef3f c87e bdbd
000000c0: 9078 f3bd 5366 bfbe 1717 5cbc 3b53 84bc
000000d0: 7d8b da3f 14dc 203c a519 5d3f 2ed7 80bd
000000e0: bfe5 8b40 6aba 263f 2db1 3f3c 10bb 16c0
000000f0: acc6 83bd 5dd9 7540 db6c c3bd eaaf 86bc
00000100: ba69 2841 6483 cc40 fc9f c33f 68d2 eb40
00000110: e9cc 47c0 16f9 81bd 3851 f7bc 5161 97bd
00000120: 057d 543f c79a d3bc f6af a7bd c764 ef3f
00000130: 5350 b940 7043 883f 8129 58be f1bb 9f3c
00000140: 9045 bc3b d993 293e 9191 6d3c b291 9bbd
00000150: 2c23 48bd a681 ebbd d929 f93c 6782 f7bd
00000160: d7ba f340 936d ff3c f0a7 7fbd c386 6640
00000170: d037 c13f 6d58 813e 6f07 5f3d 57ea 09bd
00000180: c77a b9c0 1b52 f5bc 9446 303c a99f 923c
00000190: ac32 d23c edc9 a440 c08d a3bd c3f3 b2bd
000001a0: 4292 873c d117 a540 e820 cf3c 917e 69bd
000001b0: 88e4 6f40 4f5e 74bd 92dc 9940 b238 fb40
000001c0: 8d79 153f 7d1f 0241 0884 313d 285e 7ebd
000001d0: 429c 87bd 988c c1bc 67fe 0e41 1f56 17bd
000001e0: 8835 40c0 84c3 1c41 5607 1441 4e9a 4fbd
000001f0: ab30 0f41 6df3 47bd fdfc 8cbd 6884 e3bd

network.2.weight f4 [128, 128]
0.033597674 0.062141005 -0.029492553 0.056892537 -0.09431578 0.048923448 -0.023252463 -0.07602266
0.047901426 0.04690675 -0.068531066 -0.053641707 0.037354246 -0.08026598 -0.042973243 0.040027402
-0.0019241348 -0.06973112 -0.033783868 0.006443953 -0.033090893 0.004750106 -0.036776166 -0.008053442
-0.048272796 0.06633145 -0.08053429 -0.032133706 0.048080213 0.012281917 -0.16088407 0.05001818
0.0076444373 -0.003679768 -0.15217137 -0.1025436 0.04709173 0.07642148 -0.04755649 0.07904988
0.019103386 0.02060832 -0.10758062 -0.052513774 -0.12623067 -0.07641617 -0.08138054 -0.07561985
0.06769991 0.07894558 -0.074716896 -0.014531031 -0.013544383 0.04847157 -0.065151975 -0.028812133
0.022745574 0.056872148 -0.06856003 0.010229563 0.012423815 -0.029699458 -0.07423104 -0.029883929
-0.0658683 -0.062670894 0.041491278 -0.06917025 -0.017129235 0.009905942 -0.07327967 -0.021693893
0.050944775 0.014785595 0.06401717 -0.03984066 0.03400369 -0.038814098 -0.063902706 0.04116357
-0.04583943 0.033764213 0.06268037 -0.011791602 -0.0035387725 0.002539888 -0.08026608 0.04707595
0.0043494976 -0.0655866 0.059291147 -0.086337864 0.011473666 -0.051526353 0.007236149 -0.046209972
-0.017582739 -0.04410963 -0.07110732 0.061977927 0.066214375 0.0085481135 -0.05640775 -0.06861128
0.03886514 -0.053915225 -0.046908263 0.039106734 0.040353265 0.02000729 0.030253243 -0.041055758
0.047104627 -0.10788501 -0.008064598 -0.01280579 -0.0029334472 0.00915166 -0.016030854 0.0014788137
0.035073206 0.04007185 -0.05449078 -0.06296734 -0.04499792 -0.07790067 0.043221228 -0.07883518
-0.07966685 0.026329497 0.07749573 0.006462376 0.000634662 0.059504844 -0.5201825 0.023375541
-0.09941764 0.7228052 0.35643783 0.05775968 -0.07534017 -0.085020915 0.011166699 -0.07358518
-0.045883145 0.034114793 0.009664815 0.039168734 0.026666194 -0.21044804 0.8092615 -0.093875706
0.026755452 0.069712825 1.2282406 0.009672873 0.042865925 -0.005195096 -0.23921682 -0.05499501
0.001920402 -0.029234096 0.05196337 -0.5429305 -0.023469314 -0.005007067 0.009721793 -0.004427366
0.37358585 0.03446214 -0.10473883 -1.2400126 0.7901056 -0.053912465 0.52020377 0.0056832256
0.030038983 -0.016056158 0.06172376 0.00061157346 -0.35033545 0.015343338 -0.10211913 -0.0019355342
-0.07253018 -0.86786586 0.06842848 -0.7989093 -0.07564882 1.6786113 0.043829896 0.08687062
0.016924586 0.0060555013 0.0069099492 0.27628377 -0.47394294 0.028430842 0.06630228 0.07734691
-0.090952195 0.033729024 0.07119916 0.11298697 0.10279819 -0.057951342 -0.81993186 0.03062507
-0.0027811825 -0.44972074 0.06401435 0.0817493 -0.08763712 -0.053325415 -0.07646378 0.014647871
0.12257591 -0.070681095 0.058690287 1.2666677 -0.046280485 -1.1435692 0.049029686 0.0044737486
-0.22790475 -0.044818737 -0.0036954135 0.02663847 0.011116609 0.4301806 -0.081451215 0.075452454
-0.10419819 -0.4305056 0.097502835 -0.044435263 0.5394987 -0.021684892 -0.37021202 0.012926159
-0.12105414 -0.0039788326 -0.0053550526 -0.053434618 0.080670886 -0.011434808 0.3159331 0.07901
-0.37992978 0.24343792 -0.14932486 -0.056806605 -0.37237984 0.109053425 0.046416685 0.07492169
00000000: b79d 093d 9187 7e3d 5e9a f1bc 2608 693d
00000010: a228 c1bd f463 483d f37b bebc c5b1 9bbd
00000020: 4934 443d 4b21 403d 045a 8cbd 68b7 5bbd
00000030: c400 193d 7d62 a4bd b604 30bd c6f3 233d
00000040: 4033 fcba 30cf 8ebd f460 0abd cc27 d33b
00000050: 518a 07bd c7a6 9b3b 9ba2 16bd 96f2 03bc
00000060: b2b9 45bd c9d8 873d 29ef a4bd a29e 03bd
00000070: c2ef 443d 183a 493c cbbe 24be dddf 4c3d
00000080: 307e fa3b 4328 71bb d0d2 1bbe 6102 d2bd
00000090: 42e3 403d dd82 9c3d 98ca 42bd e7e4 a13d
000000a0: b47e 9c3c c8d2 a83c 3a53 dcbd af18 57bd
000000b0: 9d42 01be 1580 9cbd d7aa a6bd 94de 9abd
000000c0: 40a6 8a3d 38ae a13d 2c05 99bd 9013 6ebc
000000d0: 43e9 5dbc 208a 463d 666e 85bd 6c07 ecbc
000000e0: ed54 ba3c c5f2 683d 3369 8cbd e699 273c
000000f0: 428d 4b3c 474c f3bc 7206 98bd 24cf f4bc
00000100: f6e5 86bd 9959 80bd c2f2 293d 22a9 8dbd
00000110: 9c52 8cbc 884c 223c a713 96bd 64b7 b1bc
00000120: 78ab 503d 483f 723c 6f1b 833d f62f 23bd
00000130: 7447 0b3d 88fb 1ebd 6cdf 82bd 229b 283d
00000140: 20c2 3bbd 584c 0a3d 915e 803d 9031 41bc
00000150: c0ea 67bb 4074 263b 8b62 a4bd b6d2 403d
00000160: 3b86 8e3b 4452 86bd 46db 723d e8d1 b0bd
00000170: 0bfc 3b3c 4c0d 53bd 381d ed3b ab46 3dbd
00000180: ad09 90bc 4dac 34bd b7a0 91bd 91dc 7d3d
00000190: 679b 873d 630d 0c3c d00b 67bd 1284 8cbd
000001a0: 0e31 1f3d 36d6 5cbd e122 40bd 622e 203d
000001b0: 7749 253d 54e6 a33c a6d5 f73c 152a 28bd
000001c0: c8f0 403d d1f2 dcbd 6021 04bc 60cf 51bc
000001d0: 143f 40bb d8f0 153c 2353 83bc c1d4 c13a
000001e0: eca8 0f3d 6122 243d b931 5fbd 05f5 80bd
000001f0: bd4f 38bd 638a 9fbd be08 313d 5774 a1bd
00000200: 6028 a3bd f5b0 d73c 15b6 9e3d 57c2 d33b
00000210: 725f 263a 5abb 733d ae2a 05bf 107e bf3c
00000220: 7a9b cbbd c309 393f 057f b63e 6a95 6c3d
00000230: f24b 9abd 721f aebd 88f4 363c d4b3 96bd
00000240: f7ef 3bbd f4bb 0b3d 2c59 1e3c 656f 203d
00000250: 1073 da3c b17f 57be c32b 4f3f e841 c0bd
00000260: 402e db3c 99c5 8e3d fd36 9d3f f87a 1e3c
00000270: 2e94 2f3d a03b aabb 41f5 74be 7342 61bd
00000280: 00b6 fb3a 587c efbc 8bd7 543d 7efd 0abf
00000290: b842 c0bc 5312 a4bb 2848 1f3c 7013 91bb
000002a0: a546 bf3e 2c28 0d3d 5081 d6bd bcb8 9ebf
000002b0: 5c44 4a3f 51d3 5cbd 132c 053f 5a3a ba3b
000002c0: 5014 f63c 3488 83bc 0ed2 7c3d 0052 203a
000002d0: 2b5f b3be a062 7b3c d623 d1bd c0b1 fdba
000002e0: b48a 94bd 752c 5ebf 3b24 8c3d 5285 4cbf
000002f0: c5ed 9abd bcdc d63f fa86 333d 39e9 b13d
00000300: 6ea5 8a3c 3a6d c63b db6c e23b 1175 8d3e
00000310: a6a8 f2be cce7 e83c 7dc9 873d 0f68 9e3d
00000320: 2545 babd 7227 0a3d ddd0 913d b665 e73d
00000330: dc87 d23d 635e 6dbd 0ee7 51bf 6de1 fa3c
00000340: 8044 36bb cc41 e6be f519 833d 2d6c a73d
00000350: 177b b3bd c06b 5abd 0b99 9cbd a0fd 6f3c
00000360: 1409 fb3d 40c1 90bd 3a65 703d 2b22 a23f
00000370: 9b90 3dbd 7a60 92bf 5ad3 483d 8698 923b
00000380: dd5f 69be da93 37bd c02e 72bb ec38 da3c
00000390: 7022 363c a240 dc3e e5cf a6bd d186 9a3d
000003a0: dc65 d5bd 3b6b dcbe 91af c73d c001 36bd
000003b0: 961c 0a3f 84a4 b1bc 6e8c bdbe 3ec8 533c
000003c0: 3ceb f7bd de60 82bb 7079 afbb 42de 5abd
000003d0: c736 a53d 1059 3bbc fcc1 a13e ffcf a13d
000003e0: 2886 c2be ca47 793e 9ee8 18be 0bae 68bd
000003f0: 92a8 bebe 6757 df3d 6c1f 3e3d 8b70 993d

network.2.bias f4 [128]
-0.092005335 0.7991623 -0.054589618 -0.06343573 7.3806257 -0.15221895 7.4816127 4.7682524
-0.10952763 -0.056855146 -0.06893229 -0.11272884 -0.031042691 -0.07211718 0.043687582 3.260685
-0.101830825 6.3651366 0.7108098 7.540563 5.7052674 -0.039663624 3.8496778 -0.08319661
8.900375 -0.054780606 8.29479 -0.062124815 -0.14903024 6.3561835 8.366175 8.6205225
0.009973371 7.087973 0.029156873 7.169003 4.5559607 8.938556 7.5219193 -0.11102456
0.023598216 -0.12678508 0.011854239 -0.0053718365 -0.06535687 -0.08004999 8.813334 -0.086763375
-0.033478778 6.1632943 7.3424325 0.37156278 9.4401045 -0.013392095 7.4314175 8.675297
-0.05605773 -0.09988674 2.5693831 7.453634 9.683304 7.1759095 -0.017256375 -0.03462717
-0.07597072 -0.04657834 7.8463373 -0.19916515 8.759555 0.010915892 8.756836 9.126382
-0.011184892 -0.14665903 7.854921 7.0926175 8.010104 -0.051084787 -0.2888814 -0.7638532
-0.056848403 -0.12068065 -0.1362868 1.229143 7.5095625 -0.09298792 9.041022 -0.037385534
-0.014408679 0.009665063 9.046717 7.018238 0.0076944013 -0.15628938 -0.08866854 0.057022963
8.4512415 8.041786 -0.09120975 -0.08632098 -0.32684845 -0.16353302 8.340173 0.019750074
-0.13655499 2.4260676 -0.016242342 -0.0101340655 -0.099692576 7.746956 0.025205344 -0.17772205
1.784881 -0.20894998 -0.13876943 -5.966044 0.015069843 8.0547905 0.011903851 -0.10581841
-0.08491686 -0.054915152 -0.08530539 -0.07146343 -0.02166243 7.819758 -0.09501216 7.0968375
00000000: 4b6d bcbd e795 4c3f 5d99 5fbd 98ea 81bd
00000010: 162e ec40 49df 1bbe 5f69 ef40 8695 9840
00000020: 0650 e0bd f1e0 68bd 5f2c 8dbd 61de e6bd
00000030: 3e4d febc 2cb2 93bd c0f1 323d 10af 5040
00000040: ae8c d0bd 33af cb40 a2f7 353f 4b4c f140
00000050: 8d91 b640 5376 22bd 1f61 7640 fc62 aabd
00000060: f067 0e41 a161 60bd 76b7 0441 9776 7ebd
00000070: 629b 18be db65 cb40 dadb 0541 a9ed 0941
00000080: 5a67 233c add0 e240 65da ee3c 7968 e540
00000090: 6eca 9140 5304 0f41 90b3 f040 d860 e3bd
000000a0: 0c51 c13c f3d3 01be 4838 423c 3b06 b0bb
000000b0: d3d9 85bd 40f1 a3bd 6b03 0d41 ffb0 b1bd
000000c0: 0b21 09bd b539 c540 35f5 ea40 7a3d be3e
000000d0: ab0a 1741 856a 5bbc 2cce ed40 04ce 0a41
000000e0: ca9c 65bd 6b91 ccbd c670 2440 2b84 ee40
000000f0: d0ee 1a41 0da1 e540 3e5d 8dbc 38d5 0dbd
00000100: 8996 9bbd eec8 3ebd 3215 fb40 f3f1 4bbe
00000110: 2327 0c41 92d8 323c 001c 0c41 a905 1241
00000120: d640 37bc c92d 16be 835b fb40 b9f6 e240
00000130: 6329 0041 483e 51bd 43e8 93be e28b 43bf
00000140: dfd9 68bd 6b27 f7bd c48e 0bbe 8f54 9d3f
00000150: 564e f040 7370 bebd 07a8 1041 9321 19bd
00000160: 6112 6cbc 365a 1e3c 5abf 1041 6895 e040
00000170: 5121 fc3b 530a 20be da97 b5bd e990 693d
00000180: 4938 0741 28ab 0041 2dcc babd 0ec9 b0bd
00000190: ae58 a7be 3375 27be 5971 0541 e8ca a13c
000001a0: 12d5 0bbe b144 1b40 a90e 85bc 5a09 26bc
000001b0: 9f2b ccbd 10e7 f740 707b ce3c c5fc 35be
000001c0: fb76 e43f fcf6 55be 9319 0ebe d5e9 bec0
000001d0: 81e7 763c 6ce0 0041 5f08 433c 53b7 d8bd
000001e0: e4e8 adbd b6ee 60bd 98b4 aebd 6b5b 92bd
000001f0: 6975 b1bc 753b fa40 bc95 c2bd 4b19 e340

network.4.weight f4 [12, 128]
0.00080103154 0.579032 -0.032066848 -0.011205211 0.7290522 0.031776443 1.318759 0.7418171
0.027429827 0.07616653 -0.03480394 -0.08127419 -0.08604792 -0.077047735 -0.08563849 0.5354565
-0.013607912 1.065118 0.33042353 1.0253487 1.7618276 0.06827411 1.240684 0.029380716
0.79608893 -0.043803915 0.8751023 0.017758492 0.08289376 1.2590913 1.095275 1.0426203
-0.095121734 1.8448392 0.0012131508 1.6496141 0.5981378 0.95301366 1.1846116 -0.009527543
-0.014591396 0.009504227 0.028884726 0.0002346074 0.024388822 0.054180134 0.4880421 0.032302592
-0.010131084 2.1578116 1.4494414 0.10186625 0.8736891 0.1134638 1.3174182 0.6873144
-0.031683862 -0.03705793 0.7497027 1.3434578 0.6196658 1.3917412 -0.073870115 -0.017929683
-0.0023671528 0.05289212 0.8760468 -0.012552573 0.8088031 0.0031518969 0.987656 1.7987634
-0.03236483 0.030126298 0.7502144 1.2526999 1.1096448 0.057156086 0.026033103 -0.012479674
0.0013435482 0.37422538 0.004902059 0.41331592 1.0231658 -0.0115389805 0.47730088 0.081634946
-0.057124145 0.045980237 1.1335572 1.255518 -0.0019175283 -0.0069093322 0.13003027 -0.05425139
1.0567743 1.614465 -0.0040080124 0.00021095574 0.027496036 0.02287299 1.052635 0.008550539
0.069785476 1.2579458 0.06903008 0.003866232 0.13138875 1.4178263 -0.030235007 -0.02658841
0.6776662 0.56078917 0.043662984 -0.52614486 -0.045592703 1.3053365 0.038640436 0.035445653
-0.004173141 -0.015165362 -0.008662715 -0.027827336 0.04972104 1.0396376 0.027328528 1.1955531
-0.057305038 0.5148209 0.0033456644 -0.08273147 1.2359815 -0.032597024 1.3648244 0.70955503
-0.04574544 0.046978585 0.10685937 0.053783882 0.012171483 0.11384335 0.08715444 0.5620012
0.0025073066 1.0230142 -0.018911483 1.271523 2.1613126 -0.06369871 1.4794282 0.083943285
0.73931766 -0.043788616 0.9246642 -0.009477457 -0.079413846 1.326611 1.1035428 1.2175462
0.04007954 2.0011864 0.08180358 1.5373801 0.62968326 0.96755075 1.1600503 -0.072259925
-0.026934069 0.06949457 -0.09400746 -0.055364873 0.11051898 -0.021659931 0.48790988 -0.019081715
-0.0583923 2.536628 1.2240384 0.09604267 0.82111573 0.08931099 1.5417478 0.695321
0.010325688 -0.046117093 0.7639776 1.3420981 0.6341742 1.1769751 -0.018242523 0.042544674
-0.0018747827 -0.0045353305 0.8136682 0.023029247 0.70648795 -0.07496117 0.8836838 1.5116711
-0.07458108 0.054911885 1.3216554 1.4672257 1.2322028 0.08781113 0.07732537 0.43152243
0.03702436 -0.17864212 -0.024355808 0.4455803 1.2379034 -0.046077292 0.5436685 -0.018522242
-0.013678858 -0.02121806 1.6478921 1.5542692 0.047225345 0.09069666 0.03331738 -0.08514929
0.8584104 1.2916162 -0.051540155 0.06492872 -0.0003237179 -0.073746465 1.1077092 0.0607396
0.09085586 0.9656831 0.03772155 0.05130913 0.02019878 1.3761088 0.003732128 -0.0015858412
0.99432516 -0.11296522 -0.018272089 -0.53793365 0.04555048 1.1730775 0.06524019 -0.018893862
0.06888708 -0.059809014 -0.004716677 -0.10218878 -0.021516459 1.0344226 0.024063166 1.4553671
00000000: 51fc 513a 713b 143f 8758 03bd 1096 37bc
00000010: 2aa3 3a3f 0428 023d 18cd a83f bae7 3d3f
00000020: 84b4 e03c 33fd 9b3d 948e 0ebd 1573 a6bd
00000030: e439 b0bd 34cb 9dbd 3c63 afbd ad13 093f
00000040: b8f3 5ebc c955 883f 462d a93e a03e 833f
00000050: 9183 e13f 4cd3 8b3d bcce 9e3f d4af f03c
00000060: 7ccc 4b3f bc6b 33bd b406 603f 427a 913c
00000070: 34c4 a93d e729 a13f f931 8c3f 9574 853f
00000080: 2fcf c2bd b123 ec3f 9602 9f3a 8e26 d33f
00000090: 8f1f 193f b4f8 733f 5aa1 973f 6919 1cbc
000000a0: c010 6fbc 9eb7 1b3c a99f ec3c f200 7639
000000b0: 11cb c73c fdeb 5d3d a7e0 f93e b94f 043d
000000c0: d9fc 25bc 9619 0a40 4c87 b93f 419f d03d
000000d0: 17aa 5f3f b55f e83d 29a1 a83f d6f3 2f3f
000000e0: f0c6 01bd 0eca 17bd 84ec 3f3f 6df6 ab3f
000000f0: 6ba2 1e3f 9324 b23f 3749 97bd 45e1 92bc
00000100: 3c22 1bbb 68a5 583d 9a44 603f 4fa9 4dbc
00000110: b80d 4f3f 0e90 4e3b 06d7 7c3f e13d e63f
00000120: fc90 04bd 6dcb f63c 0d0e 403f 7858 a03f
00000130: d708 8e3f 801c 6a3d 6043 d53c 8c77 4cbc
00000140: ff19 b03a 789a bf3e 74a1 a03b 259e d33e
00000150: 19f7 823f fe0d 3dbc c860 f43e 3930 a73d
00000160: 02fb 69bd c655 3c3d 6718 913f d0b4 a03f
00000170: 9355 fbba ae67 e2bb a826 053e b536 5ebd
00000180: 6144 873f caa6 ce3f a555 83bb 0034 5d39
00000190: 5e3f e13c 2360 bb3c bebc 863f 8f17 0c3c
000001a0: b0eb 8e3d 5e04 a13f a55f 8d3d 9c60 7d3b
000001b0: c68a 063e 557b b53f 68af f7bc f0cf d9bc
000001c0: 887b 2d3f e18f 0f3f f5d7 323d 6eb1 06bf
000001d0: 6abf 3abd 4415 a73f 6f45 1e3d 762f 113d
000001e0: d8be 88bb 2378 78bc 0fee 0dbc 27f6 e3bc
000001f0: 4aa8 4b3d d812 853f 14e0 df3c e207 993f
00000200: b0b8 6abd 4dcb 033f ef42 5b3b 1e6f a9bd
00000210: a434 9e3f 7584 05bd 91b2 ae3f 66a5 353f
00000220: 925f 3bbd 9e6c 403d 16d9 da3d 7d4c 5c3d
00000230: e66a 473c b426 e93d 077e b23d 50df 0f3f
00000240: a051 243b 21f2 823f 41ec 9abc 44c1 a23f
00000250: f252 0a40 7874 82bd e75d bd3f 75ea ab3d
00000260: ec43 3d3f b15b 33bd cbb6 6c3f 5647 1bbc
00000270: baa3 a2bd 64ce a93f e440 8d3f 8ed8 9b3f
00000280: 722a 243d 7013 0040 a388 a73d dfc8 c43f
00000290: ec32 213f 68b1 773f 877c 943f 03fd 93bd
000002a0: d6a4 dcbc 2b53 8e3d fc86 c0bd 47c6 62bd
000002b0: c657 e23d 2b70 b1bc 53cf f93e 4251 9cbc
000002c0: c42c 6fbd 1d58 2240 4aad 9c3f 05b2 c43d
000002d0: a434 523f aee8 b63d fe57 c53f 8f00 323f
000002e0: 132d 293c 47e5 3cbd 0994 433f dfc9 ab3f
000002f0: 3e59 223f 1fa7 963f 5871 95bc 5343 2e3d
00000300: 45bb f5ba 1c9d 94bb 8f4c 503f d5a7 bc3c
00000310: 65dc 343f 3e85 99bd 1a39 623f 707e c13f
00000320: f7bd 98bd 49eb 603d 012c a93f 0dce bb3f
00000330: d2b8 9d3f 52d6 b33d c35c 9e3d 82f0 dc3e
00000340: dba6 173d f6ed 36be d585 c7bc 1a23 e43e
00000350: 9e73 9e3f 8bbb 3cbd dc2d 0b3f f5bb 97bc
00000360: 4a1d 60bc 7fd1 adbc 21ee d23f 4bf2 c63f
00000370: 5d6f 413d 2cbf b93d ce77 083d c062 aebd
00000380: c9c0 5b3f ae53 a53f c51b 53bd 59f9 843d
00000390: aeb8 a9b9 6308 97bd 6ac9 8d3f 16ca 783d
000003a0: a312 ba3d 0237 773f e981 1a3d 8629 523d
000003b0: e977 a53c 5524 b03f b896 743b 00dc cfba
000003c0: 188c 7e3f 4f5a e7bd 59af 95bc 05b6 09bf
000003d0: 2493 3a3d 6727 963f a69c 853d 4dc7 9abc
000003e0: ab14 8d3d 4cfa 74bd 5b8e 9abb 5a48 d1bd
000003f0: 4943 b0bc f667 843f 1e20 c53c 7849 ba3f
