ml_saves/model_episode_300.pth (torch, 575376 bytes, 24 tensors)

network.0.weight f4 [128, 134]
00000000: 4af5 b6bc 85a9 a8ba 517e 4dbd 9b75 8cbd
00000010: 4d2b 88bd 51ad 65bd 3c10 333d 6cc0 e0bc
00000020: 6f6a 5ebd 940d a9bc 0458 00bd 4054 5a3c
00000030: 8c07 713d 5e88 a83d 78e7 d1bc 5cfb 82bc
00000040: f2a5 64bd 2c52 943d c220 8bbd 963b ab3d
00000050: d2c1 1c3d 70dd 983b 841f 293d 882a abbc
00000060: 2831 463c 6840 57bd 0414 043d 8af2 a33d
00000070: f942 a2bd 8cd4 483d 60d6 da3b a0ee 013d
00000080: 304d d53c 6e5a 953d 5858 713d 5044 85bd
00000090: 0037 e83b 0ae3 e8bc 8c13 8fbc 8084 d73a
000000a0: 1373 6dbd 606f 50bb 34a8 53bd e45a 203d
000000b0: d021 abbb 793e 95bd 50e8 b43b 1f0f a3bd
000000c0: 04f2 843d c6f6 8c3d 7bc6 a2bd dcef 8abd
000000d0: 90bc a43b 38a0 6dbc 58ed 7abd 381e 05bd
000000e0: de32 82bd 68fd 72bc 13dc 9dbd 3dd3 23bd
000000f0: b9cf 24bd 3bab 09bd 34be 8c3d 7474 5ebd
00000100: ee1f 30bd 64cb 6f3d b00c a2bb 92a8 0dbd
00000110: f895 1fbd dcc8 aabc 2091 063b 2f3d 81bd
00000120: a070 c6bb 38e1 1c3d c05f 113c a8e2 a53d
00000130: 6cb3 113d 039d 98bd 38ad 203d eca4 e23c
00000140: 6f37 71bd dc18 92bd 1871 66bc c0dd 99bd
00000150: b879 f2bc e258 65bd cca0 3d3d 0008 1f3b
00000160: 2cb9 83bc 9079 1f3d 707f 563d f347 aebd
00000170: b87d 553c bd50 8dbd c815 4cbd 8a12 a53d
00000180: d05e a13d b2c1 84bd d0b4 89bc c0e2 47bb
00000190: 2f38 83bd 268d 68bd a00d 803d 6cbc 703d
000001a0: fc01 4c3d e832 9bbd 542e b3bc d6ae a1bd
000001b0: c868 8cbc 78f9 acbd 2483 b2bc 9c00 21bd
000001c0: 9e74 963d f01c e73b 20fa 833c f06c 08bc
000001d0: 1858 13bd 4c92 3cbd 0da2 90bd 4020 39bc
000001e0: 1c88 bb3c 080d 783c badf 993d 9c23 503d
000001f0: ccab 083d f06b af3b ecef 87bc b4de a0bd
00000200: 7cf6 823d f0e0 b9bc 9018 7c3d 3c96 233d
00000210: 2e73 8a3d f0d6 853b 8dc6 c6bc 1717 a1bc
00000220: 70f8 d7bb 8c11 ab3d 26c1 103d 307c 8abc
00000230: 0bc1 81bd 60cd dfbc 6279 9dbd a0f1 063d
00000240: a02b 2cbd 2029 9c3c 0013 8f3d e02f 3f3d
00000250: 24af a13d f6fb 83bd 54b4 8ebd 8857 743d
00000260: d242 81bd 907f 29bc beb6 c8bc 22a0 123d
00000270: 8442 aebc 6690 71bd 48f7 16bc 3887 803d
00000280: 9877 3f3c b0a3 853d 910f 2abd 841d a83c
00000290: c046 40bd 8e83 9abd 23df 83bd dcb8 3bbd
000002a0: c86f 533d 7147 98bd 3c37 193d f4b2 e43c
000002b0: 9f18 9ebd d4c0 813c 8a01 2bbd 28f2 65bd
000002c0: 3841 6e3d fa74 833d 3869 a9bd 4a49 e8bc
000002d0: a813 bd3c 0036 073b 9d33 82bd 8428 833d
000002e0: f875 283d 1cc4 643d fc44 e1bc 943d a43c
000002f0: ebed 85bd ec4d 643d b2f3 033d 0407 753d
00000300: cc21 b83c a828 fcbc 0c06 483d 485e 32bd
00000310: aa73 adbd d6b8 cdbc 383c 513d 1690 863d
00000320: d06c 2abd 7e75 81bd 6cd4 533d 8491 91bd
00000330: 184e 2a3c 8551 68bd 8455 c5bc 0ca9 633d
00000340: 9047 17bc e8d1 2fbc fc3e 24bd d82b 93bd
00000350: b472 a43d 9883 b0bc f80c 6f3d 6019 5cbd
00000360: 40fc 8a3d c029 363d f0ff b6bc c6a5 01bd
00000370: 7db7 a5bd 8ef9 57bd 9136 94bd 106b c03b
00000380: a04e 0a3b 81ff 41bd 0c25 3abd 7af1 90bd
00000390: 00ba b439 3887 a13d 3e88 edbc 2aa7 41bd
000003a0: 2890 45bc 14da 383d 9840 3abd 90f8 65bc
000003b0: 18d6 7e3d ec75 963c 2078 613d 5e39 a33d
000003c0: 6651 81bd 76ad 94bd 441f 253d c0d4 af3a
000003d0: 1837 873d 702b 65bc 4888 9cbc c1e6 32bd
000003e0: f59f 06bd 78db d2bc 187d 9e3c 40e9 a73c
000003f0: 207b 8e3d ddc1 abbd a032 53bb 40d2 f33a
-0.02233376 -0.0012867904 -0.050169293 -0.06858369 -0.06648884 -0.05607349 0.043716654 -0.027435504
-0.05430072 -0.020636357 -0.03133394 0.013325751 0.058845088 0.08229135 -0.025623068 -0.015988998
-0.05582232 0.072422355 -0.067933574 0.083609745 0.03827078 0.0046650693 0.04128982 -0.020894304
0.012096681 -0.052551657 0.03224565 0.08005245 -0.0792293 0.049030825 0.0066783875 0.03172171
0.026037782 0.07292639 0.05892214 -0.0650717 0.0070866346 -0.028428573 -0.017465375 0.0016442686
-0.05797107 -0.0031804666 -0.051674083 0.03914918 -0.0052225366 -0.07287306 0.005520858 -0.079618685
0.06491473 0.06883006 -0.079480134 -0.06784031 0.005027361 -0.014503531 -0.061261505 -0.032499522
-0.063573584 -0.014830925 -0.077079915 -0.039996374 -0.040237162 -0.033610564 0.06872216 -0.054310277
-0.0429992 0.058543578 -0.00494536 -0.03458459 -0.03896138 -0.02084773 0.0020533279 -0.06310498
-0.0060559064 0.038300723 0.008872926 0.08099872 0.0355715 -0.074518226 0.039227694 0.027666532
-0.058890756 -0.07133648 -0.01406505 -0.075129986 -0.029599056 -0.05599297 0.046295926 0.0024266243
-0.016079508 0.03893429 0.052367628 -0.08509817 0.013030462 -0.06900165 -0.04982546 0.08060177
0.07879412 -0.06482257 -0.01680985 -0.0030500144 -0.064072005 -0.056775235 0.06252599 0.058773443
0.04980658 -0.07578069 -0.021872677 -0.078946754 -0.017139807 -0.0844602 -0.021791048 -0.03930722
0.07346462 0.00705301 0.01611048 -0.008326754 -0.035972685 -0.046037957 -0.07062159 -0.011299193
0.02289205 0.015139826 0.075133756 0.05081521 0.033366963 0.0053534433 -0.016593896 -0.07854977
0.063946694 -0.022690266 0.061546862 0.039938197 0.0676025 0.0040844604 -0.024264598 -0.01966433
-0.0065908954 0.08352956 0.03534045 -0.01690492 -0.06335648 -0.02731961 -0.076891676 0.032945275
-0.04203379 0.019062579 0.06986046 0.046676517 0.078947335 -0.06444542 -0.069679886 0.05965379
-0.06311573 -0.010345355 -0.0245012 0.035797246 -0.021271951 -0.0589756 -0.00921423 0.06275791
0.011686228 0.065253615 -0.04151875 0.020521887 -0.046942472 -0.07544623 -0.06439044 -0.045830593
0.051620275 -0.07435501 0.03740619 0.027917363 -0.0771954 0.015839018 -0.041749515 -0.05613914
0.058167666 0.06418796 -0.08272022 -0.02835526 0.023080662 0.0020631552 -0.06357501 0.06404212
0.04112813 0.055851087 -0.027498715 0.020048894 -0.0653952 0.055738375 0.032214828 0.059821144
0.022477053 -0.030781105 0.04883389 -0.043546945 -0.08469327 -0.02511255 0.05108282 0.06570451
-0.041607678 -0.06321238 0.051716253 -0.07107833 0.010394596 -0.056718368 -0.024088629 0.055581138
-0.00923337 -0.010731198 -0.04009913 -0.07186097 0.080296904 -0.021547124 0.058361977 -0.053735137
0.06786394 0.04447341 -0.022338837 -0.031652234 -0.08091638 -0.05272823 -0.0723697 0.005872138
0.0021103993 -0.04736281 -0.045445487 -0.07077308 0.00034470856 0.07887119 -0.02899563 -0.04727856
-0.012058295 0.04512985 -0.045471758 -0.014036313 0.062215894 0.018366776 0.0550462 0.07969926
-0.06314354 -0.072596475 0.04031302 0.0013414845 0.06602305 -0.013987407 -0.019107953 -0.043677095
-0.03286739 -0.025739416 0.019346759 0.020496964 0.06957078 -0.08386586 -0.003222622 0.0018602088

network.0.bias f4 [128]
00000000: 5870 523f 3d51 193f 288d 3abb 9232 193f
00000010: 762b 1a3f 035f b6bd 3a04 30bf dcb0 6ebc
00000020: 42f8 423f 7410 8e40 a9f8 6d40 d918 41bd
00000030: 2f81 d23f df4c 203b 879b e4bd fc54 903d
00000040: 81bb c5bd b467 123f b4c9 193f 7791 f140
00000050: 4fb4 d03c 1d20 0641 f243 3440 1d71 a03f
00000060: 6c5c a8bd 459d 61bd 7095 7b40 0910 a23c
00000070: 1297 053d 506e 8f3c 8700 1241 81b2 c3bd
00000080: d904 3dbd f25d ffbb f3f3 c040 3f2c 9bc0
00000090: 8110 153d cf15 b4ba 5511 e0bd 4c72 cdbc
000000a0: 4ed1 8640 8841 9c3c af83 9dc0 7c8b 28c0
000000b0: 2e97 a540 9298 c5bd 9c31 ef3f c87e bdbd
000000c0: 9078 f3bd 5366 bfbe 1717 5cbc 3b53 84bc
000000d0: d0a9 633f 14dc 203c a519 5d3f 2ed7 80bd
000000e0: bfe5 8b40 3c6e 833f 2db1 3f3c e444 ddbf
000000f0: acc6 83bd a878 4640 db6c c3bd eaaf 86bc
00000100: 4986 0e41 9a87 cd40 1090 c33f a1ce be40
00000110: d334 04c0 16f9 81bd 3851 f7bc 5161 97bd
00000120: 057d 543f 3c93 cf3b f6af a7bd c764 ef3f
00000130: 5350 b940 7043 883f fc34 05bf f1bb 9f3c
00000140: 9045 bc3b 195d 16be 9191 6d3c b291 9bbd
00000150: 2c23 48bd 7e73 aabd d929 f93c 9575 b6bd
00000160: 17e9 c740 936d ff3c f0a7 7fbd 683b 3840
00000170: d037 c13f 51a3 75be 6f07 5f3d 57ea 09bd
00000180: ab71 bac0 1b52 f5bc 9446 303c a99f 923c
00000190: ac32 d23c ba7f 7f40 c08d a3bd c3f3 b2bd
000001a0: 4292 873c d117 a540 e820 cf3c 917e 69bd
000001b0: efd2 3740 4f5e 74bd c8e0 9a40 0154 ca40
000001c0: 8d79 153f a56c d940 0884 313d 285e 7ebd
000001d0: 429c 87bd 988c c1bc e70e f140 1f56 17bd
000001e0: e511 fbbf cd02 0741 5143 0541 4e9a 4fbd
000001f0: a1c3 f640 6df3 47bd fdfc 8cbd 6884 e3bd
0.8220267 0.59889585 -0.0028465483 0.5984279 0.60222566 -0.08904841 -0.6875645 -0.014568534
0.7616006 4.4395084 3.718302 -0.047142837 1.6445674 0.0024459881 -0.11162477 0.070474595
-0.09654904 0.5718949 0.600734 7.549007 0.025476603 8.38284 2.816647 1.253452
-0.08220753 -0.055081625 3.930996 0.019783037 0.032614775 0.017508656 9.125129 -0.09555531
-0.0461472 -0.0077931816 6.029779 -4.849151 0.036392692 -0.001373941 -0.10940806 -0.025078915
4.21305 0.019074216 -4.9223247 -2.6335135 5.1747046 -0.09648241 1.8687015 -0.09252697
-0.1188823 -0.37382755 -0.013433239 -0.016152969 0.8893099 0.009818096 0.86367255 -0.06291042
4.371795 1.0268016 0.011699957 -1.7286649 -0.06434378 3.1011143 -0.09542247 -0.016441304
8.907784 6.422803 1.5278339 5.9627233 -2.0657241 -0.063463375 -0.030190095 -0.073916085
0.83003265 0.0063346904 -0.08187859 1.870263 5.791055 1.064558 -0.5203397 0.019498797
0.005745597 -0.14683951 0.014500038 -0.075961486 -0.048861668 -0.0832281 0.030415462 -0.08909146
6.2472034 0.031180179 -0.062416017 2.8786259 1.5095158 -0.23988082 0.05445045 -0.03367075
-5.8263755 -0.029946378 0.010759015 0.017898398 0.025658928 3.9921708 -0.07986021 -0.087379
0.016549233 5.1591573 0.025284246 -0.05700547 2.8722494 -0.059660252 4.839939 6.3227544
0.58388597 6.7945123 0.043338805 -0.062101513 -0.06621601 -0.02362661 7.533069 -0.036947366
-1.9614836 8.438184 8.328935 -0.050684266 7.7113805 -0.048816133 -0.06884191 -0.11109239

network.2.weight f4 [128, 128]
00000000: b79d 093d 9187 7e3d 5e9a f1bc 2608 693d
00000010: a228 c1bd f463 483d f37b bebc c5b1 9bbd
00000020: 4934 443d 4b21 403d 045a 8cbd 68b7 5bbd
00000030: c400 193d 7d62 a4bd b604 30bd c6f3 233d
00000040: 4033 fcba 30cf 8ebd f460 0abd cc27 d33b
00000050: 518a 07bd c7a6 9b3b 9ba2 16bd 96f2 03bc
00000060: b2b9 45bd c9d8 873d 29ef a4bd a29e 03bd
00000070: c2ef 443d 183a 493c cbbe 24be dddf 4c3d
00000080: 307e fa3b 4328 71bb d0d2 1bbe 6102 d2bd
00000090: 42e3 403d dd82 9c3d 98ca 42bd e7e4 a13d
000000a0: b47e 9c3c c8d2 a83c 3a53 dcbd af18 57bd
000000b0: 9d42 01be 1580 9cbd d7aa a6bd 94de 9abd
000000c0: 40a6 8a3d 38ae a13d 2c05 99bd 9013 6ebc
000000d0: 43e9 5dbc 208a 463d 666e 85bd 6c07 ecbc
000000e0: ed54 ba3c c5f2 683d 3369 8cbd e699 273c
000000f0: 428d 4b3c 474c f3bc 7206 98bd 24cf f4bc
00000100: f6e5 86bd 9959 80bd c2f2 293d 22a9 8dbd
00000110: 9c52 8cbc 884c 223c a713 96bd 64b7 b1bc
00000120: 78ab 503d 483f 723c 6f1b 833d f62f 23bd
00000130: 7447 0b3d 88fb 1ebd 6cdf 82bd 229b 283d
00000140: 20c2 3bbd 584c 0a3d 915e 803d 9031 41bc
00000150: c0ea 67bb 4074 263b 8b62 a4bd b6d2 403d
00000160: 3b86 8e3b 4452 86bd 46db 723d e8d1 b0bd
00000170: 0bfc 3b3c 4c0d 53bd 381d ed3b ab46 3dbd
00000180: ad09 90bc 4dac 34bd b7a0 91bd 91dc 7d3d
00000190: 679b 873d 630d 0c3c d00b 67bd 1284 8cbd
000001a0: 0e31 1f3d 36d6 5cbd e122 40bd 622e 203d
000001b0: 7749 253d 54e6 a33c a6d5 f73c 152a 28bd
000001c0: c8f0 403d d1f2 dcbd 6021 04bc 60cf 51bc
000001d0: 143f 40bb d8f0 153c 2353 83bc c1d4 c13a
000001e0: eca8 0f3d 6122 243d b931 5fbd 05f5 80bd
000001f0: bd4f 38bd 638a 9fbd be08 313d 5774 a1bd
00000200: 6028 a3bd f5b0 d73c 15b6 9e3d 57c2 d33b
00000210: 725f 263a 5abb 733d f478 febe 107e bf3c
00000220: 7a9b cbbd 3381 1a3f 070d 143f 6a95 6c3d
00000230: f24b 9abd 721f aebd 88f4 363c d4b3 96bd
00000240: f7ef 3bbd f4bb 0b3d 2c59 1e3c 4b7d 043c
00000250: 1073 da3c 6345 aa3d 2166 0c3f e841 c0bd
00000260: 402e db3c 99c5 8e3d a5e1 903f f87a 1e3c
00000270: 2e94 2f3d a03b aabb 7d2f e53b 7342 61bd
00000280: 00b6 fb3a 587c efbc b578 0f3d e7ac d7be
00000290: b842 c0bc 5312 a4bb 2848 1f3c 7013 91bb
000002a0: d822 a33e 2c28 0d3d 92a6 7b3d dfa2 adbf
000002b0: 51ab 313f 51d3 5cbd 132c 053f 5a3a ba3b
000002c0: 5014 f63c 3488 83bc 0ed2 7c3d 0052 203a
000002d0: 10b3 2cbd a062 7b3c d623 d1bd c0b1 fdba
000002e0: b48a 94bd 4512 26bf 3b24 8c3d c609 0abf
000002f0: c5ed 9abd 977d b53f fa86 333d 39e9 b13d
00000300: 8a1b 6b3c 3a6d c63b db6c e23b f226 7f3e
00000310: a60e 17bf cce7 e83c 7dc9 873d 0f68 9e3d
00000320: 2545 babd 7227 0a3d ddd0 913d b665 e73d
00000330: dc87 d23d 635e 6dbd e654 08be 6de1 fa3c
00000340: 8044 36bb d7a6 7f3e f519 833d 2d6c a73d
00000350: 177b b3bd c06b 5abd 0b99 9cbd a0fd 6f3c
00000360: f773 4c3d 40c1 90bd 3a65 703d 6f15 ba3f
00000370: 9b90 3dbd ec54 b1be 5ad3 483d 8698 923b
00000380: dd5f 69be da93 37bd c02e 72bb ec38 da3c
00000390: 7022 363c 5f6b b03e e5cf a6bd d186 9a3d
000003a0: dc65 d5bd 3b6b dcbe 91af c73d c001 36bd
000003b0: 45ae fd3e 84a4 b1bc 6e8c bdbe 1862 91bd
000003c0: 3ceb f7bd 35d0 96bd 7079 afbb 42de 5abd
000003d0: c736 a53d 1059 3bbc 7fc2 843e ffcf a13d
000003e0: f32f f7be 82cd e63e 265d 773d 0bae 68bd
000003f0: 0841 1ebe 6757 df3d 6c1f 3e3d 8b70 993d
0.033597674 0.062141005 -0.029492553 0.056892537 -0.09431578 0.048923448 -0.023252463 -0.07602266
0.047901426 0.04690675 -0.068531066 -0.053641707 0.037354246 -0.08026598 -0.042973243 0.040027402
-0.0019241348 -0.06973112 -0.033783868 0.006443953 -0.033090893 0.004750106 -0.036776166 -0.008053442
-0.048272796 0.06633145 -0.08053429 -0.032133706 0.048080213 0.012281917 -0.16088407 0.05001818
0.0076444373 -0.003679768 -0.15217137 -0.1025436 0.04709173 0.07642148 -0.04755649 0.07904988
0.019103386 0.02060832 -0.10758062 -0.052513774 -0.12623067 -0.07641617 -0.08138054 -0.07561985
0.06769991 0.07894558 -0.074716896 -0.014531031 -0.013544383 0.04847157 -0.065151975 -0.028812133
0.022745574 0.056872148 -0.06856003 0.010229563 0.012423815 -0.029699458 -0.07423104 -0.029883929
-0.0658683 -0.062670894 0.041491278 -0.06917025 -0.017129235 0.009905942 -0.07327967 -0.021693893
0.050944775 0.014785595 0.06401717 -0.03984066 0.03400369 -0.038814098 -0.063902706 0.04116357
-0.04583943 0.033764213 0.06268037 -0.011791602 -0.0035387725 0.002539888 -0.08026608 0.04707595
0.0043494976 -0.0655866 0.059291147 -0.086337864 0.011473666 -0.051526353 0.007236149 -0.046209972
-0.017582739 -0.04410963 -0.07110732 0.061977927 0.066214375 0.0085481135 -0.05640775 -0.06861128
0.03886514 -0.053915225 -0.046908263 0.039106734 0.040353265 0.02000729 0.030253243 -0.041055758
0.047104627 -0.10788501 -0.008064598 -0.01280579 -0.0029334472 0.00915166 -0.016030854 0.0014788137
0.035073206 0.04007185 -0.05449078 -0.06296734 -0.04499792 -0.07790067 0.043221228 -0.07883518
-0.07966685 0.026329497 0.07749573 0.006462376 0.000634662 0.059504844 -0.49701655 0.023375541
-0.09941764 0.6035339 0.5783238 0.05775968 -0.07534017 -0.085020915 0.011166699 -0.07358518
-0.045883145 0.034114793 0.009664815 0.008086513 0.026666194 0.08314016 0.54843336 -0.093875706
0.026755452 0.069712825 1.1318861 0.009672873 0.042865925 -0.005195096 0.0069941864 -0.05499501
0.001920402 -0.029234096 0.035027225 -0.42124102 -0.023469314 -0.005007067 0.009721793 -0.004427366
0.3186252 0.03446214 0.06143815 -1.3565329 0.69402033 -0.053912465 0.52020377 0.0056832256
0.030038983 -0.016056158 0.06172376 0.00061157346 -0.042162955 0.015343338 -0.10211913 -0.0019355342
-0.07253018 -0.6487163 0.06842848 -0.53921163 -0.07564882 1.4178952 0.043829896 0.08687062
0.014349828 0.0060555013 0.0069099492 0.249172 -0.59006727 0.028430842 0.06630228 0.07734691
-0.090952195 0.033729024 0.07119916 0.11298697 0.10279819 -0.057951342 -0.13313636 0.03062507
-0.0027811825 0.24965988 0.06401435 0.0817493 -0.08763712 -0.053325415 -0.07646378 0.014647871
0.04991528 -0.070681095 0.058690287 1.4537791 -0.046280485 -0.34635103 0.049029686 0.0044737486
-0.22790475 -0.044818737 -0.0036954135 0.02663847 0.011116609 0.34456918 -0.081451215 0.075452454
-0.10419819 -0.4305056 0.097502835 -0.044435263 0.4954702 -0.021684892 -0.37021202 -0.07098788
-0.12105414 -0.07363931 -0.0053550526 -0.053434618 0.080670886 -0.011434808 0.2592964 0.07901
-0.4827877 0.45078665 0.060391568 -0.056806605 -0.15454495 0.109053425 0.046416685 0.07492169

network.2.bias f4 [128]
00000000: 4b6d bcbd 1c15 373f 5d99 5fbd 6ab9 01bd
00000010: d372 d740 49df 1bbe 76c7 d940 2946 3a40
00000020: 0046 9fbd f1e0 68bd 5f2c 8dbd 61de e6bd
00000030: 3e4d febc 2cb2 93bd c0f1 323d 78b2 4140
00000040: 2642 a5bd faae 7440 87de 313f 7eeb de40
00000050: 2465 a040 5376 22bd d8a4 4140 fc62 aabd
00000060: 0732 0141 a161 60bd 544f e440 9776 7ebd
00000070: 629b 18be 2de3 b140 e5bb f540 0208 f440
00000080: 5a67 233c 3322 cf40 65da ee3c cf76 cf40
00000090: c712 4940 f800 fc40 e8bc e440 0ebf aabd
000000a0: 0c51 c13c f3d3 01be 8727 cd3c 1903 a73c
000000b0: d3d9 85bd 40f1 a3bd 7e0f f740 ffb0 b1bd
000000c0: 0b21 09bd 49f0 ae40 e4c9 cf40 7a3d be3e
000000d0: 7171 f640 6684 963c 602a d640 109d d540
000000e0: ca9c 65bd 6b91 ccbd c670 2440 44f6 dd40
000000f0: 55bb f740 78f8 ce40 3e5d 8dbc 38d5 0dbd
00000100: 8996 9bbd eec8 3ebd 44c7 f340 f3f1 4bbe
00000110: dae6 f840 cad0 2e3d 94f7 f840 00d7 0041
00000120: d640 37bc c92d 16be 5ebc c540 f126 cf40
00000130: 64d2 d340 483e 51bd 43e8 93be 196a 3bbf
00000140: dfd9 68bd 3419 b6bd c48e 0bbe 8f54 9d3f
00000150: 9d3c d940 c4c5 7abd 6bcf fb40 9321 19bd
00000160: 6112 6cbc 365a 1e3c 1f21 ed40 99ef c340
00000170: 5121 fc3b 530a 20be da97 b5bd e990 693d
00000180: cdbe fb40 11e2 ea40 2dcc babd 0ec9 b0bd
00000190: ae58 a7be 63f2 06be 4fae f440 e8ca a13c
000001a0: a04c fdbd c024 df3f a90e 85bc 5a09 26bc
000001b0: 9f2b ccbd b109 d740 707b ce3c c5fc 35be
000001c0: fb76 e43f fcf6 55be 9319 0ebe efd3 bdc0
000001d0: 81e7 763c 4d79 d640 5f08 433c 53b7 d8bd
000001e0: e4e8 adbd b6ee 60bd 98b4 aebd 21ad 26bd
000001f0: 4082 253c 014f ec40 bc95 c2bd 2d0f cf40
-0.092005335 0.71516585 -0.054589618 -0.031670965 6.7327666 -0.15221895 6.8055983 2.9105322
-0.07777023 -0.056855146 -0.06893229 -0.11272884 -0.031042691 -0.07211718 0.043687582 3.0265179
-0.080692574 3.8231797 0.69480175 6.9662466 5.0123463 -0.039663624 3.0256863 -0.08319661
8.074714 -0.054780606 7.1346836 -0.062124815 -0.14903024 5.5589814 7.6791863 7.6259775
0.009973371 6.4729247 0.029156873 6.483253 3.141771 7.8751183 7.14806 -0.08337222
0.023598216 -0.12678508 0.025043262 0.02038722 -0.06535687 -0.08004999 7.720641 -0.086763375
-0.033478778 5.4668317 6.493395 0.37156278 7.701348 0.01837368 6.6926727 6.6754227
-0.05605773 -0.09988674 2.5693831 6.9363117 7.7416177 6.4678307 -0.017256375 -0.03462717
-0.07597072 -0.04657834 7.6180744 -0.19916515 7.77818 0.042679586 7.780222 8.05249
-0.011184892 -0.14665903 6.179244 6.4735036 6.6194324 -0.051084787 -0.2888814 -0.7320877
-0.056848403 -0.08891526 -0.1362868 1.229143 6.788649 -0.06122376 7.8690696 -0.037385534
-0.014408679 0.009665063 7.410293 6.1229978 0.0076944013 -0.15628938 -0.08866854 0.057022963
7.867041 7.340096 -0.09120975 -0.08632098 -0.32684845 -0.131784 7.646278 0.019750074
-0.12368131 1.743309 -0.016242342 -0.0101340655 -0.099692576 6.719933 0.025205344 -0.17772205
1.784881 -0.20894998 -0.13876943 -5.932121 0.015069843 6.702307 0.011903851 -0.10581841
-0.08491686 -0.054915152 -0.08530539 -0.040692452 0.010101855 7.384644 -0.09501216 6.4706025

network.4.weight f4 [12, 128]
00000000: 51fc 513a 9930 4a3f 8758 03bd 1096 37bc
00000010: 5826 1d3f 0428 023d 6efd a83f 1426 0e3f
00000020: 84b4 e03c 33fd 9b3d 948e 0ebd 1573 a6bd
00000030: e439 b0bd 34cb 9dbd 3c63 afbd bce4 203f
00000040: b8f3 5ebc 697c 393f a67e c13e bfcc 823f
00000050: 627b e43f 4cd3 8b3d 6a13 943f d4af f03c
00000060: 750e 373f bc6b 33bd 36d6 683f 427a 913c
00000070: 34c4 a93d 18b9 883f 9075 673f 099d 733f
00000080: 2fcf c2bd c64f f13f 9602 9f3a 5a6c d53f
00000090: f0ca 193f 0bfb 583f d45b 953f c214 1cbd
000000a0: c010 6fbc 9eb7 1b3c b264 573d dc12 033d
000000b0: 11cb c73c fdeb 5d3d be1d 4b3f b94f 043d
000000c0: d9fc 25bc 4b1c 0b40 2bef a33f 419f d03d
000000d0: 624c 393f b55f e83d 71ab a43f a88c 3f3f
000000e0: f0c6 01bd 0eca 17bd 84ec 3f3f 1463 a63f
000000f0: 257f 0f3f e42a 973f 3749 97bd 45e1 92bc
00000100: 3c22 1bbb 68a5 583d c21f 323f 4fa9 4dbc
00000110: ce3c 3c3f 1605 0f3d af8e 5c3f 54c9 d23f
00000120: fc90 04bd 6dcb f63c ae7d c23e 418b a33f
00000130: 620a 893f 801c 6a3d 6043 d53c 8c77 4cbc
00000140: ff19 b03a 789a bf3e 74a1 a03b 259e d33e
00000150: 08a1 8f3f fe0d 3dbc 4a67 2b3f 3930 a73d
00000160: 02fb 69bd c655 3c3d 5cc1 5e3f 9727 8b3f
00000170: 9355 fbba ae67 e2bb a826 053e b536 5ebd
00000180: 4c4f 5d3f 6c3d c93f a555 83bb 0034 5d39
00000190: 5e3f e13c 2360 bb3c 7fa6 673f 8f17 0c3c
000001a0: b0eb 8e3d 2b23 a23f a55f 8d3d 9c60 7d3b
000001b0: c68a 063e a887 a93f 68af f7bc f0cf d9bc
000001c0: 887b 2d3f e18f 0f3f f5d7 323d a046 74be
000001d0: 6abf 3abd 6dad a83f 6f45 1e3d 762f 113d
000001e0: d8be 88bb 2378 78bc 0fee 0dbc 27f6 e3bc
000001f0: 4aa8 4b3d 320f 6d3f 14e0 df3c ec91 9a3f
00000200: b0b8 6abd eb41 ca3e ef42 5b3b 1e6f a9bd
00000210: 4028 523f 7584 05bd f6ec a63f 1de5 b53e
00000220: 925f 3bbd 9e6c 403d 16d9 da3d 7d4c 5c3d
00000230: e66a 473c b426 e93d 077e b23d 8d1f 3d3f
00000240: a051 243b 85ff 193f 7ec9 f8bc 3beb 923f
00000250: 0cf1 0840 7874 82bd f9d9 c33f 75ea ab3d
00000260: 0abb 3b3f b15b 33bd 59ae 573f 5647 1bbc
00000270: baa3 a2bd c45b a93f 0aac 833f 5208 643f
00000280: 722a 243d 9a5a e63f a388 a73d 126f bb3f
00000290: a148 2f3f 341a 713f d5ec 823f 33dd 25bd
000002a0: d6a4 dcbc 2b53 8e3d 5986 a7bd 34f2 abbd
000002b0: c657 e23d 2b70 b1bc b376 4a3f 4251 9cbc
000002c0: c42c 6fbd d5a3 1c40 9aef 8f3f 05b2 c43d
000002d0: ebc1 303f aee8 b63d f2d8 b43f fec5 1e3f
000002e0: 132d 293c 47e5 3cbd 0994 433f e6e9 9b3f
000002f0: afd7 253f 0dde 9a3f 5871 95bc 5343 2e3d
00000300: 45bb f5ba 1c9d 94bb 68e3 4b3f d5a7 bc3c
00000310: d70b 183f 3e85 99bd 82b1 803f 1a01 993f
00000320: f7bd 98bd 49eb 603d 1628 383f d12a c03f
00000330: a846 8d3f 52d6 b33d c35c 9e3d 82f0 dc3e
00000340: dba6 173d f6ed 36be d585 c7bc 1a23 e43e
00000350: 1675 913f 8bbb 3cbd 09dc 5a3f f5bb 97bc
00000360: 4a1d 60bc 7fd1 adbc 45b0 9e3f 781f b63f
00000370: 5d6f 413d 2cbf b93d ce77 083d c062 aebd
00000380: 0b60 4a3f 24b3 963f c51b 53bd 59f9 843d
00000390: aeb8 a9b9 6308 97bd 6aa2 7d3f 16ca 783d
000003a0: a312 ba3d 3f99 6d3f e981 1a3d 8629 523d
000003b0: e977 a53c 63bc aa3f b896 743b 00dc cfba
000003c0: 188c 7e3f 4f5a e7bd 59af 95bc d840 c0be
000003d0: 2493 3a3d 2c58 783f a69c 853d 4dc7 9abc
000003e0: ab14 8d3d 4cfa 74bd 5b8e 9abb eb0b 86bd
000003f0: 4943 b0bc 91fd 783f 1e20 c53c 2937 a53f
0.00080103154 0.78980404 -0.032066848 -0.011205211 0.6138663 0.031776443 1.3202341 0.5552685
0.027429827 0.07616653 -0.03480394 -0.08127419 -0.08604792 -0.077047735 -0.08563849 0.6284902
-0.013607912 0.7245546 0.37791938 1.0218734 1.7850153 0.06827411 1.1568425 0.029380716
0.71506435 -0.043803915 0.9095186 0.017758492 0.08289376 1.0681486 0.9041376 0.9516149
-0.095121734 1.885247 0.0012131508 1.6673691 0.60075283 0.8475806 1.1668649 -0.038105734
-0.014591396 0.009504227 0.052586265 0.032000408 0.024388822 0.054180134 0.7934226 0.032302592
-0.010131084 2.1736019 1.2807363 0.10186625 0.72382176 0.1134638 1.286482 0.74824
-0.031683862 -0.03705793 0.7497027 1.2998986 0.5605338 1.1809964 -0.073870115 -0.017929683
-0.0023671528 0.05289212 0.6957971 -0.012552573 0.7353028 0.03491696 0.8615522 1.646769
-0.03236483 0.030126298 0.3798651 1.2776872 1.0706294 0.057156086 0.026033103 -0.012479674
0.0013435482 0.37422538 0.004902059 0.41331592 1.1221018 -0.0115389805 0.6695448 0.081634946
-0.057124145 0.045980237 0.87013793 1.0871457 -0.0019175283 -0.0069093322 0.13003027 -0.05425139
0.8644912 1.572187 -0.0040080124 0.00021095574 0.027496036 0.02287299 0.9048843 0.008550539
0.069785476 1.2666982 0.06903008 0.003866232 0.13138875 1.3244524 -0.030235007 -0.02658841
0.6776662 0.56078917 0.043662984 -0.23855066 -0.045592703 1.3177925 0.038640436 0.035445653
-0.004173141 -0.015165362 -0.008662715 -0.027827336 0.04972104 0.9260131 0.027328528 1.2075782
-0.057305038 0.39503416 0.0033456644 -0.08273147 0.82092667 -0.032597024 1.3041065 0.35526362
-0.04574544 0.046978585 0.10685937 0.053783882 0.012171483 0.11384335 0.08715444 0.7387627
0.0025073066 0.60155517 -0.030369516 1.1478037 2.1397123 -0.06369871 1.5300895 0.083943285
0.73332274 -0.043788616 0.8425041 -0.009477457 -0.079413846 1.323113 1.0286877 0.89075196
0.04007954 1.7996399 0.08180358 1.4643271 0.684702 0.9418061 1.0228525 -0.040494155
-0.026934069 0.06949457 -0.08179922 -0.08395806 0.11051898 -0.021659931 0.7908737 -0.019081715
-0.0583923 2.4474995 1.1244996 0.09604267 0.69045895 0.08931099 1.4128706 0.6202086
0.010325688 -0.046117093 0.7639776 1.2180755 0.6478223 1.2099015 -0.018242523 0.042544674
-0.0018747827 -0.0045353305 0.7964387 0.023029247 0.59393066 -0.07496117 1.0054171 1.1953461
-0.07458108 0.054911885 0.71936166 1.5013067 1.1037188 0.08781113 0.07732537 0.43152243
0.03702436 -0.17864212 -0.024355808 0.4455803 1.1363857 -0.046077292 0.85491997 -0.018522242
-0.013678858 -0.02121806 1.2397543 1.4228354 0.047225345 0.09069666 0.03331738 -0.08514929
0.790528 1.1773419 -0.051540155 0.06492872 -0.0003237179 -0.073746465 0.9907595 0.0607396
0.09085586 0.9281196 0.03772155 0.05130913 0.02019878 1.3338741 0.003732128 -0.0015858412
0.99432516 -0.11296522 -0.018272089 -0.37549472 0.04555048 0.9700954 0.06524019 -0.018893862
0.06888708 -0.059809014 -0.004716677 -0.06545242 -0.021516459 0.9726191 0.024063166 1.2907459

network.4.bias f4 [12]
00000000: 1acb 3d40 9fd0 6940 7159 5840 8eb4 4140
00000010: 2aa5 8040 2cef bc40 4969 8240 f78d 4040
00000020: 9630 5a40 1ac0 4840 f776 a640 0456 a740
2.9655213 3.6533582 3.380459 3.0266452 4.0201616 5.904196 4.075352 3.0086648
3.4092155 3.136725 5.202022 5.22925

network.0.weight f4 [128, 134]
00000000: 4af5 b6bc 85a9 a8ba 517e 4dbd 9b75 8cbd
00000010: 4d2b 88bd 51ad 65bd 3c10 333d 6cc0 e0bc
00000020: 6f6a 5ebd 940d a9bc 0458 00bd 4054 5a3c
00000030: 8c07 713d 5e88 a83d 78e7 d1bc 5cfb 82bc
00000040: f2a5 64bd 2c52 943d c220 8bbd 963b ab3d
00000050: d2c1 1c3d 70dd 983b 841f 293d 882a abbc
00000060: 2831 463c 6840 57bd 0414 043d 8af2 a33d
00000070: f942 a2bd 8cd4 483d 60d6 da3b a0ee 013d
00000080: 304d d53c 6e5a 953d 5858 713d 5044 85bd
00000090: 0037 e83b 0ae3 e8bc 8c13 8fbc 8084 d73a
000000a0: 1373 6dbd 606f 50bb 34a8 53bd e45a 203d
000000b0: d021 abbb 793e 95bd 50e8 b43b 1f0f a3bd
000000c0: 04f2 843d c6f6 8c3d 7bc6 a2bd dcef 8abd
000000d0: 90bc a43b 38a0 6dbc 58ed 7abd 381e 05bd
000000e0: de32 82bd 68fd 72bc 13dc 9dbd 3dd3 23bd
000000f0: b9cf 24bd 3bab 09bd 34be 8c3d 7474 5ebd
00000100: ee1f 30bd 64cb 6f3d b00c a2bb 92a8 0dbd
00000110: f895 1fbd dcc8 aabc 2091 063b 2f3d 81bd
00000120: a070 c6bb 38e1 1c3d c05f 113c a8e2 a53d
00000130: 6cb3 113d 039d 98bd 38ad 203d eca4 e23c
00000140: 6f37 71bd dc18 92bd 1871 66bc c0dd 99bd
00000150: b879 f2bc e258 65bd cca0 3d3d 0008 1f3b
00000160: 2cb9 83bc 9079 1f3d 707f 563d f347 aebd
00000170: b87d 553c bd50 8dbd c815 4cbd 8a12 a53d
00000180: d05e a13d b2c1 84bd d0b4 89bc c0e2 47bb
00000190: 2f38 83bd 268d 68bd a00d 803d 6cbc 703d
000001a0: fc01 4c3d e832 9bbd 542e b3bc d6ae a1bd
000001b0: c868 8cbc 78f9 acbd 2483 b2bc 9c00 21bd
000001c0: 9e74 963d f01c e73b 20fa 833c f06c 08bc
000001d0: 1858 13bd 4c92 3cbd 0da2 90bd 4020 39bc
000001e0: 1c88 bb3c 080d 783c badf 993d 9c23 503d
000001f0: ccab 083d f06b af3b ecef 87bc b4de a0bd
00000200: 7cf6 823d f0e0 b9bc 9018 7c3d 3c96 233d
00000210: 2e73 8a3d f0d6 853b 8dc6 c6bc 1717 a1bc
00000220: 70f8 d7bb 8c11 ab3d 26c1 103d 307c 8abc
00000230: 0bc1 81bd 60cd dfbc 6279 9dbd a0f1 063d
00000240: a02b 2cbd 2029 9c3c 0013 8f3d e02f 3f3d
00000250: 24af a13d f6fb 83bd 54b4 8ebd 8857 743d
00000260: d242 81bd 907f 29bc beb6 c8bc 22a0 123d
00000270: 8442 aebc 6690 71bd 48f7 16bc 3887 803d
00000280: 9877 3f3c b0a3 853d 910f 2abd 841d a83c
00000290: c046 40bd 8e83 9abd 23df 83bd dcb8 3bbd
000002a0: c86f 533d 7147 98bd 3c37 193d f4b2 e43c
000002b0: 9f18 9ebd d4c0 813c 8a01 2bbd 28f2 65bd
000002c0: 3841 6e3d fa74 833d 3869 a9bd 4a49 e8bc
000002d0: a813 bd3c 0036 073b 9d33 82bd 8428 833d
000002e0: f875 283d 1cc4 643d fc44 e1bc 943d a43c
000002f0: ebed 85bd ec4d 643d b2f3 033d 0407 753d
00000300: cc21 b83c a828 fcbc 0c06 483d 485e 32bd
00000310: aa73 adbd d6b8 cdbc 383c 513d 1690 863d
00000320: d06c 2abd 7e75 81bd 6cd4 533d 8491 91bd
00000330: 184e 2a3c 8551 68bd 8455 c5bc 0ca9 633d
00000340: 9047 17bc e8d1 2fbc fc3e 24bd d82b 93bd
00000350: b472 a43d 9883 b0bc f80c 6f3d 6019 5cbd
00000360: 40fc 8a3d c029 363d f0ff b6bc c6a5 01bd
00000370: 7db7 a5bd 8ef9 57bd 9136 94bd 106b c03b
00000380: a04e 0a3b 81ff 41bd 0c25 3abd 7af1 90bd
00000390: 00ba b439 3887 a13d 3e88 edbc 2aa7 41bd
000003a0: 2890 45bc 14da 383d 9840 3abd 90f8 65bc
000003b0: 18d6 7e3d ec75 963c 2078 613d 5e39 a33d
000003c0: 6651 81bd 76ad 94bd 441f 253d c0d4 af3a
000003d0: 1837 873d 702b 65bc 4888 9cbc c1e6 32bd
000003e0: f59f 06bd 78db d2bc 187d 9e3c 40e9 a73c
000003f0: 207b 8e3d ddc1 abbd a032 53bb 40d2 f33a
-0.02233376 -0.0012867904 -0.050169293 -0.06858369 -0.06648884 -0.05607349 0.043716654 -0.027435504
-0.05430072 -0.020636357 -0.03133394 0.013325751 0.058845088 0.08229135 -0.025623068 -0.015988998
-0.05582232 0.072422355 -0.067933574 0.083609745 0.03827078 0.0046650693 0.04128982 -0.020894304
0.012096681 -0.052551657 0.03224565 0.08005245 -0.0792293 0.049030825 0.0066783875 0.03172171
0.026037782 0.07292639 0.05892214 -0.0650717 0.0070866346 -0.028428573 -0.017465375 0.0016442686
-0.05797107 -0.0031804666 -0.051674083 0.03914918 -0.0052225366 -0.07287306 0.005520858 -0.079618685
0.06491473 0.06883006 -0.079480134 -0.06784031 0.005027361 -0.014503531 -0.061261505 -0.032499522
-0.063573584 -0.014830925 -0.077079915 -0.039996374 -0.040237162 -0.033610564 0.06872216 -0.054310277
-0.0429992 0.058543578 -0.00494536 -0.03458459 -0.03896138 -0.02084773 0.0020533279 -0.06310498
-0.0060559064 0.038300723 0.008872926 0.08099872 0.0355715 -0.074518226 0.039227694 0.027666532
-0.058890756 -0.07133648 -0.01406505 -0.075129986 -0.029599056 -0.05599297 0.046295926 0.0024266243
-0.016079508 0.03893429 0.052367628 -0.08509817 0.013030462 -0.06900165 -0.04982546 0.08060177
0.07879412 -0.06482257 -0.01680985 -0.0030500144 -0.064072005 -0.056775235 0.06252599 0.058773443
0.04980658 -0.07578069 -0.021872677 -0.078946754 -0.017139807 -0.0844602 -0.021791048 -0.03930722
0.07346462 0.00705301 0.01611048 -0.008326754 -0.035972685 -0.046037957 -0.07062159 -0.011299193
0.02289205 0.015139826 0.075133756 0.05081521 0.033366963 0.0053534433 -0.016593896 -0.07854977
0.063946694 -0.022690266 0.061546862 0.039938197 0.0676025 0.0040844604 -0.024264598 -0.01966433
-0.0065908954 0.08352956 0.03534045 -0.01690492 -0.06335648 -0.02731961 -0.076891676 0.032945275
-0.04203379 0.019062579 0.06986046 0.046676517 0.078947335 -0.06444542 -0.069679886 0.05965379
-0.06311573 -0.010345355 -0.0245012 0.035797246 -0.021271951 -0.0589756 -0.00921423 0.06275791
0.011686228 0.065253615 -0.04151875 0.020521887 -0.046942472 -0.07544623 -0.06439044 -0.045830593
0.051620275 -0.07435501 0.03740619 0.027917363 -0.0771954 0.015839018 -0.041749515 -0.05613914
0.058167666 0.06418796 -0.08272022 -0.02835526 0.023080662 0.0020631552 -0.06357501 0.06404212
0.04112813 0.055851087 -0.027498715 0.020048894 -0.0653952 0.055738375 0.032214828 0.059821144
0.022477053 -0.030781105 0.04883389 -0.043546945 -0.08469327 -0.02511255 0.05108282 0.06570451
-0.041607678 -0.06321238 0.051716253 -0.07107833 0.010394596 -0.056718368 -0.024088629 0.055581138
-0.00923337 -0.010731198 -0.04009913 -0.07186097 0.080296904 -0.021547124 0.058361977 -0.053735137
0.06786394 0.04447341 -0.022338837 -0.031652234 -0.08091638 -0.05272823 -0.0723697 0.005872138
0.0021103993 -0.04736281 -0.045445487 -0.07077308 0.00034470856 0.07887119 -0.02899563 -0.04727856
-0.012058295 0.04512985 -0.045471758 -0.014036313 0.062215894 0.018366776 0.0550462 0.07969926
-0.06314354 -0.072596475 0.04031302 0.0013414845 0.06602305 -0.013987407 -0.019107953 -0.043677095
-0.03286739 -0.025739416 0.019346759 0.020496964 0.06957078 -0.08386586 -0.003222622 0.0018602088

network.0.bias f4 [128]
00000000: 5870 523f 3d51 193f 288d 3abb 9232 193f
00000010: 762b 1a3f 035f b6bd 3a04 30bf dcb0 6ebc
00000020: 42f8 423f 6d0e 8e40 a9f8 6d40 d918 41bd
00000030: 2f81 d23f df4c 203b 879b e4bd fc54 903d
00000040: 81bb c5bd b467 123f b4c9 193f 8f8f f140
00000050: 4fb4 d03c b61f 0641 f243 3440 1d71 a03f
00000060: 6c5c a8bd 459d 61bd 7095 7b40 0910 a23c
00000070: 1297 053d 506e 8f3c c9ff 1141 81b2 c3bd
00000080: d904 3dbd f25d ffbb faf1 c040 012a 9bc0
00000090: 8110 153d cf15 b4ba 5511 e0bd 4c72 cdbc
000000a0: b9ce 8640 8841 9c3c dc81 9dc0 b487 28c0
000000b0: 6094 a540 9298 c5bd 9c31 ef3f c87e bdbd
000000c0: 9078 f3bd 5366 bfbe 1717 5cbc 3b53 84bc
000000d0: d0a9 633f 14dc 203c a519 5d3f 2ed7 80bd
000000e0: bfe5 8b40 3c6e 833f 2db1 3f3c e444 ddbf
000000f0: acc6 83bd a878 4640 db6c c3bd eaaf 86bc
00000100: ec84 0e41 9a87 cd40 1090 c33f c8cc be40
00000110: f630 04c0 16f9 81bd 3851 f7bc 5161 97bd
00000120: 057d 543f 3c93 cf3b f6af a7bd c764 ef3f
00000130: 5350 b940 7043 883f fc34 05bf f1bb 9f3c
00000140: 9045 bc3b 195d 16be 9191 6d3c b291 9bbd
00000150: 2c23 48bd 7e73 aabd d929 f93c 9575 b6bd
00000160: 2de7 c740 936d ff3c f0a7 7fbd 683b 3840
00000170: d037 c13f 51a3 75be 6f07 5f3d 57ea 09bd
00000180: c76f bac0 1b52 f5bc 9446 303c a99f 923c
00000190: ac32 d23c ba7f 7f40 c08d a3bd c3f3 b2bd
000001a0: 4292 873c d117 a540 e820 cf3c 917e 69bd
000001b0: efd2 3740 4f5e 74bd c8e0 9a40 9c52 ca40
000001c0: 8d79 153f a46a d940 0884 313d 285e 7ebd
000001d0: 429c 87bd 988c c1bc 000d f140 1f56 17bd
000001e0: 5f0a fbbf c801 0741 6642 0541 4e9a 4fbd
000001f0: e4c0 f640 6df3 47bd fdfc 8cbd 6884 e3bd
0.8220267 0.59889585 -0.0028465483 0.5984279 0.60222566 -0.08904841 -0.6875645 -0.014568534
0.7616006 4.439261 3.718302 -0.047142837 1.6445674 0.0024459881 -0.11162477 0.070474595
-0.09654904 0.5718949 0.600734 7.5487742 0.025476603 8.382742 2.816647 1.253452
-0.08220753 -0.055081625 3.930996 0.019783037 0.032614775 0.017508656 9.124948 -0.09555531
-0.0461472 -0.0077931816 6.029538 -4.8488774 0.036392692 -0.001373941 -0.10940806 -0.025078915
4.2127347 0.019074216 -4.922102 -2.6332827 5.174362 -0.09648241 1.8687015 -0.09252697
-0.1188823 -0.37382755 -0.013433239 -0.016152969 0.8893099 0.009818096 0.86367255 -0.06291042
4.371795 1.0268016 0.011699957 -1.7286649 -0.06434378 3.1011143 -0.09542247 -0.016441304
8.907452 6.422803 1.5278339 5.9624977 -2.0654883 -0.063463375 -0.030190095 -0.073916085
0.83003265 0.0063346904 -0.08187859 1.870263 5.791055 1.064558 -0.5203397 0.019498797
0.005745597 -0.14683951 0.014500038 -0.075961486 -0.048861668 -0.0832281 0.030415462 -0.08909146
6.2469697 0.031180179 -0.062416017 2.8786259 1.5095158 -0.23988082 0.05445045 -0.03367075
-5.8261447 -0.029946378 0.010759015 0.017898398 0.025658928 3.9921708 -0.07986021 -0.087379
0.016549233 5.1591573 0.025284246 -0.05700547 2.8722494 -0.059660252 4.839939 6.322584
0.58388597 6.7942677 0.043338805 -0.062101513 -0.06621601 -0.02362661 7.532837 -0.036947366
-1.961254 8.437935 8.328711 -0.050684266 7.711046 -0.048816133 -0.06884191 -0.11109239

network.2.weight f4 [128, 128]
00000000: b79d 093d 9187 7e3d 5e9a f1bc 2608 693d
00000010: a228 c1bd f463 483d f37b bebc c5b1 9bbd
00000020: 4934 443d 4b21 403d 045a 8cbd 68b7 5bbd
00000030: c400 193d 7d62 a4bd b604 30bd c6f3 233d
00000040: 4033 fcba 30cf 8ebd f460 0abd cc27 d33b
00000050: 518a 07bd c7a6 9b3b 9ba2 16bd 96f2 03bc
00000060: b2b9 45bd c9d8 873d 29ef a4bd a29e 03bd
00000070: c2ef 443d 183a 493c cbbe 24be dddf 4c3d
00000080: 307e fa3b 4328 71bb d0d2 1bbe 6102 d2bd
00000090: 42e3 403d dd82 9c3d 98ca 42bd e7e4 a13d
000000a0: b47e 9c3c c8d2 a83c 3a53 dcbd af18 57bd
000000b0: 9d42 01be 1580 9cbd d7aa a6bd 94de 9abd
000000c0: 40a6 8a3d 38ae a13d 2c05 99bd 9013 6ebc
000000d0: 43e9 5dbc 208a 463d 666e 85bd 6c07 ecbc
000000e0: ed54 ba3c c5f2 683d 3369 8cbd e699 273c
000000f0: 428d 4b3c 474c f3bc 7206 98bd 24cf f4bc
00000100: f6e5 86bd 9959 80bd c2f2 293d 22a9 8dbd
00000110: 9c52 8cbc 884c 223c a713 96bd 64b7 b1bc
00000120: 78ab 503d 483f 723c 6f1b 833d f62f 23bd
00000130: 7447 0b3d 88fb 1ebd 6cdf 82bd 229b 283d
00000140: 20c2 3bbd 584c 0a3d 915e 803d 9031 41bc
00000150: c0ea 67bb 4074 263b 8b62 a4bd b6d2 403d
00000160: 3b86 8e3b 4452 86bd 46db 723d e8d1 b0bd
00000170: 0bfc 3b3c 4c0d 53bd 381d ed3b ab46 3dbd
00000180: ad09 90bc 4dac 34bd b7a0 91bd 91dc 7d3d
00000190: 679b 873d 630d 0c3c d00b 67bd 1284 8cbd
000001a0: 0e31 1f3d 36d6 5cbd e122 40bd 622e 203d
000001b0: 7749 253d 54e6 a33c a6d5 f73c 152a 28bd
000001c0: c8f0 403d d1f2 dcbd 6021 04bc 60cf 51bc
000001d0: 143f 40bb d8f0 153c 2353 83bc c1d4 c13a
000001e0: eca8 0f3d 6122 243d b931 5fbd 05f5 80bd
000001f0: bd4f 38bd 638a 9fbd be08 313d 5774 a1bd
00000200: 6028 a3bd f5b0 d73c 15b6 9e3d 57c2 d33b
00000210: 725f 263a 5abb 733d f478 febe 107e bf3c
00000220: 7a9b cbbd 3381 1a3f 070d 143f 6a95 6c3d
00000230: f24b 9abd 721f aebd 88f4 363c d4b3 96bd
00000240: f7ef 3bbd f4bb 0b3d 2c59 1e3c 4b7d 043c
00000250: 1073 da3c 6345 aa3d 2166 0c3f e841 c0bd
00000260: 402e db3c 99c5 8e3d a5e1 903f f87a 1e3c
00000270: 2e94 2f3d a03b aabb 7d2f e53b 7342 61bd
00000280: 00b6 fb3a 587c efbc b578 0f3d e7ac d7be
00000290: b842 c0bc 5312 a4bb 2848 1f3c 7013 91bb
000002a0: d822 a33e 2c28 0d3d 92a6 7b3d dfa2 adbf
000002b0: 51ab 313f 51d3 5cbd 132c 053f 5a3a ba3b
000002c0: 5014 f63c 3488 83bc 0ed2 7c3d 0052 203a
000002d0: 10b3 2cbd a062 7b3c d623 d1bd c0b1 fdba
000002e0: b48a 94bd 4512 26bf 3b24 8c3d c609 0abf
000002f0: c5ed 9abd 977d b53f fa86 333d 39e9 b13d
00000300: 8a1b 6b3c 3a6d c63b db6c e23b f226 7f3e
00000310: a60e 17bf cce7 e83c 7dc9 873d 0f68 9e3d
00000320: 2545 babd 7227 0a3d ddd0 913d b665 e73d
00000330: dc87 d23d 635e 6dbd e654 08be 6de1 fa3c
00000340: 8044 36bb d7a6 7f3e f519 833d 2d6c a73d
00000350: 177b b3bd c06b 5abd 0b99 9cbd a0fd 6f3c
00000360: f773 4c3d 40c1 90bd 3a65 703d 6f15 ba3f
00000370: 9b90 3dbd ec54 b1be 5ad3 483d 8698 923b
00000380: dd5f 69be da93 37bd c02e 72bb ec38 da3c
00000390: 7022 363c 5f6b b03e e5cf a6bd d186 9a3d
000003a0: dc65 d5bd 3b6b dcbe 91af c73d c001 36bd
000003b0: 45ae fd3e 84a4 b1bc 6e8c bdbe 1862 91bd
000003c0: 3ceb f7bd 35d0 96bd 7079 afbb 42de 5abd
000003d0: c736 a53d 1059 3bbc 7fc2 843e ffcf a13d
000003e0: f32f f7be 82cd e63e 265d 773d 0bae 68bd
000003f0: 0841 1ebe 6757 df3d 6c1f 3e3d 8b70 993d
0.033597674 0.062141005 -0.029492553 0.056892537 -0.09431578 0.048923448 -0.023252463 -0.07602266
0.047901426 0.04690675 -0.068531066 -0.053641707 0.037354246 -0.08026598 -0.042973243 0.040027402
-0.0019241348 -0.06973112 -0.033783868 0.006443953 -0.033090893 0.004750106 -0.036776166 -0.008053442
-0.048272796 0.06633145 -0.08053429 -0.032133706 0.048080213 0.012281917 -0.16088407 0.05001818
0.0076444373 -0.003679768 -0.15217137 -0.1025436 0.04709173 0.07642148 -0.04755649 0.07904988
0.019103386 0.02060832 -0.10758062 -0.052513774 -0.12623067 -0.07641617 -0.08138054 -0.07561985
0.06769991 0.07894558 -0.074716896 -0.014531031 -0.013544383 0.04847157 -0.065151975 -0.028812133
0.022745574 0.056872148 -0.06856003 0.010229563 0.012423815 -0.029699458 -0.07423104 -0.029883929
-0.0658683 -0.062670894 0.041491278 -0.06917025 -0.017129235 0.009905942 -0.07327967 -0.021693893
0.050944775 0.014785595 0.06401717 -0.03984066 0.03400369 -0.038814098 -0.063902706 0.04116357
-0.04583943 0.033764213 0.06268037 -0.011791602 -0.0035387725 0.002539888 -0.08026608 0.04707595
0.0043494976 -0.0655866 0.059291147 -0.086337864 0.011473666 -0.051526353 0.007236149 -0.046209972
-0.017582739 -0.04410963 -0.07110732 0.061977927 0.066214375 0.0085481135 -0.05640775 -0.06861128
0.03886514 -0.053915225 -0.046908263 0.039106734 0.040353265 0.02000729 0.030253243 -0.041055758
0.047104627 -0.10788501 -0.008064598 -0.01280579 -0.0029334472 0.00915166 -0.016030854 0.0014788137
0.035073206 0.04007185 -0.05449078 -0.06296734 -0.04499792 -0.07790067 0.043221228 -0.07883518
-0.07966685 0.026329497 0.07749573 0.006462376 0.000634662 0.059504844 -0.49701655 0.023375541
-0.09941764 0.6035339 0.5783238 0.05775968 -0.07534017 -0.085020915 0.011166699 -0.07358518
-0.045883145 0.034114793 0.009664815 0.008086513 0.026666194 0.08314016 0.54843336 -0.093875706
0.026755452 0.069712825 1.1318861 0.009672873 0.042865925 -0.005195096 0.0069941864 -0.05499501
0.001920402 -0.029234096 0.035027225 -0.42124102 -0.023469314 -0.005007067 0.009721793 -0.004427366
0.3186252 0.03446214 0.06143815 -1.3565329 0.69402033 -0.053912465 0.52020377 0.0056832256
0.030038983 -0.016056158 0.06172376 0.00061157346 -0.042162955 0.015343338 -0.10211913 -0.0019355342
-0.07253018 -0.6487163 0.06842848 -0.53921163 -0.07564882 1.4178952 0.043829896 0.08687062
0.014349828 0.0060555013 0.0069099492 0.249172 -0.59006727 0.028430842 0.06630228 0.07734691
-0.090952195 0.033729024 0.07119916 0.11298697 0.10279819 -0.057951342 -0.13313636 0.03062507
-0.0027811825 0.24965988 0.06401435 0.0817493 -0.08763712 -0.053325415 -0.07646378 0.014647871
0.04991528 -0.070681095 0.058690287 1.4537791 -0.046280485 -0.34635103 0.049029686 0.0044737486
-0.22790475 -0.044818737 -0.0036954135 0.02663847 0.011116609 0.34456918 -0.081451215 0.075452454
-0.10419819 -0.4305056 0.097502835 -0.044435263 0.4954702 -0.021684892 -0.37021202 -0.07098788
-0.12105414 -0.07363931 -0.0053550526 -0.053434618 0.080670886 -0.011434808 0.2592964 0.07901
-0.4827877 0.45078665 0.060391568 -0.056806605 -0.15454495 0.109053425 0.046416685 0.07492169

network.2.bias f4 [128]
00000000: 4b6d bcbd 1c15 373f 5d99 5fbd 6ab9 01bd
00000010: 0271 d740 49df 1bbe 02c7 d940 8941 3a40
00000020: 0046 9fbd f1e0 68bd 5f2c 8dbd 61de e6bd
00000030: 3e4d febc 2cb2 93bd c0f1 323d 34b0 4140
00000040: 2642 a5bd faae 7440 80c6 313f 44e9 de40
00000050: 5062 a040 5376 22bd e9a4 4140 fc62 aabd
00000060: 4f31 0141 a161 60bd 154c e440 9776 7ebd
00000070: 629b 18be 07e2 b140 9cba f540 5506 f440
00000080: 5a67 233c 661f cf40 65da ee3c f473 cf40
00000090: 1e12 4940 b7ff fb40 24ba e440 0ebf aabd
000000a0: 0c51 c13c f3d3 01be 8727 cd3c 1903 a73c
000000b0: d3d9 85bd 40f1 a3bd 340e f740 ffb0 b1bd
000000c0: 0b21 09bd cfee ae40 3bc8 cf40 7a3d be3e
000000d0: 6170 f640 6684 963c e928 d640 5d9b d540
000000e0: ca9c 65bd 6b91 ccbd c670 2440 45f3 dd40
000000f0: efb9 f740 8ef5 ce40 3e5d 8dbc 38d5 0dbd
00000100: 8996 9bbd eec8 3ebd ddc5 f340 f3f1 4bbe
00000110: 62e5 f840 cad0 2e3d 77f6 f840 98d5 0041
00000120: d640 37bc c92d 16be 5ebc c540 f325 cf40
00000130: 81ce d340 483e 51bd 43e8 93be 196a 3bbf
00000140: dfd9 68bd 3419 b6bd c48e 0bbe 8f54 9d3f
00000150: f93a d940 c4c5 7abd 6ece fb40 9321 19bd
00000160: 6112 6cbc 365a 1e3c ab1d ed40 91ed c340
00000170: 5121 fc3b 530a 20be da97 b5bd e990 693d
00000180: 83bd fb40 1de0 ea40 2dcc babd 0ec9 b0bd
00000190: ae58 a7be 63f2 06be 3dac f440 e8ca a13c
000001a0: a04c fdbd 9525 df3f a90e 85bc 5a09 26bc
000001b0: 9f2b ccbd 7a09 d740 707b ce3c c5fc 35be
000001c0: fb76 e43f fcf6 55be 9319 0ebe efd3 bdc0
000001d0: 81e7 763c 527a d640 5f08 433c 53b7 d8bd
000001e0: e4e8 adbd b6ee 60bd 98b4 aebd 21ad 26bd
000001f0: 4082 253c e34d ec40 bc95 c2bd 1a0d cf40
-0.092005335 0.71516585 -0.054589618 -0.031670965 6.732545 -0.15221895 6.805543 2.91025
-0.07777023 -0.056855146 -0.06893229 -0.11272884 -0.031042691 -0.07211718 0.043687582 3.0263796
-0.080692574 3.8231797 0.6944351 6.965975 5.012001 -0.039663624 3.0256903 -0.08319661
8.074538 -0.054780606 7.1342874 -0.062124815 -0.14903024 5.558841 7.6790295 7.625773
0.009973371 6.472583 0.029156873 6.4829044 3.1417308 7.874965 7.1477222 -0.08337222
0.023598216 -0.12678508 0.025043262 0.02038722 -0.06535687 -0.08004999 7.720484 -0.086763375
-0.033478778 5.4666514 6.493192 0.37156278 7.701218 0.01837368 6.692494 6.6752152
-0.05605773 -0.09988674 2.5693831 6.935946 7.741447 6.467475 -0.017256375 -0.03462717
-0.07597072 -0.04657834 7.617903 -0.19916515 7.778001 0.042679586 7.780086 8.052147
-0.011184892 -0.14665903 6.179244 6.4733825 6.618958 -0.051084787 -0.2888814 -0.7320877
-0.056848403 -0.08891526 -0.1362868 1.229143 6.788449 -0.06122376 7.868949 -0.037385534
-0.014408679 0.009665063 7.4098716 6.12275 0.0076944013 -0.15628938 -0.08866854 0.057022963
7.8668838 7.3398576 -0.09120975 -0.08632098 -0.32684845 -0.131784 7.646025 0.019750074
-0.12368131 1.7433344 -0.016242342 -0.0101340655 -0.099692576 6.719907 0.025205344 -0.17772205
1.784881 -0.20894998 -0.13876943 -5.932121 0.015069843 6.7024317 0.011903851 -0.10581841
-0.08491686 -0.054915152 -0.08530539 -0.040692452 0.010101855 7.3845077 -0.09501216 6.4703493

network.4.weight f4 [12, 128]
00000000: 51fc 513a 9930 4a3f 8758 03bd 1096 37bc
00000010: 891b 1d3f 0428 023d 6efd a83f a617 0e3f
00000020: 84b4 e03c 33fd 9b3d 948e 0ebd 1573 a6bd
00000030: e439 b0bd 34cb 9dbd 3c63 afbd 2cc8 203f
00000040: b8f3 5ebc 697c 393f 325e c13e 9ecb 823f
00000050: b879 e43f 4cd3 8b3d 6a13 943f d4af f03c
00000060: 1c03 373f bc6b 33bd 91d2 683f 427a 913c
00000070: 34c4 a93d 57b4 883f ba6e 673f 1998 733f
00000080: 2fcf c2bd ef4d f13f 9602 9f3a 7d6a d53f
00000090: ebbb 193f 05f0 583f fc58 953f c214 1cbd
000000a0: c010 6fbc 9eb7 1b3c b264 573d dc12 033d
000000b0: 11cb c73c fdeb 5d3d 3810 4b3f b94f 043d
000000c0: d9fc 25bc 4b1c 0b40 2bef a33f 419f d03d
000000d0: ec40 393f b55f e83d 41ab a43f c57c 3f3f
000000e0: f0c6 01bd 0eca 17bd 84ec 3f3f 7061 a63f
000000f0: 1e6f 0f3f 2129 973f 3749 97bd 45e1 92bc
00000100: 3c22 1bbb 68a5 583d 5317 323f 4fa9 4dbc
00000110: bc34 3c3f 1605 0f3d 9086 5c3f 91c7 d23f
00000120: fc90 04bd 6dcb f63c ae7d c23e 418b a33f
00000130: 8b08 893f 801c 6a3d 6043 d53c 8c77 4cbc
00000140: ff19 b03a 789a bf3e 74a1 a03b 259e d33e
00000150: 3ea0 8f3f fe0d 3dbc ca5a 2b3f 3930 a73d
00000160: 02fb 69bd c655 3c3d a1b1 5e3f 8726 8b3f
00000170: 9355 fbba ae67 e2bb a826 053e b536 5ebd
00000180: 1648 5d3f 0b3c c93f a555 83bb 0034 5d39
00000190: 5e3f e13c 2360 bb3c 41a2 673f 8f17 0c3c
000001a0: b0eb 8e3d 2a23 a23f a55f 8d3d 9c60 7d3b
000001b0: c68a 063e a887 a93f 68af f7bc f0cf d9bc
000001c0: 887b 2d3f e18f 0f3f f5d7 323d a046 74be
000001d0: 6abf 3abd 6dad a83f 6f45 1e3d 762f 113d
000001e0: d8be 88bb 2378 78bc 0fee 0dbc 27f6 e3bc
000001f0: 4aa8 4b3d 1109 6d3f 14e0 df3c ec91 9a3f
00000200: b0b8 6abd eb41 ca3e ef42 5b3b 1e6f a9bd
00000210: 2a50 523f 7584 05bd 19f7 a63f ea3c b63e
00000220: 925f 3bbd 9e6c 403d 16d9 da3d 7d4c 5c3d
00000230: e66a 473c b426 e93d 077e b23d c847 3d3f
00000240: a051 243b 85ff 193f f323 f4bc e2f6 923f
00000250: 54f7 0840 7874 82bd 41e4 c33f 75ea ab3d
00000260: cbdd 3b3f b15b 33bd 87c7 573f 5647 1bbc
00000270: baa3 a2bd 7d6e a93f a6bc 833f 3926 643f
00000280: 722a 243d 4067 e63f a388 a73d a47b bb3f
00000290: 3274 2f3f 343e 713f 1af9 823f 33dd 25bd
000002a0: d6a4 dcbc 2b53 8e3d 5986 a7bd 34f2 abbd
000002b0: c657 e23d 2b70 b1bc 1d9e 4a3f 4251 9cbc
000002c0: c42c 6fbd f1a8 1c40 9bfa 8f3f 05b2 c43d
000002d0: 21e9 303f aee8 b63d 12e4 b43f 35f1 1e3f
000002e0: 132d 293c 47e5 3cbd 0994 433f 36f6 9b3f
000002f0: dcfd 253f 9fea 9a3f 5871 95bc 5343 2e3d
00000300: 45bb f5ba 1c9d 94bb c104 4c3f d5a7 bc3c
00000310: ad2d 183f 3e85 99bd 7bc2 803f 6f0e 993f
00000320: f7bd 98bd 49eb 603d 1628 383f e434 c03f
00000330: 9c53 8d3f 52d6 b33d c35c 9e3d 82f0 dc3e
00000340: dba6 173d f6ed 36be d585 c7bc 1a23 e43e
00000350: 7080 913f 8bbb 3cbd bf00 5b3f f5bb 97bc
00000360: 4a1d 60bc 7fd1 adbc 03a7 9e3f 102b b63f
00000370: 5d6f 413d 2cbf b93d ce77 083d c062 aebd
00000380: bb80 4a3f 01bf 963f c51b 53bd 59f9 843d
00000390: aeb8 a9b9 6308 97bd c5bd 7d3f 16ca 783d
000003a0: a312 ba3d 95ae 6d3f e981 1a3d 8629 523d
000003b0: e977 a53c 71c6 aa3f b896 743b 00dc cfba
000003c0: 188c 7e3f 4f5a e7bd 59af 95bc d840 c0be
000003d0: 2493 3a3d e46c 783f a69c 853d 4dc7 9abc
000003e0: ab14 8d3d 4cfa 74bd 5b8e 9abb eb0b 86bd
000003f0: 4943 b0bc 6619 793f 1e20 c53c 4641 a53f
0.00080103154 0.78980404 -0.032066848 -0.011205211 0.6137014 0.031776443 1.3202341 0.55504835
0.027429827 0.07616653 -0.03480394 -0.08127419 -0.08604792 -0.077047735 -0.08563849 0.6280544
-0.013607912 0.7245546 0.37767178 1.0218389 1.7849646 0.06827411 1.1568425 0.029380716
0.7148912 -0.043803915 0.909463 0.017758492 0.08289376 1.0680035 0.9040333 0.9515396
-0.095121734 1.8851908 0.0012131508 1.6673123 0.60052365 0.8474124 1.1667781 -0.038105734
-0.014591396 0.009504227 0.052586265 0.032000408 0.024388822 0.054180134 0.7932162 0.032302592
-0.010131084 2.1736019 1.2807363 0.10186625 0.7236469 0.1134638 1.2864763 0.7479976
-0.031683862 -0.03705793 0.7497027 1.2998486 0.56028926 1.1809427 -0.073870115 -0.017929683
-0.0023671528 0.05289212 0.6956684 -0.012552573 0.73517966 0.03491696 0.86142826 1.6467153
-0.03236483 0.030126298 0.3798651 1.2776872 1.0705732 0.057156086 0.026033103 -0.012479674
0.0013435482 0.37422538 0.004902059 0.41331592 1.1220777 -0.0115389805 0.6693541 0.081634946
-0.057124145 0.045980237 0.8698979 1.0871133 -0.0019175283 -0.0069093322 0.13003027 -0.05425139
0.8643812 1.5721449 -0.0040080124 0.00021095574 0.027496036 0.02287299 0.90481955 0.008550539
0.069785476 1.2666981 0.06903008 0.003866232 0.13138875 1.3244524 -0.030235007 -0.02658841
0.6776662 0.56078917 0.043662984 -0.23855066 -0.045592703 1.3177925 0.038640436 0.035445653
-0.004173141 -0.015165362 -0.008662715 -0.027827336 0.04972104 0.9259196 0.027328528 1.2075782
-0.057305038 0.39503416 0.0033456644 -0.08273147 0.8215357 -0.032597024 1.3044158 0.3559335
-0.04574544 0.046978585 0.10685937 0.053783882 0.012171483 0.11384335 0.08715444 0.73937654
0.0025073066 0.60155517 -0.029802298 1.1481593 2.1400957 -0.06369871 1.5304033 0.083943285
0.73385304 -0.043788616 0.8428883 -0.009477457 -0.079413846 1.3236843 1.0291946 0.89120823
0.04007954 1.8000259 0.08180358 1.4647107 0.68536675 0.9423554 1.023227 -0.040494155
-0.026934069 0.06949457 -0.08179922 -0.08395806 0.11051898 -0.021659931 0.7914751 -0.019081715
-0.0583923 2.4478114 1.1248354 0.09604267 0.69105726 0.08931099 1.4132102 0.620868
0.010325688 -0.046117093 0.7639776 1.2184513 0.64840484 1.2102851 -0.018242523 0.042544674
-0.0018747827 -0.0045353305 0.79694754 0.023029247 0.59444696 -0.07496117 1.0059351 1.195753
-0.07458108 0.054911885 0.71936166 1.5016141 1.104114 0.08781113 0.07732537 0.43152243
0.03702436 -0.17864212 -0.024355808 0.4455803 1.1367321 -0.046077292 0.85548013 -0.018522242
-0.013678858 -0.02121806 1.2394718 1.4231892 0.047225345 0.09069666 0.03331738 -0.08514929
0.7910268 1.177704 -0.051540155 0.06492872 -0.0003237179 -0.073746465 0.9911769 0.0607396
0.09085586 0.92844516 0.03772155 0.05130913 0.02019878 1.334181 0.003732128 -0.0015858412
0.99432516 -0.11296522 -0.018272089 -0.37549472 0.04555048 0.97041154 0.06524019 -0.018893862
0.06888708 -0.059809014 -0.004716677 -0.06545242 -0.021516459 0.9730438 0.024063166 1.2910545
