ml_saves/model_episode_100xxx.pth (torch, 144172 bytes, 6 tensors)

network.0.weight f4 [128, 134]
00000000: b708 efbd 098b 0c3a 906f 893d 6e87 103d
00000010: 7dfc 9fbd 2d36 23bd a03c a0bb dc14 893d
00000020: a486 693d 1b60 29bd a0f2 8f3d e077 99bc
00000030: 8fe3 21bd 00af 5f3d f676 cabc 40fd daba
00000040: b900 79bd fea2 fbbc 6018 90bb e84e 823d
00000050: a86f 213d 9284 883d 24d7 34bd 98fb 1d3c
00000060: d898 503d 9f07 3dbd 8c89 753d aa14 083d
00000070: f963 3cbd 1cef 553d a866 c43c 5c34 d13c
00000080: 387c 0d3d a83f 0d3d c2df a0bd 021c d4bc
00000090: 2473 a83d 6098 3bbc 7896 2c3d 9c65 82bc
000000a0: daff 8b3d f430 653d 60eb 1ebb 0012 b0ba
000000b0: 4c8b 9c3c b831 58bc dabc 92bd d095 a53d
000000c0: 188b 023d d939 42bd 0613 913d 1866 933d
000000d0: a165 11bd 970c 33bd 002a dc3c 38f8 b2bc
000000e0: 3091 d03b 17da 2bbd a022 adbc 8aa0 09bd
000000f0: 08b5 883c cf7e a0bd 8062 033c bc99 0c3d
00000100: 1eb0 60bd c5c7 a7bd 30e6 01bc 8cdd d9bc
00000110: a82f a73c a0fb 803d 9c21 c73c 64de 813c
00000120: 0ca4 343d 447e 613d cba5 a1bd e0b3 ab3b
00000130: 9469 78bd 4031 99ba a7e6 40bd a6d5 8e3d
00000140: 5cb2 a2bd f06a 943b 40f1 7c3d a4c7 1a3d
00000150: 302e 9fbd 10fa d23b 9ef5 9bbd 14d8 353d
00000160: 6eaa 85bd 602d 2dbc a0c1 0d3d 4b1a 46bd
00000170: 50a0 ad3d b03a ef3b e4fc a23d f021 c73c
00000180: a273 82bd 80f7 383a ac71 3e3d 9cc7 9d3d
00000190: beb6 8b3d 5888 a1bc 0b2b 8bbd 5023 783d
000001a0: c0ec a03d 6529 11bd 74ed 8cbd b013 c9bb
000001b0: bf36 8abd cf41 a0bd 409e 733c 50e7 3cbc
000001c0: b60b 013d aa83 9e3d 3c34 633d 7284 18bd
000001d0: d02c 733d 1675 7cbd 74c3 c0bc 6efa 34bd
000001e0: eb17 6cbd a6c8 02bd c0b1 db3c dc29 98bc
000001f0: 3058 bebc bca3 313d 8cbd 84bc ac54 96bd
00000200: e0d2 9cbc 4a47 a8bd e252 9a3d f253 92bd
00000210: 2ad8 18bd a821 753d 63ee eabc 1845 73bd
00000220: 6e12 98bd 1451 45bd f014 c33b 968c 0fbd
00000230: 0a3e 95bd cbb4 adbd 7831 203d 00db 64ba
00000240: 55eb a5bd 5cb1 c93c 75dd 86bd ecc2 e8bc
00000250: 8827 213d c884 803c 16d5 9e3d 783e 8d3d
00000260: 6add 8c3d 7ca6 a93c 13e5 85bd f852 603d
00000270: 786f b3bc 362e 083d ac44 cf3c 7403 9abd
00000280: cd8f a9bd 76c9 083d e0b1 713d 46fb 8b3d
00000290: 6875 763d b17f aabd 6009 bb3b 5cbf 9e3d
000002a0: a0cd b6bb 201d 6cbc 794c 50bd f84d 203d
000002b0: 149b 9b3d d80f a63d 80b0 383d 501d 9c3d
000002c0: 56f6 8c3d 6895 d13c 385d 63bd 6887 9fbc
000002d0: 4282 9c3d 6618 e0bc 6033 ac3b 1ea4 97bd
000002e0: 72d6 d9bc b8c8 303d 4caa 76bd 657b 4fbd
000002f0: b2ed 803d f22f a6bd bc8c 70bd 33de 3cbd
00000300: a2ed a6bd 80c7 feba 9a33 5abd 6c13 803d
00000310: e408 e53c 58f8 803d e4be 663d 94f7 4d3d
00000320: 0005 69bb 5098 65bd ba83 14bd b41a 753d
00000330: 34aa 9c3d aabc 943d b8ca 2d3d 9888 1b3d
00000340: 2c97 3b3d f1a0 75bd 30aa c8bb ca94 39bd
00000350: f43f 973d 7827 f3bc d0c5 3abc 60ae 4a3b
00000360: c4aa f5bc 798f 14bd 00df 6c3c e8da 42bc
00000370: 2049 973c 8040 46ba fe80 74bd 4ec9 803d
00000380: 54df 493d e2b5 923d 303d 7cbc fc06 a13d
00000390: f8c7 5ebd 08fe 1dbc 3874 433d 3d68 29bd
000003a0: 085e 4b3d 9ed8 913d e212 31bd ae1c ad3d
000003b0: b03c 903d 04af 8fbd 84fe 353d 30d6 97bd
000003c0: b0b1 26bc 8bc6 5bbd 03be 45bd b83e a03d
000003d0: e8f4 453d 040a 953d 4418 753d a440 90bc
000003e0: 086d 773d 93dd 1cbd e4e4 6e3d 509d 94bc
000003f0: 70dd cd3c 40ce 02bd bcdd 9b3c 00a3 bbbc
-0.11671584 0.0005361294 0.06710732 0.035285406 -0.0781183 -0.039846588 -0.0048900396 0.06693432
0.05701317 -0.04135142 0.07028699 -0.018733919 -0.039523657 0.054610252 -0.024714928 -0.0016707554
-0.060791705 -0.03071737 -0.004397437 0.063627064 0.039413124 0.06665911 -0.044150487 0.009642504
0.050927013 -0.046149846 0.059945628 0.03322283 -0.04599378 0.052229986 0.023974732 0.025537662
0.034542292 0.034484535 -0.078551784 -0.025892261 0.08225086 -0.011449903 0.042135686 -0.015917592
0.06835909 0.05595489 -0.002424918 -0.0013433099 0.01910939 -0.013195448 -0.07164927 0.08085215
0.03187093 -0.04741845 0.070837066 0.07197207 -0.03549731 -0.04371318 0.026875496 -0.021846876
0.006364964 -0.041956034 -0.021134675 -0.033600368 0.016687885 -0.07836687 0.00801909 0.0343263
-0.05485546 -0.081924 -0.007928416 -0.0265949 0.020408466 0.06297994 0.024308018 0.015853114
0.04410176 0.055052057 -0.078929506 0.0052399486 -0.060647562 -0.0011687651 -0.047094967 0.06974344
-0.079441756 0.0045293495 0.06175351 0.03778805 -0.077724814 0.006438501 -0.07615207 0.04439552
-0.065266475 -0.0105699 0.034608483 -0.04836492 0.08477843 0.0073006973 0.07958391 0.024308175
-0.063697115 0.00070559233 0.046495125 0.07704088 0.06821965 -0.019718334 -0.06795319 0.06058055
0.078576565 -0.035439868 -0.06881228 -0.00613638 -0.06748723 -0.07825052 0.014869273 -0.011529759
0.03150531 0.07739957 0.055469736 -0.037235685 0.05936891 -0.0616351 -0.0235307 -0.04418414
-0.057639997 -0.031929635 0.026818156 -0.018574648 -0.02323541 0.04336904 -0.016203664 -0.07340369
-0.019143522 -0.08216722 0.0753534 -0.071449175 -0.037315525 0.05984655 -0.028678125 -0.059392065
-0.0742539 -0.048173025 0.0059534237 -0.035046183 -0.07287224 -0.08481749 0.039109677 -0.00087301433
-0.08101527 0.024620704 -0.06585208 -0.028413258 0.03934434 0.015688315 0.07755487 0.068966806
0.06878169 0.020709269 -0.06537833 0.054766625 -0.021903738 0.033247195 0.0253013 -0.0752019
-0.08279381 0.033395253 0.059007525 0.06835036 0.06017056 -0.083251365 0.0057079047 0.07751343
-0.0055787116 -0.014411241 -0.05085418 0.039136857 0.07597938 0.08108491 0.0450902 0.076227784
0.06882922 0.025583938 -0.055508822 -0.019473746 0.07642032 -0.027355384 0.005255148 -0.0740435
-0.026591513 0.04316017 -0.060221 -0.050654788 0.06295337 -0.081146136 -0.058727965 -0.046110343
-0.081507936 -0.0019438118 -0.053271867 0.062537044 0.027958341 0.06297368 0.05633439 0.050284937
-0.0035555959 -0.05605346 -0.036258437 0.05983992 0.07649651 0.07262547 0.042429656 0.037972063
0.045798466 -0.05996794 -0.0061238036 -0.045307912 0.07385245 -0.029681906 -0.011399701 0.003092669
-0.029988654 -0.03626964 0.014457464 -0.011893012 0.018467486 -0.0007562712 -0.05969333 0.06288396
0.049285248 0.07163598 -0.015395448 0.0786266 -0.054389924 -0.009643085 0.047718257 -0.041359175
0.049650222 0.071213946 -0.0432309 0.08452736 0.07042825 -0.070158035 0.04443218 -0.074139
-0.0101742 -0.053656142 -0.048276912 0.07824463 0.048329264 0.07277301 0.059837595 -0.017608948
0.060406715 -0.038297247 0.058323756 -0.018141419 0.025130004 -0.031934977 0.01902663 -0.022904873

network.0.bias f4 [128]
00000000: c03e 0abd 5eb7 8d3c 3953 0440 8311 613c
00000010: a014 7f3d bfeb 823f 2eb7 eb3d a741 e6bc
00000020: 027b 893e d849 cb3f 15c0 803f 1701 983f
00000030: 5d54 36bd 68e0 a73f ea19 9abd e3b7 8b3f
00000040: 7f1b 813f 7c8e f83d f805 313d 8c5c 573d
00000050: 0fd5 ecbd f45d 10bd 7387 51bd 7d46 94bd
00000060: c084 a03b 33b1 0240 2691 0dbd 4a45 de3d
00000070: e3a6 4abf ba98 dd3f 7ad7 74bd 7c5f 7fbd
00000080: 1406 f83c 17c9 e9bd 7b80 a0bc 58df 273d
00000090: 74ea dabd 6b0f 10be 42f0 94bd c373 3bbc
000000a0: 5061 9a3e 85e0 83bb d729 a53f 6093 2a3b
000000b0: d548 e83f 2197 96bd 164d a93f aafd e237
000000c0: 96f8 063d 7458 df3f 7c29 06be 784a 9e3c
000000d0: 616a 8fbd c8f7 41bd 2356 80bd 3253 1d3d
000000e0: e28e c9bd ca33 0fbd d24e 513d 872d 7f3d
000000f0: 3715 5dbd 30bd d03b cf01 06be 197d da3b
00000100: 5340 e33a 8e88 6cbd cd90 68bd cfa2 79bc
00000110: 4894 5e3d df66 b1bd 9706 3e3d 1df4 09be
00000120: edea a63c 0087 623d c3ed 643d 414e 71ba
00000130: 99f6 a9bd 91db a43f fcf1 c73f 7027 0dbe
00000140: e33b 04be ac59 e13b 366c afbd 21f9 81bd
00000150: b018 6ebb af3e 4e3f 31b3 febd 1022 ef3f
00000160: 8086 e1bd a1cb 1b3d a8f8 9d3c faee ce3f
00000170: c273 6a3f 4435 9dbd 4a8e 2b40 c00c 843b
00000180: 1c51 94bd 5a4b 083d f63a 7bbd 0baf 84bc
00000190: 9d81 833f e297 bd3f 4f0b 983f d814 c53f
000001a0: 0bfc 3f3e 005d 6c3b ff75 07be f194 a93f
000001b0: a6ba fdbc e4f6 9b3c 8c70 1b3d 3c10 b13f
000001c0: 8b70 0fbd 7192 fe3f 714b c73f fc7e 4dbd
000001d0: 40e9 ca3c 68cc a23f 6699 44bd 3288 2cbe
000001e0: d4f0 e7bc 05f6 a33d 5837 d03c 64b3 b03f
000001f0: 300c 3b3e 7f61 ae3f 2f60 6d3f 1889 413d
-0.03375125 0.01729935 2.0675795 0.013737085 0.06227553 1.0228194 0.11509548 -0.028107477
0.2685166 1.588191 1.0058619 1.1875333 -0.04451405 1.3115358 -0.07524474 1.0915493
1.0086516 0.12136552 0.043218583 0.052578494 -0.11564075 -0.03524585 -0.051154565 -0.07240007
0.0048986375 2.0420654 -0.034562252 0.108530596 -0.791609 1.7312233 -0.059775807 -0.06234692
0.030276336 -0.11415308 -0.019592514 0.04098448 -0.1068925 -0.14068381 -0.07272388 -0.011441174
0.3015237 -0.0040245675 1.2903394 0.0026027784 1.8147227 -0.07353044 1.322665 2.7059421e-05
0.032951914 1.7448869 -0.13101763 0.019322619 -0.07002712 -0.047355443 -0.06266429 0.03840942
-0.09841706 -0.0349615 0.05110056 0.062299278 -0.05397531 0.006370209 -0.13086627 0.006667745
0.0017337896 -0.057747416 -0.056778718 -0.0152365705 0.05434063 -0.08662199 0.046393003 -0.13472028
0.020375693 0.055304527 0.05589081 -0.0009205081 -0.08298988 1.2879506 1.5620723 -0.13784575
-0.1291347 0.006877145 -0.085655615 -0.06346346 -0.0036330633 0.805644 -0.12436522 1.868227
-0.11011982 0.038035993 0.019283608 1.616668 0.9158288 -0.07676175 2.6805596 0.00402984
-0.07242033 0.033274986 -0.061335526 -0.016196748 1.027393 1.4811976 1.1878451 1.5396986
0.1874849 0.0036066175 -0.13228606 1.3248578 -0.03097279 0.019038625 0.03794913 1.3833079
-0.03501944 1.988844 1.5569898 -0.05016993 0.024769425 1.271863 -0.047997855 -0.1684883
-0.028313078 0.08005909 0.025417015 1.3804746 0.18266368 1.3623503 0.9272489 0.047249883

network.2.weight f4 [128, 128]
00000000: 80b5 95ba 6ca7 97bc f4e1 1a3c 4703 b53d
00000010: 542f 883c 98fa 82bc c8ad 50bd ea22 4dbd
00000020: abdf 403d 2a58 383d cf06 a03c f26f 6dbd
00000030: 8eb6 953d c31e 14bb 40a8 f43b 22ef de3c
00000040: cb9d 253d a0d0 98bc ccd3 f03c 73a0 82bd
00000050: 2742 2bbd 9f83 39bd 41fd 243d e2d6 4a3d
00000060: 187b 38bc 8468 9ebd 746f 9ebc 63cb a7bc
00000070: 80ab 36bd ed7e 6fbd 80a0 40bd 8c68 f7bc
00000080: e821 a3bd 136d 8cbd 4845 073d 1aca 283d
00000090: db0c 93bd 8da7 6a3d 28ec 113c d35b 733d
000000a0: a1ec 51bd eba3 573d 2811 7b3d be2a 7d3d
000000b0: 404c 64bd c87f 8bbd 2dc1 113c a683 533d
000000c0: 0ea3 75bd 8c13 b0bd 13c1 9e3d dc09 9e3c
000000d0: edda a9bd b0c3 a13d 164a c7bd 04ed ba3c
000000e0: d2e1 013d fad9 213d 077a 053d 1f78 afbc
000000f0: 6102 21bd 53d1 b23d 64f3 7b3c 76e7 733d
00000100: 5be6 6cbb a005 873c 287a 20bc bcf9 92bd
00000110: 1771 83bd 5560 e33c 8964 63bd 0efb 84bd
00000120: 769a 2a3d c00c 87bc 4467 3fbd e0d1 ccbb
00000130: 5622 3cbd f70f fcbc f66b a9bd f9be 1ebd
00000140: d5f7 8c3d 2166 4c3d 5c38 b3bd 6894 0c3c
00000150: 02f8 293d 1fa6 6a3d d77e 053d 0350 393c
00000160: 73f7 83bd a895 7fbd e020 b3bd 50de 5d3c
00000170: a847 c6bd 6805 d53c 2990 8e3d 44c7 ee3c
00000180: 78dc 82bd 2a4f 35bd 589d 86bd 10cf 0abc
00000190: 283c 01bd d3c0 7a3d 1099 84bd 70e2 06bc
000001a0: e071 7a3d 967f b3bd 04d4 673c 5ece 293d
000001b0: e349 163d 0210 1dbd d2c4 efbc a251 b23c
000001c0: a84c ef3c efff 4bbd 2c1e 253d 08e3 7dbc
000001d0: 0a62 87bd 17a1 2f3d e593 b33d f0fa 4abc
000001e0: bd05 4dbd ee89 c2bd 9e3f 1c3d 17e0 1dbd
000001f0: eaf9 7c3c 4791 0cbd 4cc2 61bd 03b1 9c3d
00000200: d863 bfbc 38ce 423c 543b 2e3d e340 a73d
00000210: 6b1f ab3d 68d7 2abd a27b 2c3d 9ccb c1bc
00000220: e0c9 a3bd 4365 ebbc d2ec be3c 74cf eabd
00000230: be11 693d c657 62ba e005 0d3b 4cca 313d
00000240: f8ad 18bd f8bf aebc 5ee3 f6bc 389d 99bd
00000250: a09b 6bbb abbf b2bd 9b40 843d d9ea 8cbd
00000260: 36bb 103d bb80 30bd 7f1c afbd 8cb3 453c
00000270: 9697 07bd 415d e6bd 5fcc 0ebd 88fe cf3c
00000280: d431 0b3d ab19 08bd b46a 93bc 38c5 32bd
00000290: 986b f03c c796 b3bd ee55 2d3d 1ea1 ffbc
000002a0: bd81 b4bd c455 80bd d24b abbd 306b e0bb
000002b0: 3974 7dbd fe56 233d 9058 093d 0071 04bb
000002c0: 0cb2 c7bc 71ab 13bd f1e9 a83d a6e3 2d3d
000002d0: 4ab9 3a3d d85a 943c 2c46 81bd dcb5 3dbd
000002e0: 0842 7bbd a2e7 59bd 9a46 a8bd 8d5e 9dbd
000002f0: 532c 44bd 4897 e2bc 5666 5b3d 0ff0 883d
00000300: 2721 9d3d 5809 05bc 485d 053d e0d4 03bc
00000310: 9846 58bc fb7b 953d ba60 533d 049b 8a3c
00000320: a2c5 42bd 306d 89bd 568b 1a3d 7106 b03d
00000330: 210d b43d cdd3 673c f7db 96bd 8946 9b3d
00000340: 57cb 7cbd 32f4 293d 7628 aebd 86ec adbd
00000350: dbd4 6fbd ff69 6c3c 7216 383d f610 133d
00000360: 45b2 91bd 3e80 d4bc 25c7 883d b895 84bc
00000370: ddd3 94bd a7f4 b2bd 9a03 5dbd c0e7 92ba
00000380: 95a9 b43d d36b 9c3d 7231 5f3d eaed 3f3d
00000390: e811 843c c0f0 edbc 4bbd 493d 4bef 8cbc
000003a0: 66ed f6bc 48dc db3c e5c5 963d 35a6 e63c
000003b0: 8151 893d 0e17 8fbd 147f e93c 59c2 ecbc
000003c0: e0b8 7abc c231 8ebd 738e 56bd a060 9dbd
000003d0: aadc 74bd 7e08 c9bd 2002 1b3b bca7 9ebd
000003e0: 8c9c aebc 681a c63c 4a1b a6bd b32f eabd
000003f0: ae82 a2bd bccc 4ebc 2281 b8bd 7447 ee3c
-0.0011421889 -0.01851245 0.0094532855 0.08838516 0.01662413 -0.015988633 -0.05094698 -0.050082125
0.047088306 0.045005955 0.019534497 -0.057968087 0.0731021 -0.0022601343 0.007466346 0.027213637
0.040433686 -0.018654168 0.029397868 -0.063782595 -0.041811135 -0.04529154 0.040280584 0.049521334
-0.011259817 -0.077347785 -0.019340254 -0.020482725 -0.04459715 -0.058470655 -0.047028065 -0.030201219
-0.079654515 -0.06856742 0.033025056 0.041208364 -0.07180186 0.057288695 0.008906402 0.059413742
-0.051251058 0.05264656 0.06129566 0.06180834 -0.05573678 -0.06811482 0.008896154 0.05163922
-0.059969954 -0.08597478 0.0775167 0.01929181 -0.0829371 0.078986526 -0.09730928 0.022818096
0.0317095 0.03951452 0.032587077 -0.021419583 -0.03930891 0.08731332 0.015377853 0.05954691
-0.0036148045 0.016482174 -0.009794749 -0.07176539 -0.064180546 0.027755896 -0.0555158 -0.064931974
0.04165121 -0.016485572 -0.04672934 -0.006250605 -0.045931183 -0.030769331 -0.08272545 -0.038756344
0.06883208 0.049902085 -0.08750984 0.008580305 0.041496284 0.05728733 0.032591667 0.01131058
-0.064436816 -0.062398583 -0.08746505 0.013541773 -0.09681636 0.026003554 0.0696109 0.029147752
-0.06389707 -0.04426495 -0.0657298 -0.008472219 -0.03155151 0.061219048 -0.06474507 -0.008232698
0.061143756 -0.087645695 0.01414967 0.041456573 0.036691558 -0.038345344 -0.029268656 0.021767441
0.029211357 -0.049804624 0.040311977 -0.015496023 -0.06610496 0.042878237 0.08768443 -0.01238893
-0.0500543 -0.09498964 0.038146608 -0.038543787 0.0154404435 -0.034318235 -0.055116937 0.0765095
-0.023363039 0.011889987 0.04253705 0.08166673 0.08355602 -0.041709334 0.042110093 -0.023656659
-0.07997489 -0.028734809 0.023306284 -0.1146535 0.056901686 -0.0008634295 0.0021518394 0.043405816
-0.037275285 -0.021331772 -0.030137714 -0.0750069 -0.0035950914 -0.08727964 0.06457635 -0.06880731
0.03533479 -0.043091517 -0.08550357 0.012066733 -0.033103548 -0.112482555 -0.034862872 0.025389925
0.033983067 -0.033227604 -0.017995216 -0.043645114 0.02934818 -0.08768993 0.042318277 -0.031204756
-0.08813808 -0.062663585 -0.08364071 -0.0068487152 -0.061878417 0.039877884 0.033531725 -0.0020208955
-0.024376892 -0.03605217 0.08247746 0.04245343 0.04558686 0.018109724 -0.06312212 -0.046316013
-0.06134227 -0.053199418 -0.08216591 -0.0768405 -0.047893833 -0.027660027 0.053564392 0.066864125
0.07672339 -0.0081199035 0.032559663 -0.008046359 -0.013200425 0.07299038 0.051605918 0.01691962
-0.04755176 -0.06710279 0.037730537 0.085949786 0.08791567 0.014149618 -0.07366174 0.07581813
-0.061717357 0.04149265 -0.08503811 -0.08492379 -0.058552604 0.014429568 0.04494328 0.035904847
-0.0711408 -0.025940057 0.06678609 -0.016184673 -0.07266972 -0.0873807 -0.053958513 -0.0011207983
0.08821408 0.07637753 0.054490514 0.046857752 0.01612182 -0.029045463 0.04925279 -0.017203948
-0.030142497 0.026838437 0.07361964 0.028155426 0.06704999 -0.06986819 0.028502978 -0.028901266
-0.015302867 -0.06943084 -0.052381944 -0.076844454 -0.059780754 -0.09816073 0.002365239 -0.077468365
-0.021314882 0.024182513 -0.08110674 -0.11434879 -0.079350814 -0.012622055 -0.09009005 0.029086806

network.2.bias f4 [128]
00000000: 3781 9ebd 8e7a a1bb d073 99bd fee7 0cbe
00000010: afd9 44bc 9955 453c 9f76 16be 76fe d83c
00000020: 8b00 513d d565 f93f cf07 cabc c2a5 1cbd
00000030: 6062 e2bc 5ae5 1840 91c5 c1bd bedc 6fbd
00000040: a784 0f40 e832 013d 77d3 b33f 86c0 023e
00000050: f730 15bd 8757 fcbc d493 9bbb b6aa 643d
00000060: 27eb 81b9 e7b5 083d be56 4dbd 16b8 0240
00000070: 400c ff3f 54e6 0bbd 02a4 1a40 a911 fabd
00000080: 311f 53bd 4d40 99bc 87a2 ac3f ea6b 11bc
00000090: 1e97 20bd f68a 91bd 4f10 82bc 8f11 f6bd
000000a0: a13d 1840 12f7 a6bc ed36 5abc 0e05 53bd
000000b0: fe2b 1540 9dab 203d 81aa d83f bfd7 c3bd
000000c0: 330f 29be 0990 6bbd 37af e23c 11d3 da3f
000000d0: a2e4 8ebc a3e6 da3f f6e8 0340 55db c5bd
000000e0: 3eb7 bbbb aab9 d83f 4a36 d93f f4c6 a2bd
000000f0: 0692 12be 6311 54bc 7846 1abd d4be b63f
00000100: f9c3 ea3f 16bb 0eba 18b4 af3f f982 99bc
00000110: 9f1b 81b9 1498 8b3f ddbb 6c3d efca f13f
00000120: e483 bcbd 132d a53f fe9c 3fbd d192 7abc
00000130: 2b04 0a40 e09f 0abe 4a1a 0e3c 5831 f53f
00000140: e2b7 b6bd e225 91bd 930e 33bb 3049 38bd
00000150: e574 643c 8ca1 fbbd 4411 04bc 0c52 eabc
00000160: 5625 f3bd ba0f 97bc afad edbd bcbc 543e
00000170: 59dd 7abd 6caf 87bd 5a6e 32bd fd02 1b3d
00000180: e918 1b40 c490 dbbd 8d5c 08bd 543d ff3c
00000190: 296f 9bbd 4f98 a7bd 6b1c 33bd f73c c0bd
000001a0: b7f1 8eba 0656 efbd d72b d6bd 4f1a c8bd
000001b0: 29c8 ef3a acea a3bc e694 b6bd 083d 66bd
000001c0: 16e5 1a40 c2bc 77be 7998 acbd a10d 2ebd
000001d0: 4619 9ebd b157 e2bd 62cd 31bb 6054 2fbc
000001e0: 4b2f 443c d2b9 b0bd 0bad 593d 798c cb3f
000001f0: 3443 bcbc 4e9b d53f 2112 523d 05d2 0340
-0.077394895 -0.0049279397 -0.074927926 -0.13760373 -0.01201479 0.012044334 -0.14693688 0.026488524
0.05102591 1.9484202 -0.024661927 -0.038244016 -0.0276348 2.3889985 -0.09461511 -0.058560126
2.2424715 0.03154269 1.4048909 0.12768754 -0.03642365 -0.030803455 -0.004747847 0.055826865
-0.0002478 0.0333766 -0.050131552 2.0424857 1.9925613 -0.034155205 2.4162602 -0.122104
-0.05154342 -0.018707419 1.34871 -0.008875826 -0.039206617 -0.07106583 -0.015876917 -0.12015068
2.3787615 -0.020381484 -0.013318759 -0.051518492 2.33081 0.039226163 1.6927034 -0.09562635
-0.16509704 -0.05751041 0.02767144 1.7095662 -0.017443005 1.7101635 2.0610938 -0.09660975
-0.0057286313 1.693166 1.6969693 -0.079481035 -0.14313516 -0.012943598 -0.03766486 1.4276986
1.8341056 -0.0005444748 1.3726835 -0.01873921 -0.00024625377 1.0905786 0.057796348 1.8890055
-0.09204844 1.290438 -0.04678058 -0.015293793 2.1565044 -0.1353755 0.00867326 1.9155684
-0.089217916 -0.07087304 -0.002732192 -0.044991672 0.013943885 -0.12286672 -0.008060757 -0.028603576
-0.11872356 -0.018440116 -0.11605393 0.20775121 -0.06124625 -0.06625256 -0.04356227 0.037844647
2.4233954 -0.10720971 -0.03329139 0.031157173 -0.075895615 -0.081833474 -0.043728273 -0.09386628
-0.0010905777 -0.116863295 -0.104575805 -0.09770643 0.0018293905 -0.020009361 -0.08915119 -0.056210548
2.4202323 -0.24193099 -0.08427519 -0.042493466 -0.07719664 -0.11051882 -0.0027130474 -0.010701269
0.011974166 -0.086291924 0.053143542 1.5902244 -0.022981264 1.668802 0.05128682 2.0596936

network.4.weight f4 [12, 128]
00000000: 744d 04bd a0e8 96bd 607a 8fbc 2c03 fabc
00000010: 421a f1bc 38ab 2cbc 656b 153d f2d8 9ebd
00000020: 3e5a bbbc 34ef 573e 00b5 8eba 6521 8a3d
00000030: 2902 45bd ffc1 863e bc63 baba 1c3f c93d
00000040: e61b 4b3e 119e b23d 9c78 bc3e ad98 273e
00000050: 631f a13c 5c92 ccbc 79b2 20bd ac6a 8fbd
00000060: 3c24 4b3d fc2e 20bd b09e 2fbc aa9e 543e
00000070: 7198 6d3e 5484 2ebd d640 253f f51d 983d
00000080: bb84 0bbd 12b6 9ebd 0341 ac3e 089a dcbc
00000090: 5502 9d3d 9f66 51bd cd5c b83c 927d 233d
000000a0: d5dc 8f3e 0f81 873c b466 6e3d 3a38 d43d
000000b0: 3e9b 803e c02d e9bb c467 b63e 50cd 2cbd
000000c0: 978c 5dbc f9ac 983d 027e 503b ff99 9c3e
000000d0: c685 783d 5287 823e b348 8e3e 0f0f 8abd
000000e0: 98f6 1b3e 62b2 c43e 3565 413e 53db de3d
000000f0: d942 93bc cd3f e8bb cbc9 44bd 6b71 5f3f
00000100: fa65 4a3e 6d38 c63b 41be 193e 58da 21bd
00000110: 44be 20bd 53d6 023f 8272 773d 7ca6 8d3e
00000120: 6c74 c03d 210a 9c3e df5d 04bd ee32 43bd
00000130: bd91 f13e bebc 9d3d 0288 80bb 4f93 213f
00000140: aa99 f93c ceba b6bc 7fd0 a3bd b16c 39bd
00000150: c6c8 5e3d 57e2 c5bd 555e d1bd d416 903c
00000160: e736 d93d 0da4 983d b02d a3bc 5a20 4ebb
00000170: 9338 993d 3212 d73a 2ff4 33bd b040 44bc
00000180: 7de1 483e da43 553d 3862 043c 0069 c93b
00000190: 3109 a73c b802 5e3c 65fd 0fbd b473 01bd
000001a0: 9bfc 593d e5f3 293d 9d66 9d3b 9028 3f3c
000001b0: 2a60 dcbc b8d9 3c3c aa54 84bc 3d36 39bc
000001c0: b003 413e 4129 04be c794 b0bd 7236 00be
000001d0: eae0 033d 3ddf 96bd 7a7b 033d 612c 6dbc
000001e0: 4f91 e2bc 00a8 3bbd 8a51 873d dec0 4a3e
000001f0: eafd acbc 74ed 923e 95d6 bfbc 4b18 7c3e
00000200: 71c0 d93c ef56 9ebd a094 e03b 9f95 863c
00000210: 704f c83d 1510 3dbd f1b8 b1bd 15df 6ebc
00000220: d021 4fbc be00 7b3e cc1b 013d 67d5 493b
00000230: c1c4 c4bc 8261 853e a09f 25bd 0113 3e3b
00000240: ced0 243e 4ed4 b83c 39e7 c63e 32d6 063e
00000250: 5c3a 803d 755b 433d eafd c13d 7bc5 afbd
00000260: 3a31 d33d 8990 aebc 21f6 993d 16af ad3e
00000270: 21a7 693e 58af 8a3b 9f1a 3d3f df26 8bbd
00000280: b51c 9e3c 5f87 6a39 5657 c53e 007c 0db9
00000290: cfdb 893c 09ed a0bd efac ac3d 80e6 1f3a
000002a0: 02d0 a93e c0e6 8bbd fcf9 debd 9e56 80bd
000002b0: 6041 5a3e d3e2 59bc 9857 ca3e 59fc 3b3c
000002c0: 77ae 12bc 5f1c 6d3d abef bdbd b27b a73e
000002d0: 4446 36bc 1f4f 723e 8b2c b13e 2083 01bb
000002e0: 6715 8e3d 7e62 fe3e 0f34 3d3e b6b1 203d
000002f0: 0871 6f3c 7b0d 513c cab7 423d 274c 623f
00000300: ee43 593e 6ec0 a43c c8bd 073e 7fc3 b63c
00000310: 7e72 f43c 19d5 143f 179a 1cbd 751c 873e
00000320: 1754 e6bc c469 c43e 2e5d e43c 678b 1ebd
00000330: 7973 c63e ffe0 6f3c 9a46 773d eee4 313f
00000340: 50eb 123d 6975 2f3d c157 983d cc0e 8bbd
00000350: e6a5 28bd 5221 e1bc fec9 e03b 1088 c2bd
00000360: d60a 85bc 1309 8a3d d53e b4bd 9d68 893d
00000370: 7bae 923c 9a82 b1bd d36b 75bd 053f 03bd
00000380: 5ccd 883e c844 bdbb 8dd1 f33c 5b31 04bb
00000390: 2dba dfba 8e99 6e3d 8723 973d d491 ad3d
000003a0: 896e abbd 1102 4a3c 5835 963c 80bb 813a
000003b0: 9477 583c dac2 333d 682e 653d 8d91 b23c
000003c0: 6732 383e e650 0cbe dd06 94bd 73ee 8b3d
000003d0: 7051 24bd 4237 17bd e8f4 d93c 50e7 9c3c
000003e0: 899e 46bc 6571 d63c d8f8 d93a 79df 8c3d
000003f0: 8e43 403d 5f34 8f3e 22fe 23bb bc40 893e
-0.032300428 -0.073685884 -0.017514408 -0.03051909 -0.029431466 -0.010538869 0.036479373 -0.07756223
-0.02287018 0.21087343 -0.0010887682 0.06744651 -0.048097763 0.26319882 -0.0014220397 0.0982649
0.19834861 0.08721555 0.36810768 0.16366835 0.019668287 -0.024972133 -0.039232705 -0.07002768
0.049595103 -0.039107308 -0.010718986 0.2076365 0.23202683 -0.042606667 0.64552057 0.07427589
-0.03406213 -0.07749571 0.3364335 -0.026928917 0.076664604 -0.051123258 0.022505188 0.039914675
0.2809817 0.016541032 0.058203414 0.10362287 0.2511844 -0.0071160495 0.35626042 -0.04218799
-0.013522289 0.07454867 0.0031813388 0.3058624 0.06067445 0.25493866 0.2778984 -0.067411534
0.15230787 0.38417345 0.18886264 0.108816765 -0.017976211 -0.007087684 -0.048044007 0.8728244
0.19765463 0.006049207 0.15013982 -0.03951487 -0.03924395 0.5110828 0.060411938 0.2766608
0.09397206 0.30476478 -0.032316085 -0.047655992 0.47181502 0.07702015 -0.0039224634 0.631154
0.03046878 -0.022305872 -0.07998752 -0.04526967 0.05439069 -0.096623115 -0.102230705 0.01758901
0.10606175 0.07453165 -0.019919246 -0.0031452389 0.07481494 0.0016408621 -0.043934043 -0.011978313
0.19617267 0.05206666 0.008080058 0.00614655 0.020390125 0.013550453 -0.035153765 -0.031604484
0.05321942 0.04149236 0.004803492 0.011667386 -0.026901323 0.011526518 -0.016153652 -0.011304435
0.18849063 -0.12906362 -0.08622127 -0.12520769 0.032196917 -0.07366798 0.03210018 -0.014475913
-0.02765718 -0.045814514 0.06607349 0.19800135 -0.02111717 0.28696787 -0.02341775 0.24618642
0.026581021 -0.07731425 0.006853655 0.016428767 0.097807765 -0.046157915 -0.08677853 -0.014579554
-0.012642339 0.24512002 0.03152065 0.0030797364 -0.0240196 0.26050955 -0.040435433 0.0029003026
0.16095278 0.022562172 0.38848284 0.13167647 0.06261131 0.047694642 0.094722584 -0.08582588
0.103121236 -0.021309154 0.075176485 0.33922642 0.22817661 0.0042323284 0.73868746 -0.067945234
0.019300798 0.00022366409 0.38543195 -0.00013493001 0.016828446 -0.07857711 0.08431422 0.0006099716
0.3316651 -0.068311214 -0.108875245 -0.06266521 0.21314001 -0.013298708 0.39519954 0.011473739
-0.0089527285 0.057888385 -0.09274229 0.3271156 -0.011125151 0.23662995 0.34604296 -0.0019761994
0.06937676 0.4968452 0.1847689 0.03923198 0.014614351 0.012759562 0.047538556 0.8839745
0.2121732 0.020111289 0.1325599 0.022310017 0.02983975 0.5813766 -0.03823289 0.26388898
-0.028116269 0.38361943 0.027876463 -0.038707163 0.38759974 0.014641046 0.060370065 0.69489944
0.035868943 0.04283658 0.07438613 -0.06789932 -0.041173838 -0.027481709 0.006860017 -0.09498608
-0.016240519 0.06740012 -0.08801047 0.067094065 0.017905464 -0.086674884 -0.059917282 -0.032042522
0.26719177 -0.0057760216 0.029763008 -0.002017102 -0.0017069035 0.05825191 0.07379823 0.0847508
-0.08370692 0.012329594 0.018335983 0.0009897798 0.013212103 0.043886997 0.05595246 0.02179792
0.17987977 -0.13702735 -0.072278716 0.0683259 -0.040116727 -0.036917932 0.026606038 0.019153267
-0.012122759 0.026177118 0.0016629947 0.068785615 0.046939425 0.27969643 -0.00250233 0.268072

network.4.bias f4 [12]
00000000: 4ce7 163f 108b eb3f 7405 873f 81df dc3f
00000010: 6ee2 1a40 b308 613f 8cbf ca3f f00a af3f
00000020: c2e4 1fbf fabb 993f d4d5 0b40 2e6f bc3f
0.5894668 1.8401814 1.0548539 1.7255708 2.4200702 0.879039 1.5839705 1.3675213
-0.6245843 1.2010491 2.184926 1.4721429
