ml_saves/model_episode_600.pth (torch, 575376 bytes, 24 tensors)

network.0.weight f4 [128, 134]
-0.02233376 -0.0012867904 -0.050169293 -0.06858369 -0.06648884 -0.05607349 0.043716654 -0.027435504
-0.05430072 -0.020636357 -0.03133394 0.013325751 0.058845088 0.08229135 -0.025623068 -0.015988998
-0.05582232 0.072422355 -0.067933574 0.083609745 0.03827078 0.0046650693 0.04128982 -0.020894304
0.012096681 -0.052551657 0.03224565 0.08005245 -0.0792293 0.049030825 0.0066783875 0.03172171
0.026037782 0.07292639 0.05892214 -0.0650717 0.0070866346 -0.028428573 -0.017465375 0.0016442686
-0.05797107 -0.0031804666 -0.051674083 0.03914918 -0.0052225366 -0.07287306 0.005520858 -0.079618685
0.06491473 0.06883006 -0.079480134 -0.06784031 0.005027361 -0.014503531 -0.061261505 -0.032499522
-0.063573584 -0.014830925 -0.077079915 -0.039996374 -0.040237162 -0.033610564 0.06872216 -0.054310277
-0.0429992 0.058543578 -0.00494536 -0.03458459 -0.03896138 -0.02084773 0.0020533279 -0.06310498
-0.0060559064 0.038300723 0.008872926 0.08099872 0.0355715 -0.074518226 0.039227694 0.027666532
-0.058890756 -0.07133648 -0.01406505 -0.075129986 -0.029599056 -0.05599297 0.046295926 0.0024266243
-0.016079508 0.03893429 0.052367628 -0.08509817 0.013030462 -0.06900165 -0.04982546 0.08060177
0.07879412 -0.06482257 -0.01680985 -0.0030500144 -0.064072005 -0.056775235 0.06252599 0.058773443
0.04980658 -0.07578069 -0.021872677 -0.078946754 -0.017139807 -0.0844602 -0.021791048 -0.03930722
0.07346462 0.00705301 0.01611048 -0.008326754 -0.035972685 -0.046037957 -0.07062159 -0.011299193
0.02289205 0.015139826 0.075133756 0.05081521 0.033366963 0.0053534433 -0.016593896 -0.07854977
0.063946694 -0.022690266 0.061546862 0.039938197 0.0676025 0.0040844604 -0.024264598 -0.01966433
-0.0065908954 0.08352956 0.03534045 -0.01690492 -0.06335648 -0.02731961 -0.076891676 0.032945275
-0.04203379 0.019062579 0.06986046 0.046676517 0.078947335 -0.06444542 -0.069679886 0.05965379
-0.06311573 -0.010345355 -0.0245012 0.035797246 -0.021271951 -0.0589756 -0.00921423 0.06275791
0.011686228 0.065253615 -0.04151875 0.020521887 -0.046942472 -0.07544623 -0.06439044 -0.045830593
0.051620275 -0.07435501 0.03740619 0.027917363 -0.0771954 0.015839018 -0.041749515 -0.05613914
0.058167666 0.06418796 -0.08272022 -0.02835526 0.023080662 0.0020631552 -0.06357501 0.06404212
0.04112813 0.055851087 -0.027498715 0.020048894 -0.0653952 0.055738375 0.032214828 0.059821144
0.022477053 -0.030781105 0.04883389 -0.043546945 -0.08469327 -0.02511255 0.05108282 0.06570451
-0.041607678 -0.06321238 0.051716253 -0.07107833 0.010394596 -0.056718368 -0.024088629 0.055581138
-0.00923337 -0.010731198 -0.04009913 -0.07186097 0.080296904 -0.021547124 0.058361977 -0.053735137
0.06786394 0.04447341 -0.022338837 -0.031652234 -0.08091638 -0.05272823 -0.0723697 0.005872138
0.0021103993 -0.04736281 -0.045445487 -0.07077308 0.00034470856 0.07887119 -0.02899563 -0.04727856
-0.012058295 0.04512985 -0.045471758 -0.014036313 0.062215894 0.018366776 0.0550462 0.07969926
-0.06314354 -0.072596475 0.04031302 0.0013414845 0.06602305 -0.013987407 -0.019107953 -0.043677095
-0.03286739 -0.025739416 0.019346759 0.020496964 0.06957078 -0.08386586 -0.003222622 0.0018602088
00000000: 4af5 b6bc 85a9 a8ba 517e 4dbd 9b75 8cbd
00000010: 4d2b 88bd 51ad 65bd 3c10 333d 6cc0 e0bc
00000020: 6f6a 5ebd 940d a9bc 0458 00bd 4054 5a3c
00000030: 8c07 713d 5e88 a83d 78e7 d1bc 5cfb 82bc
00000040: f2a5 64bd 2c52 943d c220 8bbd 963b ab3d
00000050: d2c1 1c3d 70dd 983b 841f 293d 882a abbc
00000060: 2831 463c 6840 57bd 0414 043d 8af2 a33d
00000070: f942 a2bd 8cd4 483d 60d6 da3b a0ee 013d
00000080: 304d d53c 6e5a 953d 5858 713d 5044 85bd
00000090: 0037 e83b 0ae3 e8bc 8c13 8fbc 8084 d73a
000000a0: 1373 6dbd 606f 50bb 34a8 53bd e45a 203d
000000b0: d021 abbb 793e 95bd 50e8 b43b 1f0f a3bd
000000c0: 04f2 843d c6f6 8c3d 7bc6 a2bd dcef 8abd
000000d0: 90bc a43b 38a0 6dbc 58ed 7abd 381e 05bd
000000e0: de32 82bd 68fd 72bc 13dc 9dbd 3dd3 23bd
000000f0: b9cf 24bd 3bab 09bd 34be 8c3d 7474 5ebd
00000100: ee1f 30bd 64cb 6f3d b00c a2bb 92a8 0dbd
00000110: f895 1fbd dcc8 aabc 2091 063b 2f3d 81bd
00000120: a070 c6bb 38e1 1c3d c05f 113c a8e2 a53d
00000130: 6cb3 113d 039d 98bd 38ad 203d eca4 e23c
00000140: 6f37 71bd dc18 92bd 1871 66bc c0dd 99bd
00000150: b879 f2bc e258 65bd cca0 3d3d 0008 1f3b
00000160: 2cb9 83bc 9079 1f3d 707f 563d f347 aebd
00000170: b87d 553c bd50 8dbd c815 4cbd 8a12 a53d
00000180: d05e a13d b2c1 84bd d0b4 89bc c0e2 47bb
00000190: 2f38 83bd 268d 68bd a00d 803d 6cbc 703d
000001a0: fc01 4c3d e832 9bbd 542e b3bc d6ae a1bd
000001b0: c868 8cbc 78f9 acbd 2483 b2bc 9c00 21bd
000001c0: 9e74 963d f01c e73b 20fa 833c f06c 08bc
000001d0: 1858 13bd 4c92 3cbd 0da2 90bd 4020 39bc
000001e0: 1c88 bb3c 080d 783c badf 993d 9c23 503d
000001f0: ccab 083d f06b af3b ecef 87bc b4de a0bd
00000200: 7cf6 823d f0e0 b9bc 9018 7c3d 3c96 233d
00000210: 2e73 8a3d f0d6 853b 8dc6 c6bc 1717 a1bc
00000220: 70f8 d7bb 8c11 ab3d 26c1 103d 307c 8abc
00000230: 0bc1 81bd 60cd dfbc 6279 9dbd a0f1 063d
00000240: a02b 2cbd 2029 9c3c 0013 8f3d e02f 3f3d
00000250: 24af a13d f6fb 83bd 54b4 8ebd 8857 743d
00000260: d242 81bd 907f 29bc beb6 c8bc 22a0 123d
00000270: 8442 aebc 6690 71bd 48f7 16bc 3887 803d
00000280: 9877 3f3c b0a3 853d 910f 2abd 841d a83c
00000290: c046 40bd 8e83 9abd 23df 83bd dcb8 3bbd
000002a0: c86f 533d 7147 98bd 3c37 193d f4b2 e43c
000002b0: 9f18 9ebd d4c0 813c 8a01 2bbd 28f2 65bd
000002c0: 3841 6e3d fa74 833d 3869 a9bd 4a49 e8bc
000002d0: a813 bd3c 0036 073b 9d33 82bd 8428 833d
000002e0: f875 283d 1cc4 643d fc44 e1bc 943d a43c
000002f0: ebed 85bd ec4d 643d b2f3 033d 0407 753d
00000300: cc21 b83c a828 fcbc 0c06 483d 485e 32bd
00000310: aa73 adbd d6b8 cdbc 383c 513d 1690 863d
00000320: d06c 2abd 7e75 81bd 6cd4 533d 8491 91bd
00000330: 184e 2a3c 8551 68bd 8455 c5bc 0ca9 633d
00000340: 9047 17bc e8d1 2fbc fc3e 24bd d82b 93bd
00000350: b472 a43d 9883 b0bc f80c 6f3d 6019 5cbd
00000360: 40fc 8a3d c029 363d f0ff b6bc c6a5 01bd
00000370: 7db7 a5bd 8ef9 57bd 9136 94bd 106b c03b
00000380: a04e 0a3b 81ff 41bd 0c25 3abd 7af1 90bd
00000390: 00ba b439 3887 a13d 3e88 edbc 2aa7 41bd
000003a0: 2890 45bc 14da 383d 9840 3abd 90f8 65bc
000003b0: 18d6 7e3d ec75 963c 2078 613d 5e39 a33d
000003c0: 6651 81bd 76ad 94bd 441f 253d c0d4 af3a
000003d0: 1837 873d 702b 65bc 4888 9cbc c1e6 32bd
000003e0: f59f 06bd 78db d2bc 187d 9e3c 40e9 a73c
000003f0: 207b 8e3d ddc1 abbd a032 53bb 40d2 f33a

network.0.bias f4 [128]
0.8220267 0.59889585 -0.0028465483 0.5984279 0.60222566 -0.08904841 -1.640583 -0.014568534
0.7616006 7.03984 6.467782 -0.078908294 1.6445674 0.0024459881 -0.11162477 0.070474595
-0.09654904 0.5718949 0.600734 10.790154 0.025476603 9.383885 4.8087697 1.2216871
-0.08220753 -0.055081625 6.639904 0.019783037 0.032614775 0.017508656 12.778015 -0.09555531
-0.0461472 -0.0077931816 8.737631 -8.059747 0.036392692 -0.001373941 -0.10940806 -0.025078915
6.933933 0.019074216 -6.5111427 -4.9976664 7.616821 -0.09648241 1.8687015 -0.09252697
-0.1188823 -0.37382755 -0.013433239 -0.016152969 1.0159531 0.009818096 0.86367255 -0.06291042
4.371795 -0.5043803 0.011699957 -3.3884254 -0.06434378 5.478031 -0.09542247 -0.016441304
11.84796 6.391039 1.5283198 8.482668 -4.604835 -0.063463375 -0.030190095 -0.073916085
0.83003265 -0.02583064 -0.08187859 1.870263 5.791055 1.064558 -1.4142073 0.019498797
0.005745597 -1.1994597 0.014500038 -0.075961486 -0.048861668 -0.11499338 0.030415462 -0.12085419
9.16158 0.031180179 -0.062416017 4.8615375 1.5095158 -0.8192573 0.05445045 -0.03367075
-7.594184 -0.029946378 0.010759015 0.017898398 0.025658928 6.4586163 -0.07986021 -0.087379
0.016549233 5.1591573 0.025284246 -0.05700547 5.361438 -0.059660252 4.808175 8.182757
0.58388597 9.60914 0.043338805 -0.062101513 -0.06621601 -0.02362661 10.790841 -0.036947366
-4.2302113 9.532387 10.0467 -0.050684266 9.955917 -0.048816133 -0.06884191 -0.11109239
00000000: 5870 523f 3d51 193f 288d 3abb 9232 193f
00000010: 762b 1a3f 035f b6bd a0fe d1bf dcb0 6ebc
00000020: 42f8 423f 5f46 e140 12f8 ce40 ac9a a1bd
00000030: 2f81 d23f df4c 203b 879b e4bd fc54 903d
00000040: 81bb c5bd b467 123f b4c9 193f 79a4 2c41
00000050: 4fb4 d03c 6524 1641 71e1 9940 3e60 9c3f
00000060: 6c5c a8bd 459d 61bd 187a d440 0910 a23c
00000070: 1297 053d 506e 8f3c c072 4c41 81b2 c3bd
00000080: d904 3dbd f25d ffbb 56cd 0b41 b9f4 00c1
00000090: 8110 153d cf15 b4ba 5511 e0bd 4c72 cdbc
000000a0: c7e2 dd40 8841 9c3c 485b d0c0 e2ec 9fc0
000000b0: ffbc f340 9298 c5bd 9c31 ef3f c87e bdbd
000000c0: 9078 f3bd 5366 bfbe 1717 5cbc 3b53 84bc
000000d0: c00a 823f 14dc 203c a519 5d3f 2ed7 80bd
000000e0: bfe5 8b40 111f 01bf 2db1 3f3c f6db 58c0
000000f0: acc6 83bd 084c af40 db6c c3bd eaaf 86bc
00000100: 3f91 3d41 6483 cc40 fc9f c33f 02b9 0741
00000110: cf5a 93c0 16f9 81bd 3851 f7bc 5161 97bd
00000120: 057d 543f c79a d3bc f6af a7bd c764 ef3f
00000130: 5350 b940 7043 883f bf04 b5bf f1bb 9f3c
00000140: 9045 bc3b e587 99bf 9191 6d3c b291 9bbd
00000150: 2c23 48bd a681 ebbd d929 f93c 6782 f7bd
00000160: d595 1241 936d ff3c f0a7 7fbd b791 9b40
00000170: d037 c13f d9ba 51bf 6f07 5f3d 57ea 09bd
00000180: 8e03 f3c0 1b52 f5bc 9446 303c a99f 923c
00000190: ac32 d23c fcac ce40 c08d a3bd c3f3 b2bd
000001a0: 4292 873c d117 a540 e820 cf3c 917e 69bd
000001b0: e690 ab40 4f5e 74bd 92dc 9940 93ec 0241
000001c0: 8d79 153f 0abf 1941 0884 313d 285e 7ebd
000001d0: 429c 87bd 988c c1bc 49a7 2c41 1f56 17bd
000001e0: e45d 87c0 a884 1841 48bf 2041 4e9a 4fbd
000001f0: 704b 1f41 6df3 47bd fdfc 8cbd 6884 e3bd

network.2.weight f4 [128, 128]
0.033597674 0.062141005 -0.029492553 0.056892537 -0.09431578 0.048923448 -0.023252463 -0.07602266
0.047901426 0.04690675 -0.068531066 -0.053641707 0.037354246 -0.08026598 -0.042973243 0.040027402
-0.0019241348 -0.06973112 -0.033783868 0.006443953 -0.033090893 0.004750106 -0.036776166 -0.008053442
-0.048272796 0.06633145 -0.08053429 -0.032133706 0.048080213 0.012281917 -0.16088407 0.05001818
0.0076444373 -0.003679768 -0.15217137 -0.1025436 0.04709173 0.07642148 -0.04755649 0.07904988
0.019103386 0.02060832 -0.10758062 -0.052513774 -0.12623067 -0.07641617 -0.08138054 -0.07561985
0.06769991 0.07894558 -0.074716896 -0.014531031 -0.013544383 0.04847157 -0.065151975 -0.028812133
0.022745574 0.056872148 -0.06856003 0.010229563 0.012423815 -0.029699458 -0.07423104 -0.029883929
-0.0658683 -0.062670894 0.041491278 -0.06917025 -0.017129235 0.009905942 -0.07327967 -0.021693893
0.050944775 0.014785595 0.06401717 -0.03984066 0.03400369 -0.038814098 -0.063902706 0.04116357
-0.04583943 0.033764213 0.06268037 -0.011791602 -0.0035387725 0.002539888 -0.08026608 0.04707595
0.0043494976 -0.0655866 0.059291147 -0.086337864 0.011473666 -0.051526353 0.007236149 -0.046209972
-0.017582739 -0.04410963 -0.07110732 0.061977927 0.066214375 0.0085481135 -0.05640775 -0.06861128
0.03886514 -0.053915225 -0.046908263 0.039106734 0.040353265 0.02000729 0.030253243 -0.041055758
0.047104627 -0.10788501 -0.008064598 -0.01280579 -0.0029334472 0.00915166 -0.016030854 0.0014788137
0.035073206 0.04007185 -0.05449078 -0.06296734 -0.04499792 -0.07790067 0.043221228 -0.07883518
-0.07966685 0.026329497 0.07749573 0.006462376 0.000634662 0.059504844 -0.21798208 0.023375541
-0.09941764 0.6071891 0.972841 0.05775968 -0.07534017 -0.085020915 0.011166699 -0.07358518
-0.045883145 0.034114793 0.009664815 -0.0069912313 0.026666194 -0.21044804 0.64962053 -0.093875706
0.026755452 0.069712825 1.1148251 0.009672873 0.042865925 -0.005195096 0.1197244 -0.05499501
0.001920402 -0.029234096 -0.15194432 -0.7132458 -0.023469314 -0.005007067 0.009721793 -0.004427366
0.16228834 0.03446214 -0.22997953 -1.462109 0.7582596 -0.053912465 0.52020377 0.0056832256
0.030038983 -0.016056158 0.06172376 0.00061157346 -0.3611321 0.015343338 -0.10211913 -0.0019355342
-0.07253018 -0.534875 0.06842848 -0.49466392 -0.07564882 1.5291373 0.043829896 0.08687062
-0.13753927 0.0060555013 0.0069099492 0.07150157 -0.7221753 0.028430842 0.06630228 0.07734691
-0.090952195 0.033729024 0.07119916 0.11298697 0.10279819 -0.057951342 -0.5553483 0.03062507
-0.0027811825 -0.61361986 0.06401435 0.0817493 -0.08763712 -0.053325415 -0.07646378 0.014647871
-0.069750816 -0.070681095 0.058690287 1.6177253 -0.046280485 -0.87990123 0.049029686 0.0044737486
-0.3856653 -0.044818737 -0.0036954135 0.02663847 0.011116609 0.35125163 -0.081451215 0.075452454
-0.10419819 -0.4305056 0.097502835 -0.044435263 0.3213846 -0.021684892 -0.37021202 -0.12321978
-0.12105414 -0.17960566 -0.0053550526 -0.053434618 0.080670886 -0.011434808 0.28265923 0.07901
-0.6090033 0.24343792 -0.2422534 -0.056806605 -0.6371532 0.109053425 0.046416685 0.07492169
00000000: b79d 093d 9187 7e3d 5e9a f1bc 2608 693d
00000010: a228 c1bd f463 483d f37b bebc c5b1 9bbd
00000020: 4934 443d 4b21 403d 045a 8cbd 68b7 5bbd
00000030: c400 193d 7d62 a4bd b604 30bd c6f3 233d
00000040: 4033 fcba 30cf 8ebd f460 0abd cc27 d33b
00000050: 518a 07bd c7a6 9b3b 9ba2 16bd 96f2 03bc
00000060: b2b9 45bd c9d8 873d 29ef a4bd a29e 03bd
00000070: c2ef 443d 183a 493c cbbe 24be dddf 4c3d
00000080: 307e fa3b 4328 71bb d0d2 1bbe 6102 d2bd
00000090: 42e3 403d dd82 9c3d 98ca 42bd e7e4 a13d
000000a0: b47e 9c3c c8d2 a83c 3a53 dcbd af18 57bd
000000b0: 9d42 01be 1580 9cbd d7aa a6bd 94de 9abd
000000c0: 40a6 8a3d 38ae a13d 2c05 99bd 9013 6ebc
000000d0: 43e9 5dbc 208a 463d 666e 85bd 6c07 ecbc
000000e0: ed54 ba3c c5f2 683d 3369 8cbd e699 273c
000000f0: 428d 4b3c 474c f3bc 7206 98bd 24cf f4bc
00000100: f6e5 86bd 9959 80bd c2f2 293d 22a9 8dbd
00000110: 9c52 8cbc 884c 223c a713 96bd 64b7 b1bc
00000120: 78ab 503d 483f 723c 6f1b 833d f62f 23bd
00000130: 7447 0b3d 88fb 1ebd 6cdf 82bd 229b 283d
00000140: 20c2 3bbd 584c 0a3d 915e 803d 9031 41bc
00000150: c0ea 67bb 4074 263b 8b62 a4bd b6d2 403d
00000160: 3b86 8e3b 4452 86bd 46db 723d e8d1 b0bd
00000170: 0bfc 3b3c 4c0d 53bd 381d ed3b ab46 3dbd
00000180: ad09 90bc 4dac 34bd b7a0 91bd 91dc 7d3d
00000190: 679b 873d 630d 0c3c d00b 67bd 1284 8cbd
000001a0: 0e31 1f3d 36d6 5cbd e122 40bd 622e 203d
000001b0: 7749 253d 54e6 a33c a6d5 f73c 152a 28bd
000001c0: c8f0 403d d1f2 dcbd 6021 04bc 60cf 51bc
000001d0: 143f 40bb d8f0 153c 2353 83bc c1d4 c13a
000001e0: eca8 0f3d 6122 243d b931 5fbd 05f5 80bd
000001f0: bd4f 38bd 638a 9fbd be08 313d 5774 a1bd
00000200: 6028 a3bd f5b0 d73c 15b6 9e3d 57c2 d33b
00000210: 725f 263a 5abb 733d b236 5fbe 107e bf3c
00000220: 7a9b cbbd bf70 1b3f 1c0c 793f 6a95 6c3d
00000230: f24b 9abd 721f aebd 88f4 363c d4b3 96bd
00000240: f7ef 3bbd f4bb 0b3d 2c59 1e3c b316 e5bb
00000250: 1073 da3c b17f 57be 884d 263f e841 c0bd
00000260: 402e db3c 99c5 8e3d 97b2 8e3f f87a 1e3c
00000270: 2e94 2f3d a03b aabb 1132 f53d 7342 61bd
00000280: 00b6 fb3a 587c efbc 4b97 1bbe 4797 36bf
00000290: b842 c0bc 5312 a4bb 2848 1f3c 7013 91bb
000002a0: ea2e 263e 2c28 0d3d c17f 6bbe 6326 bbbf
000002b0: 4d1d 423f 51d3 5cbd 132c 053f 5a3a ba3b
000002c0: 5014 f63c 3488 83bc 0ed2 7c3d 0052 203a
000002d0: 4ee6 b8be a062 7b3c d623 d1bd c0b1 fdba
000002e0: b48a 94bd 91ed 08bf 3b24 8c3d 9744 fdbe
000002f0: c5ed 9abd c5ba c33f fa86 333d 39e9 b13d
00000300: 18d7 0cbe 3a6d c63b db6c e23b 6a6f 923d
00000310: 7be0 38bf cce7 e83c 7dc9 873d 0f68 9e3d
00000320: 2545 babd 7227 0a3d ddd0 913d b665 e73d
00000330: dc87 d23d 635e 6dbd 4e2b 0ebf 6de1 fa3c
00000340: 8044 36bb 3116 1dbf f519 833d 2d6c a73d
00000350: 177b b3bd c06b 5abd 0b99 9cbd a0fd 6f3c
00000360: 84d9 8ebd 40c1 90bd 3a65 703d 9f11 cf3f
00000370: 9b90 3dbd 3541 61bf 5ad3 483d 8698 923b
00000380: ec75 c5be da93 37bd c02e 72bb ec38 da3c
00000390: 7022 363c 41d7 b33e e5cf a6bd d186 9a3d
000003a0: dc65 d5bd 3b6b dcbe 91af c73d c001 36bd
000003b0: 868c a43e 84a4 b1bc 6e8c bdbe a75a fcbd
000003c0: 3ceb f7bd 8cea 37be 7079 afbb 42de 5abd
000003d0: c736 a53d 1059 3bbc b6b8 903e ffcf a13d
000003e0: a4e7 1bbf ca47 793e 4611 78be 0bae 68bd
000003f0: 791c 23bf 6757 df3d 6c1f 3e3d 8b70 993d

network.2.bias f4 [128]
-0.092005335 2.3679054 -0.054589618 -0.06343573 9.054452 -0.15221895 8.023319 6.547202
-0.10952763 -0.056855146 -0.06893229 -0.11272884 -0.031042691 -0.07211718 0.043687582 3.1997604
-0.101830825 7.9767666 0.6829236 8.193712 6.4602914 -0.039663624 4.44904 -0.08319661
10.417607 -0.054780606 9.461993 -0.062124815 -0.14903024 7.790077 9.976289 10.148101
0.009973371 7.5282 0.029156873 8.531708 6.1869864 9.818451 8.256173 -0.11102456
0.023598216 -0.12678508 0.011854239 -0.017051782 -0.06535687 -0.08004999 10.319318 -0.086763375
-0.06524336 6.5687933 8.466201 0.37156278 11.0078 -0.013392095 8.606625 10.034263
-0.05605773 -0.09988674 2.5693831 8.781471 11.081086 7.5760274 -0.017256375 -0.03462717
-0.07597072 -0.04657834 8.040874 -0.19916515 10.595768 0.010915892 9.0441475 10.1002865
-0.011184892 -0.14665903 8.58 8.142159 9.001224 -0.0828504 -0.2888814 -0.7638532
-0.056848403 -0.12068065 -0.1362868 1.229143 8.011298 -0.09298792 10.57226 -0.037385534
-0.014408679 0.009665063 10.524109 7.62319 0.0076944013 -0.15628938 -0.08866854 0.057022963
9.363855 9.200471 -0.09120975 -0.08632098 -0.32684845 -0.16353302 8.550974 0.019750074
-0.15353665 3.1318603 -0.016242342 -0.0101340655 -0.099692576 8.743569 0.025205344 -0.17772205
1.784881 -0.20894998 -0.13876943 -7.373848 0.015069843 9.072452 0.011903851 -0.10581841
-0.08491686 -0.054915152 -0.08530539 -0.07146343 -0.02166243 9.690491 -0.09501216 7.53104
00000000: 4b6d bcbd c38b 1740 5d99 5fbd 98ea 81bd
00000010: 09df 1041 49df 1bbe 845f 0041 ae82 d140
00000020: 0650 e0bd f1e0 68bd 5f2c 8dbd 61de e6bd
00000030: 3e4d febc 2cb2 93bd c0f1 323d e0c8 4c40
00000040: ae8c d0bd ac41 ff40 15d4 2e3f 7219 0341
00000050: b5ba ce40 5376 22bd 895e 8e40 fc62 aabd
00000060: 85ae 2641 a161 60bd 5364 1741 9776 7ebd
00000070: 629b 18be 5048 f940 e19e 1f41 9f5e 2241
00000080: 5a67 233c 04e7 f040 65da ee3c e081 0841
00000090: cbfb c540 6018 1d41 4919 0441 d860 e3bd
000000a0: 0c51 c13c f3d3 01be 4838 423c 2eb0 8bbc
000000b0: d3d9 85bd 40f1 a3bd ed1b 2541 ffb0 b1bd
000000c0: 509e 85bd 8e33 d240 8f75 0741 7a3d be3e
000000d0: f31f 3041 856a 5bbc bcb4 0941 578c 2041
000000e0: ca9c 65bd 6b91 ccbd c670 2440 e880 0c41
000000f0: 214c 3141 d16e f240 3e5d 8dbc 38d5 0dbd
00000100: 8996 9bbd eec8 3ebd 6ba7 0041 f3f1 4bbe
00000110: 4488 2941 92d8 323c d4b4 1041 c69a 2141
00000120: d640 37bc c92d 16be ae47 0941 4946 0241
00000130: 0305 1041 78ad a9bd 43e8 93be e28b 43bf
00000140: dfd9 68bd 6b27 f7bd c48e 0bbe 8f54 9d3f
00000150: 472e 0041 7370 bebd fa27 2941 9321 19bd
00000160: 6112 6cbc 365a 1e3c c062 2841 2cf1 f340
00000170: 5121 fc3b 530a 20be da97 b5bd e990 693d
00000180: 5ad2 1541 2135 1341 2dcc babd 0ec9 b0bd
00000190: ae58 a7be 3375 27be cad0 0841 e8ca a13c
000001a0: b638 1dbe 6670 4840 a90e 85bc 5a09 26bc
000001b0: 9f2b ccbd a9e5 0b41 707b ce3c c5fc 35be
000001c0: fb76 e43f fcf6 55be 9319 0ebe 90f6 ebc0
000001d0: 81e7 763c c328 1141 5f08 433c 53b7 d8bd
000001e0: e4e8 adbd b6ee 60bd 98b4 aebd 6b5b 92bd
000001f0: 6975 b1bc 400c 1b41 bc95 c2bd 48fe f040

network.4.weight f4 [12, 128]
0.00080103154 0.71784997 -0.032066848 -0.011205211 1.2644053 0.031776443 1.5366722 0.7680291
0.027429827 0.07616653 -0.03480394 -0.08127419 -0.08604792 -0.077047735 -0.08563849 0.5354565
-0.013607912 1.1374416 0.33042353 1.2288647 1.9496386 0.06827411 1.1424713 0.029380716
0.958182 -0.043803915 0.8458457 0.017758492 0.08289376 1.7053176 1.2389542 1.1798196
-0.095121734 2.0931435 0.0012131508 1.8103702 0.6591915 1.039809 1.1962013 -0.009527543
-0.014591396 0.009504227 0.028884726 0.041160535 0.024388822 0.054180134 0.6688421 0.032302592
-0.010131084 2.3965406 1.6141075 0.10186625 1.032363 0.1134638 1.4464495 0.5994636
-0.031683862 -0.03705793 0.7497027 1.5723675 0.4319665 1.5251572 -0.073870115 -0.017929683
-0.0023671528 0.05289212 0.9237916 -0.012552573 0.84770364 0.0031518969 1.3145595 1.9933435
-0.03236483 0.030126298 0.8598197 1.4542316 1.13729 0.057156086 0.026033103 -0.012479674
0.0013435482 0.37422538 0.004902059 0.41331592 1.0698748 -0.0115389805 0.5920439 0.081634946
-0.057124145 0.045980237 1.4673928 1.3244357 -0.0019175283 -0.0069093322 0.13003027 -0.05425139
1.1983459 1.6675448 -0.0040080124 0.00021095574 0.027496036 0.02287299 1.0883787 0.008550539
0.038019672 1.4338648 0.06903008 0.003866232 0.13138875 1.464845 -0.030235007 -0.02658841
0.6776662 0.56078917 0.043662984 -0.9086203 -0.045592703 1.1694129 0.038640436 0.035445653
-0.004173141 -0.015165362 -0.008662715 -0.027827336 0.04972104 1.0412 0.027328528 1.6380707
-0.057305038 1.1659821 0.0033456644 -0.08273147 1.2737077 -0.032597024 1.3799558 0.7960434
-0.04574544 0.046978585 0.10685937 0.053783882 0.012171483 0.11384335 0.08715444 0.5620012
0.0025073066 1.0550505 -0.061914284 1.3249525 2.280411 -0.06369871 1.6687517 0.083943285
0.82913 -0.043788616 1.1044049 -0.009477457 -0.079413846 1.7839826 1.5680394 1.17999
0.04007954 2.1685233 0.08180358 1.6352631 0.6397793 0.9925094 1.3601003 -0.072259925
-0.026934069 0.06949457 -0.09400746 -0.023599055 0.11051898 -0.021659931 0.69559264 -0.019081715
-0.0583923 2.3911004 1.2526976 0.09604267 0.9754676 0.08931099 1.4436055 0.60979164
0.010325688 -0.046117093 0.7639776 1.6542802 0.4345204 1.3050613 -0.018242523 0.042544674
-0.0018747827 -0.0045353305 0.7279069 0.023029247 1.0293685 -0.07496117 0.88495475 1.712636
-0.07458108 0.054911885 1.3269013 1.54581 1.207449 0.08781113 0.07732537 0.43152243
0.03702436 -0.17864212 -0.024355808 0.4455803 1.2166741 -0.046077292 0.69390434 -0.018522242
-0.013678858 -0.02121806 1.6711694 1.7712687 0.047225345 0.09069666 0.03331738 -0.08514929
1.2591319 1.4740118 -0.051540155 0.06492872 -0.0003237179 -0.073746465 0.915533 0.0607396
0.056616068 1.1137227 0.03772155 0.05130913 0.02019878 1.1576605 0.003732128 -0.0015858412
0.99432516 -0.11296522 -0.018272089 -0.9150763 0.04555048 1.0914267 0.06524019 -0.018893862
0.06888708 -0.059809014 -0.004716677 -0.10218878 -0.021516459 1.1452154 0.024063166 1.3560852
00000000: 51fc 513a 04c5 373f 8758 03bd 1096 37bc
00000010: 08d8 a13f 0428 023d adb1 c43f 8e9d 443f
00000020: 84b4 e03c 33fd 9b3d 948e 0ebd 1573 a6bd
00000030: e439 b0bd 34cb 9dbd 3c63 afbd ad13 093f
00000040: b8f3 5ebc b097 913f 462d a93e 704b 9d3f
00000050: c28d f93f 4cd3 8b3d 803c 923f d4af f03c
00000060: 6a4b 753f bc6b 33bd 5889 583f 427a 913c
00000070: 34c4 a93d d947 da3f 0d96 9e3f 5404 973f
00000080: 2fcf c2bd 10f6 0540 9602 9f3a 36ba e73f
00000090: c6c0 283f 7618 853f 201d 993f 6919 1cbc
000000a0: c010 6fbc 9eb7 1b3c a99f ec3c f397 283d
000000b0: 11cb c73c fdeb 5d3d 3c39 2b3f b94f 043d
000000c0: d9fc 25bc ec60 1940 139b ce3f 419f d03d
000000d0: 7924 843f b55f e83d 4225 b93f 7276 193f
000000e0: f0c6 01bd 0eca 17bd 84ec 3f3f 5743 c93f
000000f0: b72a dd3e 5a38 c33f 3749 97bd 45e1 92bc
00000100: 3c22 1bbb 68a5 583d 9b7d 6c3f 4fa9 4dbc
00000110: 1b03 593f 0e90 4e3b 7c43 a83f e125 ff3f
00000120: fc90 04bd 6dcb f63c 251d 5c3f 4324 ba3f
00000130: b892 913f 801c 6a3d 6043 d53c 8c77 4cbc
00000140: ff19 b03a 789a bf3e 74a1 a03b 259e d33e
00000150: a8f1 883f fe0d 3dbc 3090 173f 3930 a73d
00000160: 02fb 69bd c655 3c3d 87d3 bb3f 1c87 a93f
00000170: 9355 fbba ae67 e2bb a826 053e b536 5ebd
00000180: 6663 993f 1c72 d53f a555 83bb 0034 5d39
00000190: 5e3f e13c 2360 bb3c fe4f 8b3f 8f17 0c3c
000001a0: 84ba 1b3d e288 b73f a55f 8d3d 9c60 7d3b
000001b0: c68a 063e 0a80 bb3f 68af f7bc f0cf d9bc
000001c0: 887b 2d3f e18f 0f3f f5d7 323d 579b 68bf
000001d0: 6abf 3abd 52af 953f 6f45 1e3d 762f 113d
000001e0: d8be 88bb 2378 78bc 0fee 0dbc 27f6 e3bc
000001f0: 4aa8 4b3d 0b46 853f 14e0 df3c 4dac d13f
00000200: b0b8 6abd e73e 953f ef42 5b3b 1e6f a9bd
00000210: db08 a33f 7584 05bd 64a2 b03f 80c9 4b3f
00000220: 925f 3bbd 9e6c 403d 16d9 da3d 7d4c 5c3d
00000230: e66a 473c b426 e93d 077e b23d 50df 0f3f
00000240: a051 243b e50b 873f d599 7dbd 0b98 a93f
00000250: 41f2 1140 7874 82bd a899 d53f 75ea ab3d
00000260: dd41 543f b15b 33bd 245d 8d3f 5647 1bbc
00000270: baa3 a2bd 8b59 e43f 84b5 c83f ea09 973f
00000280: 722a 243d 16c9 0a40 a388 a73d 4d50 d13f
00000290: 94c8 233f 1915 7e3f c417 ae3f 03fd 93bd
000002a0: d6a4 dcbc 2b53 8e3d fc86 c0bd ce52 c1bc
000002b0: c657 e23d 2b70 b1bc 5c12 323f 4251 9cbc
000002c0: c42c 6fbd ca07 1940 6558 a03f 05b2 c43d
000002d0: 3fb8 793f aee8 b63d 11c8 b83f 4e1b 1c3f
000002e0: 132d 293c 47e5 3cbd 0994 433f 74bf d33f
000002f0: 7579 de3e 400c a73f 5871 95bc 5343 2e3d
00000300: 45bb f5ba 1c9d 94bb 1b58 3a3f d5a7 bc3c
00000310: 59c2 833f 3e85 99bd 658c 623f a837 db3f
00000320: f7bd 98bd 49eb 603d e7d7 a93f 1add c53f
00000330: b08d 9a3f 52d6 b33d c35c 9e3d 82f0 dc3e
00000340: dba6 173d f6ed 36be d585 c7bc 1a23 e43e
00000350: fabb 9b3f 8bbb 3cbd b7a3 313f f5bb 97bc
00000360: 4a1d 60bc 7fd1 adbc e1e8 d53f efb8 e23f
00000370: 5d6f 413d 2cbf b93d ce77 083d c062 aebd
00000380: 3c2b a13f 6bac bc3f c51b 53bd 59f9 843d
00000390: aeb8 a9b9 6308 97bd 5f60 6a3f 16ca 783d
000003a0: 40e6 673d 778e 8e3f e981 1a3d 8629 523d
000003b0: e977 a53c 382e 943f b896 743b 00dc cfba
000003c0: 188c 7e3f 4f5a e7bd 59af 95bc 7142 6abf
000003d0: 2493 3a3d dfb3 8b3f a69c 853d 4dc7 9abc
000003e0: ab14 8d3d 4cfa 74bd 5b8e 9abb 5a48 d1bd
000003f0: 4943 b0bc 6b96 923f 1e20 c53c 3394 ad3f

network.4.bias f4 [12]
3.4524705 5.190108 2.8016155 5.0647836 8.314005 6.271981 5.1447973 5.8256516
3.3570826 4.9322624 7.0447593 5.5275407
00000000: 47f5 5c40 5d15 a640 ab4d 3340 b512 a240
00000010: 2a06 0541 11b4 c840 2ea2 a440 bd6b ba40
00000020: 71da 5640 18d5 9d40 ab6e e140 9de1 b040

network.0.weight f4 [128, 134]
-0.02233376 -0.0012867904 -0.050169293 -0.06858369 -0.06648884 -0.05607349 0.043716654 -0.027435504
-0.05430072 -0.020636357 -0.03133394 0.013325751 0.058845088 0.08229135 -0.025623068 -0.015988998
-0.05582232 0.072422355 -0.067933574 0.083609745 0.03827078 0.0046650693 0.04128982 -0.020894304
0.012096681 -0.052551657 0.03224565 0.08005245 -0.0792293 0.049030825 0.0066783875 0.03172171
0.026037782 0.07292639 0.05892214 -0.0650717 0.0070866346 -0.028428573 -0.017465375 0.0016442686
-0.05797107 -0.0031804666 -0.051674083 0.03914918 -0.0052225366 -0.07287306 0.005520858 -0.079618685
0.06491473 0.06883006 -0.079480134 -0.06784031 0.005027361 -0.014503531 -0.061261505 -0.032499522
-0.063573584 -0.014830925 -0.077079915 -0.039996374 -0.040237162 -0.033610564 0.06872216 -0.054310277
-0.0429992 0.058543578 -0.00494536 -0.03458459 -0.03896138 -0.02084773 0.0020533279 -0.06310498
-0.0060559064 0.038300723 0.008872926 0.08099872 0.0355715 -0.074518226 0.039227694 0.027666532
-0.058890756 -0.07133648 -0.01406505 -0.075129986 -0.029599056 -0.05599297 0.046295926 0.0024266243
-0.016079508 0.03893429 0.052367628 -0.08509817 0.013030462 -0.06900165 -0.04982546 0.08060177
0.07879412 -0.06482257 -0.01680985 -0.0030500144 -0.064072005 -0.056775235 0.06252599 0.058773443
0.04980658 -0.07578069 -0.021872677 -0.078946754 -0.017139807 -0.0844602 -0.021791048 -0.03930722
0.07346462 0.00705301 0.01611048 -0.008326754 -0.035972685 -0.046037957 -0.07062159 -0.011299193
0.02289205 0.015139826 0.075133756 0.05081521 0.033366963 0.0053534433 -0.016593896 -0.07854977
0.063946694 -0.022690266 0.061546862 0.039938197 0.0676025 0.0040844604 -0.024264598 -0.01966433
-0.0065908954 0.08352956 0.03534045 -0.01690492 -0.06335648 -0.02731961 -0.076891676 0.032945275
-0.04203379 0.019062579 0.06986046 0.046676517 0.078947335 -0.06444542 -0.069679886 0.05965379
-0.06311573 -0.010345355 -0.0245012 0.035797246 -0.021271951 -0.0589756 -0.00921423 0.06275791
0.011686228 0.065253615 -0.04151875 0.020521887 -0.046942472 -0.07544623 -0.06439044 -0.045830593
0.051620275 -0.07435501 0.03740619 0.027917363 -0.0771954 0.015839018 -0.041749515 -0.05613914
0.058167666 0.06418796 -0.08272022 -0.02835526 0.023080662 0.0020631552 -0.06357501 0.06404212
0.04112813 0.055851087 -0.027498715 0.020048894 -0.0653952 0.055738375 0.032214828 0.059821144
0.022477053 -0.030781105 0.04883389 -0.043546945 -0.08469327 -0.02511255 0.05108282 0.06570451
-0.041607678 -0.06321238 0.051716253 -0.07107833 0.010394596 -0.056718368 -0.024088629 0.055581138
-0.00923337 -0.010731198 -0.04009913 -0.07186097 0.080296904 -0.021547124 0.058361977 -0.053735137
0.06786394 0.04447341 -0.022338837 -0.031652234 -0.08091638 -0.05272823 -0.0723697 0.005872138
0.0021103993 -0.04736281 -0.045445487 -0.07077308 0.00034470856 0.07887119 -0.02899563 -0.04727856
-0.012058295 0.04512985 -0.045471758 -0.014036313 0.062215894 0.018366776 0.0550462 0.07969926
-0.06314354 -0.072596475 0.04031302 0.0013414845 0.06602305 -0.013987407 -0.019107953 -0.043677095
-0.03286739 -0.025739416 0.019346759 0.020496964 0.06957078 -0.08386586 -0.003222622 0.0018602088
00000000: 4af5 b6bc 85a9 a8ba 517e 4dbd 9b75 8cbd
00000010: 4d2b 88bd 51ad 65bd 3c10 333d 6cc0 e0bc
00000020: 6f6a 5ebd 940d a9bc 0458 00bd 4054 5a3c
00000030: 8c07 713d 5e88 a83d 78e7 d1bc 5cfb 82bc
00000040: f2a5 64bd 2c52 943d c220 8bbd 963b ab3d
00000050: d2c1 1c3d 70dd 983b 841f 293d 882a abbc
00000060: 2831 463c 6840 57bd 0414 043d 8af2 a33d
00000070: f942 a2bd 8cd4 483d 60d6 da3b a0ee 013d
00000080: 304d d53c 6e5a 953d 5858 713d 5044 85bd
00000090: 0037 e83b 0ae3 e8bc 8c13 8fbc 8084 d73a
000000a0: 1373 6dbd 606f 50bb 34a8 53bd e45a 203d
000000b0: d021 abbb 793e 95bd 50e8 b43b 1f0f a3bd
000000c0: 04f2 843d c6f6 8c3d 7bc6 a2bd dcef 8abd
000000d0: 90bc a43b 38a0 6dbc 58ed 7abd 381e 05bd
000000e0: de32 82bd 68fd 72bc 13dc 9dbd 3dd3 23bd
000000f0: b9cf 24bd 3bab 09bd 34be 8c3d 7474 5ebd
00000100: ee1f 30bd 64cb 6f3d b00c a2bb 92a8 0dbd
00000110: f895 1fbd dcc8 aabc 2091 063b 2f3d 81bd
00000120: a070 c6bb 38e1 1c3d c05f 113c a8e2 a53d
00000130: 6cb3 113d 039d 98bd 38ad 203d eca4 e23c
00000140: 6f37 71bd dc18 92bd 1871 66bc c0dd 99bd
00000150: b879 f2bc e258 65bd cca0 3d3d 0008 1f3b
00000160: 2cb9 83bc 9079 1f3d 707f 563d f347 aebd
00000170: b87d 553c bd50 8dbd c815 4cbd 8a12 a53d
00000180: d05e a13d b2c1 84bd d0b4 89bc c0e2 47bb
00000190: 2f38 83bd 268d 68bd a00d 803d 6cbc 703d
000001a0: fc01 4c3d e832 9bbd 542e b3bc d6ae a1bd
000001b0: c868 8cbc 78f9 acbd 2483 b2bc 9c00 21bd
000001c0: 9e74 963d f01c e73b 20fa 833c f06c 08bc
000001d0: 1858 13bd 4c92 3cbd 0da2 90bd 4020 39bc
000001e0: 1c88 bb3c 080d 783c badf 993d 9c23 503d
000001f0: ccab 083d f06b af3b ecef 87bc b4de a0bd
00000200: 7cf6 823d f0e0 b9bc 9018 7c3d 3c96 233d
00000210: 2e73 8a3d f0d6 853b 8dc6 c6bc 1717 a1bc
00000220: 70f8 d7bb 8c11 ab3d 26c1 103d 307c 8abc
00000230: 0bc1 81bd 60cd dfbc 6279 9dbd a0f1 063d
00000240: a02b 2cbd 2029 9c3c 0013 8f3d e02f 3f3d
00000250: 24af a13d f6fb 83bd 54b4 8ebd 8857 743d
00000260: d242 81bd 907f 29bc beb6 c8bc 22a0 123d
00000270: 8442 aebc 6690 71bd 48f7 16bc 3887 803d
00000280: 9877 3f3c b0a3 853d 910f 2abd 841d a83c
00000290: c046 40bd 8e83 9abd 23df 83bd dcb8 3bbd
000002a0: c86f 533d 7147 98bd 3c37 193d f4b2 e43c
000002b0: 9f18 9ebd d4c0 813c 8a01 2bbd 28f2 65bd
000002c0: 3841 6e3d fa74 833d 3869 a9bd 4a49 e8bc
000002d0: a813 bd3c 0036 073b 9d33 82bd 8428 833d
000002e0: f875 283d 1cc4 643d fc44 e1bc 943d a43c
000002f0: ebed 85bd ec4d 643d b2f3 033d 0407 753d
00000300: cc21 b83c a828 fcbc 0c06 483d 485e 32bd
00000310: aa73 adbd d6b8 cdbc 383c 513d 1690 863d
00000320: d06c 2abd 7e75 81bd 6cd4 533d 8491 91bd
00000330: 184e 2a3c 8551 68bd 8455 c5bc 0ca9 633d
00000340: 9047 17bc e8d1 2fbc fc3e 24bd d82b 93bd
00000350: b472 a43d 9883 b0bc f80c 6f3d 6019 5cbd
00000360: 40fc 8a3d c029 363d f0ff b6bc c6a5 01bd
00000370: 7db7 a5bd 8ef9 57bd 9136 94bd 106b c03b
00000380: a04e 0a3b 81ff 41bd 0c25 3abd 7af1 90bd
00000390: 00ba b439 3887 a13d 3e88 edbc 2aa7 41bd
000003a0: 2890 45bc 14da 383d 9840 3abd 90f8 65bc
000003b0: 18d6 7e3d ec75 963c 2078 613d 5e39 a33d
000003c0: 6651 81bd 76ad 94bd 441f 253d c0d4 af3a
000003d0: 1837 873d 702b 65bc 4888 9cbc c1e6 32bd
000003e0: f59f 06bd 78db d2bc 187d 9e3c 40e9 a73c
000003f0: 207b 8e3d ddc1 abbd a032 53bb 40d2 f33a

network.0.bias f4 [128]
0.8220267 0.59889585 -0.0028465483 0.5984279 0.60222566 -0.08904841 -1.6410093 -0.014568534
0.7616006 7.0401287 6.467377 -0.078908294 1.6445674 0.0024459881 -0.11162477 0.070474595
-0.09654904 0.5718949 0.600734 10.790119 0.025476603 9.383885 4.809602 1.2216871
-0.08220753 -0.055081625 6.640059 0.019783037 0.032614775 0.017508656 12.777842 -0.09555531
-0.0461472 -0.0077931816 8.737843 -8.059745 0.036392692 -0.001373941 -0.10940806 -0.025078915
6.9339194 0.019074216 -6.511023 -4.9979186 7.6177177 -0.09648241 1.8687015 -0.09252697
-0.1188823 -0.37382755 -0.013433239 -0.016152969 1.0143527 0.009818096 0.86367255 -0.06291042
4.371795 -0.504797 0.011699957 -3.3885117 -0.06434378 5.478506 -0.09542247 -0.016441304
11.847827 6.391039 1.5283198 8.483122 -4.6047916 -0.063463375 -0.030190095 -0.073916085
0.83003265 -0.02583064 -0.08187859 1.870263 5.791055 1.064558 -1.4144064 0.019498797
0.005745597 -1.1994236 0.014500038 -0.075961486 -0.048861668 -0.11499338 0.030415462 -0.12085419
9.161343 0.031180179 -0.062416017 4.8619733 1.5095158 -0.8192028 0.05445045 -0.03367075
-7.594144 -0.029946378 0.010759015 0.017898398 0.025658928 6.4587927 -0.07986021 -0.087379
0.016549233 5.1591573 0.025284246 -0.05700547 5.361699 -0.059660252 4.808175 8.182851
0.58388597 9.609239 0.043338805 -0.062101513 -0.06621601 -0.02362661 10.790803 -0.036947366
-4.2300396 9.532387 10.046332 -0.050684266 9.955911 -0.048816133 -0.06884191 -0.11109239
00000000: 5870 523f 3d51 193f 288d 3abb 9232 193f
00000010: 762b 1a3f 035f b6bd 980c d2bf dcb0 6ebc
00000020: 42f8 423f bc48 e140 c1f4 ce40 ac9a a1bd
00000030: 2f81 d23f df4c 203b 879b e4bd fc54 903d
00000040: 81bb c5bd b467 123f b4c9 193f 54a4 2c41
00000050: 4fb4 d03c 6524 1641 42e8 9940 3e60 9c3f
00000060: 6c5c a8bd 459d 61bd 5d7b d440 0910 a23c
00000070: 1297 053d 506e 8f3c 0a72 4c41 81b2 c3bd
00000080: d904 3dbd f25d ffbb 34ce 0b41 b7f4 00c1
00000090: 8110 153d cf15 b4ba 5511 e0bd 4c72 cdbc
000000a0: abe2 dd40 8841 9c3c 4d5a d0c0 f3ee 9fc0
000000b0: 58c4 f340 9298 c5bd 9c31 ef3f c87e bdbd
000000c0: 9078 f3bd 5366 bfbe 1717 5cbc 3b53 84bc
000000d0: 4fd6 813f 14dc 203c a519 5d3f 2ed7 80bd
000000e0: bfe5 8b40 603a 01bf 2db1 3f3c 60dd 58c0
000000f0: acc6 83bd ec4f af40 db6c c3bd eaaf 86bc
00000100: b390 3d41 6483 cc40 fc9f c33f deba 0741
00000110: 745a 93c0 16f9 81bd 3851 f7bc 5161 97bd
00000120: 057d 543f c79a d3bc f6af a7bd c764 ef3f
00000130: 5350 b940 7043 883f 450b b5bf f1bb 9f3c
00000140: 9045 bc3b b686 99bf 9191 6d3c b291 9bbd
00000150: 2c23 48bd a681 ebbd d929 f93c 6782 f7bd
00000160: dc94 1241 936d ff3c f0a7 7fbd 4995 9b40
00000170: d037 c13f 46b7 51bf 6f07 5f3d 57ea 09bd
00000180: 3a03 f3c0 1b52 f5bc 9446 303c a99f 923c
00000190: ac32 d23c 6eae ce40 c08d a3bd c3f3 b2bd
000001a0: 4292 873c d117 a540 e820 cf3c 917e 69bd
000001b0: 0a93 ab40 4f5e 74bd 92dc 9940 f5ec 0241
000001c0: 8d79 153f 71bf 1941 0884 313d 285e 7ebd
000001d0: 429c 87bd 988c c1bc 21a7 2c41 1f56 17bd
000001e0: 7c5c 87c0 a884 1841 c7bd 2041 4e9a 4fbd
000001f0: 694b 1f41 6df3 47bd fdfc 8cbd 6884 e3bd

network.2.weight f4 [128, 128]
0.033597674 0.062141005 -0.029492553 0.056892537 -0.09431578 0.048923448 -0.023252463 -0.07602266
0.047901426 0.04690675 -0.068531066 -0.053641707 0.037354246 -0.08026598 -0.042973243 0.040027402
-0.0019241348 -0.06973112 -0.033783868 0.006443953 -0.033090893 0.004750106 -0.036776166 -0.008053442
-0.048272796 0.06633145 -0.08053429 -0.032133706 0.048080213 0.012281917 -0.16088407 0.05001818
0.0076444373 -0.003679768 -0.15217137 -0.1025436 0.04709173 0.07642148 -0.04755649 0.07904988
0.019103386 0.02060832 -0.10758062 -0.052513774 -0.12623067 -0.07641617 -0.08138054 -0.07561985
0.06769991 0.07894558 -0.074716896 -0.014531031 -0.013544383 0.04847157 -0.065151975 -0.028812133
0.022745574 0.056872148 -0.06856003 0.010229563 0.012423815 -0.029699458 -0.07423104 -0.029883929
-0.0658683 -0.062670894 0.041491278 -0.06917025 -0.017129235 0.009905942 -0.07327967 -0.021693893
0.050944775 0.014785595 0.06401717 -0.03984066 0.03400369 -0.038814098 -0.063902706 0.04116357
-0.04583943 0.033764213 0.06268037 -0.011791602 -0.0035387725 0.002539888 -0.08026608 0.04707595
0.0043494976 -0.0655866 0.059291147 -0.086337864 0.011473666 -0.051526353 0.007236149 -0.046209972
-0.017582739 -0.04410963 -0.07110732 0.061977927 0.066214375 0.0085481135 -0.05640775 -0.06861128
0.03886514 -0.053915225 -0.046908263 0.039106734 0.040353265 0.02000729 0.030253243 -0.041055758
0.047104627 -0.10788501 -0.008064598 -0.01280579 -0.0029334472 0.00915166 -0.016030854 0.0014788137
0.035073206 0.04007185 -0.05449078 -0.06296734 -0.04499792 -0.07790067 0.043221228 -0.07883518
-0.07966685 0.026329497 0.07749573 0.006462376 0.000634662 0.059504844 -0.21798208 0.023375541
-0.09941764 0.6071891 0.972841 0.05775968 -0.07534017 -0.085020915 0.011166699 -0.07358518
-0.045883145 0.034114793 0.009664815 -0.0069912313 0.026666194 -0.21044804 0.64962053 -0.093875706
0.026755452 0.069712825 1.1148251 0.009672873 0.042865925 -0.005195096 0.1197244 -0.05499501
0.001920402 -0.029234096 -0.15194432 -0.7132458 -0.023469314 -0.005007067 0.009721793 -0.004427366
0.16228834 0.03446214 -0.22997953 -1.462109 0.7582596 -0.053912465 0.52020377 0.0056832256
0.030038983 -0.016056158 0.06172376 0.00061157346 -0.3611321 0.015343338 -0.10211913 -0.0019355342
-0.07253018 -0.534875 0.06842848 -0.49466392 -0.07564882 1.5291373 0.043829896 0.08687062
-0.13753927 0.0060555013 0.0069099492 0.07150157 -0.7221753 0.028430842 0.06630228 0.07734691
-0.090952195 0.033729024 0.07119916 0.11298697 0.10279819 -0.057951342 -0.5553483 0.03062507
-0.0027811825 -0.61361986 0.06401435 0.0817493 -0.08763712 -0.053325415 -0.07646378 0.014647871
-0.069750816 -0.070681095 0.058690287 1.6177253 -0.046280485 -0.87990123 0.049029686 0.0044737486
-0.3856653 -0.044818737 -0.0036954135 0.02663847 0.011116609 0.35125163 -0.081451215 0.075452454
-0.10419819 -0.4305056 0.097502835 -0.044435263 0.3213846 -0.021684892 -0.37021202 -0.12321978
-0.12105414 -0.17960566 -0.0053550526 -0.053434618 0.080670886 -0.011434808 0.28265923 0.07901
-0.6090033 0.24343792 -0.2422534 -0.056806605 -0.6371532 0.109053425 0.046416685 0.07492169
00000000: b79d 093d 9187 7e3d 5e9a f1bc 2608 693d
00000010: a228 c1bd f463 483d f37b bebc c5b1 9bbd
00000020: 4934 443d 4b21 403d 045a 8cbd 68b7 5bbd
00000030: c400 193d 7d62 a4bd b604 30bd c6f3 233d
00000040: 4033 fcba 30cf 8ebd f460 0abd cc27 d33b
00000050: 518a 07bd c7a6 9b3b 9ba2 16bd 96f2 03bc
00000060: b2b9 45bd c9d8 873d 29ef a4bd a29e 03bd
00000070: c2ef 443d 183a 493c cbbe 24be dddf 4c3d
00000080: 307e fa3b 4328 71bb d0d2 1bbe 6102 d2bd
00000090: 42e3 403d dd82 9c3d 98ca 42bd e7e4 a13d
000000a0: b47e 9c3c c8d2 a83c 3a53 dcbd af18 57bd
000000b0: 9d42 01be 1580 9cbd d7aa a6bd 94de 9abd
000000c0: 40a6 8a3d 38ae a13d 2c05 99bd 9013 6ebc
000000d0: 43e9 5dbc 208a 463d 666e 85bd 6c07 ecbc
000000e0: ed54 ba3c c5f2 683d 3369 8cbd e699 273c
000000f0: 428d 4b3c 474c f3bc 7206 98bd 24cf f4bc
00000100: f6e5 86bd 9959 80bd c2f2 293d 22a9 8dbd
00000110: 9c52 8cbc 884c 223c a713 96bd 64b7 b1bc
00000120: 78ab 503d 483f 723c 6f1b 833d f62f 23bd
00000130: 7447 0b3d 88fb 1ebd 6cdf 82bd 229b 283d
00000140: 20c2 3bbd 584c 0a3d 915e 803d 9031 41bc
00000150: c0ea 67bb 4074 263b 8b62 a4bd b6d2 403d
00000160: 3b86 8e3b 4452 86bd 46db 723d e8d1 b0bd
00000170: 0bfc 3b3c 4c0d 53bd 381d ed3b ab46 3dbd
00000180: ad09 90bc 4dac 34bd b7a0 91bd 91dc 7d3d
00000190: 679b 873d 630d 0c3c d00b 67bd 1284 8cbd
000001a0: 0e31 1f3d 36d6 5cbd e122 40bd 622e 203d
000001b0: 7749 253d 54e6 a33c a6d5 f73c 152a 28bd
000001c0: c8f0 403d d1f2 dcbd 6021 04bc 60cf 51bc
000001d0: 143f 40bb d8f0 153c 2353 83bc c1d4 c13a
000001e0: eca8 0f3d 6122 243d b931 5fbd 05f5 80bd
000001f0: bd4f 38bd 638a 9fbd be08 313d 5774 a1bd
00000200: 6028 a3bd f5b0 d73c 15b6 9e3d 57c2 d33b
00000210: 725f 263a 5abb 733d b236 5fbe 107e bf3c
00000220: 7a9b cbbd bf70 1b3f 1c0c 793f 6a95 6c3d
00000230: f24b 9abd 721f aebd 88f4 363c d4b3 96bd
00000240: f7ef 3bbd f4bb 0b3d 2c59 1e3c b316 e5bb
00000250: 1073 da3c b17f 57be 884d 263f e841 c0bd
00000260: 402e db3c 99c5 8e3d 97b2 8e3f f87a 1e3c
00000270: 2e94 2f3d a03b aabb 1132 f53d 7342 61bd
00000280: 00b6 fb3a 587c efbc 4b97 1bbe 4797 36bf
00000290: b842 c0bc 5312 a4bb 2848 1f3c 7013 91bb
000002a0: ea2e 263e 2c28 0d3d c17f 6bbe 6326 bbbf
000002b0: 4d1d 423f 51d3 5cbd 132c 053f 5a3a ba3b
000002c0: 5014 f63c 3488 83bc 0ed2 7c3d 0052 203a
000002d0: 4ee6 b8be a062 7b3c d623 d1bd c0b1 fdba
000002e0: b48a 94bd 91ed 08bf 3b24 8c3d 9744 fdbe
000002f0: c5ed 9abd c5ba c33f fa86 333d 39e9 b13d
00000300: 18d7 0cbe 3a6d c63b db6c e23b 6a6f 923d
00000310: 7be0 38bf cce7 e83c 7dc9 873d 0f68 9e3d
00000320: 2545 babd 7227 0a3d ddd0 913d b665 e73d
00000330: dc87 d23d 635e 6dbd 4e2b 0ebf 6de1 fa3c
00000340: 8044 36bb 3116 1dbf f519 833d 2d6c a73d
00000350: 177b b3bd c06b 5abd 0b99 9cbd a0fd 6f3c
00000360: 84d9 8ebd 40c1 90bd 3a65 703d 9f11 cf3f
00000370: 9b90 3dbd 3541 61bf 5ad3 483d 8698 923b
00000380: ec75 c5be da93 37bd c02e 72bb ec38 da3c
00000390: 7022 363c 41d7 b33e e5cf a6bd d186 9a3d
000003a0: dc65 d5bd 3b6b dcbe 91af c73d c001 36bd
000003b0: 868c a43e 84a4 b1bc 6e8c bdbe a75a fcbd
000003c0: 3ceb f7bd 8cea 37be 7079 afbb 42de 5abd
000003d0: c736 a53d 1059 3bbc b6b8 903e ffcf a13d
000003e0: a4e7 1bbf ca47 793e 4611 78be 0bae 68bd
000003f0: 791c 23bf 6757 df3d 6c1f 3e3d 8b70 993d

network.2.bias f4 [128]
-0.092005335 2.3679054 -0.054589618 -0.06343573 9.054281 -0.15221895 8.023319 6.547216
-0.10952763 -0.056855146 -0.06893229 -0.11272884 -0.031042691 -0.07211718 0.043687582 3.1997604
-0.101830825 7.9767666 0.6829236 8.193712 6.4602914 -0.039663624 4.44904 -0.08319661
10.417607 -0.054780606 9.461993 -0.062124815 -0.14903024 7.790077 9.976289 10.148101
0.009973371 7.5282 0.029156873 8.531708 6.1870165 9.818451 8.256173 -0.11102456
0.023598216 -0.12678508 0.011854239 -0.017051782 -0.06535687 -0.08004999 10.319318 -0.086763375
-0.06524336 6.5687933 8.466201 0.37156278 11.0078 -0.013392095 8.606625 10.03365
-0.05605773 -0.09988674 2.5693831 8.781471 11.081568 7.5760274 -0.017256375 -0.03462717
-0.07597072 -0.04657834 8.040874 -0.19916515 10.595768 0.010915892 9.0441475 10.1002865
-0.011184892 -0.14665903 8.58 8.142159 9.001224 -0.0828504 -0.2888814 -0.7638532
-0.056848403 -0.12068065 -0.1362868 1.229143 8.011298 -0.09298792 10.57226 -0.037385534
-0.014408679 0.009665063 10.524109 7.62319 0.0076944013 -0.15628938 -0.08866854 0.057022963
9.363855 9.200471 -0.09120975 -0.08632098 -0.32684845 -0.16353302 8.550974 0.019750074
-0.15353665 3.1318603 -0.016242342 -0.0101340655 -0.099692576 8.743569 0.025205344 -0.17772205
1.784881 -0.20894998 -0.13876943 -7.373856 0.015069843 9.072452 0.011903851 -0.10581841
-0.08491686 -0.054915152 -0.08530539 -0.07146343 -0.02166243 9.690491 -0.09501216 7.53104
00000000: 4b6d bcbd c38b 1740 5d99 5fbd 98ea 81bd
00000010: 56de 1041 49df 1bbe 845f 0041 cb82 d140
00000020: 0650 e0bd f1e0 68bd 5f2c 8dbd 61de e6bd
00000030: 3e4d febc 2cb2 93bd c0f1 323d e0c8 4c40
00000040: ae8c d0bd ac41 ff40 15d4 2e3f 7219 0341
00000050: b5ba ce40 5376 22bd 895e 8e40 fc62 aabd
00000060: 85ae 2641 a161 60bd 5364 1741 9776 7ebd
00000070: 629b 18be 5048 f940 e19e 1f41 9f5e 2241
00000080: 5a67 233c 04e7 f040 65da ee3c e081 0841
00000090: 0afc c540 6018 1d41 4919 0441 d860 e3bd
000000a0: 0c51 c13c f3d3 01be 4838 423c 2eb0 8bbc
000000b0: d3d9 85bd 40f1 a3bd ed1b 2541 ffb0 b1bd
000000c0: 509e 85bd 8e33 d240 8f75 0741 7a3d be3e
000000d0: f31f 3041 856a 5bbc bcb4 0941 d589 2041
000000e0: ca9c 65bd 6b91 ccbd c670 2440 e880 0c41
000000f0: 1a4e 3141 d16e f240 3e5d 8dbc 38d5 0dbd
00000100: 8996 9bbd eec8 3ebd 6ba7 0041 f3f1 4bbe
00000110: 4488 2941 92d8 323c d4b4 1041 c69a 2141
00000120: d640 37bc c92d 16be ae47 0941 4946 0241
00000130: 0305 1041 78ad a9bd 43e8 93be e28b 43bf
00000140: dfd9 68bd 6b27 f7bd c48e 0bbe 8f54 9d3f
00000150: 472e 0041 7370 bebd fa27 2941 9321 19bd
00000160: 6112 6cbc 365a 1e3c c062 2841 2cf1 f340
00000170: 5121 fc3b 530a 20be da97 b5bd e990 693d
00000180: 5ad2 1541 2135 1341 2dcc babd 0ec9 b0bd
00000190: ae58 a7be 3375 27be cad0 0841 e8ca a13c
000001a0: b638 1dbe 6670 4840 a90e 85bc 5a09 26bc
000001b0: 9f2b ccbd a9e5 0b41 707b ce3c c5fc 35be
000001c0: fb76 e43f fcf6 55be 9319 0ebe a1f6 ebc0
000001d0: 81e7 763c c328 1141 5f08 433c 53b7 d8bd
000001e0: e4e8 adbd b6ee 60bd 98b4 aebd 6b5b 92bd
000001f0: 6975 b1bc 400c 1b41 bc95 c2bd 48fe f040

network.4.weight f4 [12, 128]
0.00080103154 0.71784997 -0.032066848 -0.011205211 1.2661011 0.031776443 1.5366722 0.76910776
0.027429827 0.07616653 -0.03480394 -0.08127419 -0.08604792 -0.077047735 -0.08563849 0.5354565
-0.013607912 1.1374416 0.33042353 1.2288647 1.9496386 0.06827411 1.1424713 0.029380716
0.958182 -0.043803915 0.8458457 0.017758492 0.08289376 1.7053176 1.2389542 1.1798196
-0.095121734 2.0931435 0.0012131508 1.8103702 0.66014886 1.039809 1.1962013 -0.009527543
-0.014591396 0.009504227 0.028884726 0.041160535 0.024388822 0.054180134 0.6688421 0.032302592
-0.010131084 2.3965406 1.6141075 0.10186625 1.032363 0.1134638 1.4464495 0.599537
-0.031683862 -0.03705793 0.7497027 1.5723675 0.4317598 1.5251572 -0.073870115 -0.017929683
-0.0023671528 0.05289212 0.9237916 -0.012552573 0.84770364 0.0031518969 1.3145595 1.9933435
-0.03236483 0.030126298 0.8598197 1.4542316 1.13729 0.057156086 0.026033103 -0.012479674
0.0013435482 0.37422538 0.004902059 0.41331592 1.0698748 -0.0115389805 0.5920439 0.081634946
-0.057124145 0.045980237 1.4673928 1.3244357 -0.0019175283 -0.0069093322 0.13003027 -0.05425139
1.1983459 1.6675448 -0.0040080124 0.00021095574 0.027496036 0.02287299 1.0883787 0.008550539
0.038019672 1.4338648 0.06903008 0.003866232 0.13138875 1.464845 -0.030235007 -0.02658841
0.6776662 0.56078917 0.043662984 -0.90739733 -0.045592703 1.1694129 0.038640436 0.035445653
-0.004173141 -0.015165362 -0.008662715 -0.027827336 0.04972104 1.0412 0.027328528 1.6380707
-0.057305038 1.1659821 0.0033456644 -0.08273147 1.2729442 -0.032597024 1.3799558 0.79499143
-0.04574544 0.046978585 0.10685937 0.053783882 0.012171483 0.11384335 0.08715444 0.5620012
0.0025073066 1.0550505 -0.061914284 1.3249525 2.280411 -0.06369871 1.6687517 0.083943285
0.82913 -0.043788616 1.1044049 -0.009477457 -0.079413846 1.7839826 1.5680394 1.17999
0.04007954 2.1685233 0.08180358 1.6352631 0.63880277 0.9925094 1.3601003 -0.072259925
-0.026934069 0.06949457 -0.09400746 -0.023599055 0.11051898 -0.021659931 0.69559264 -0.019081715
-0.0583923 2.3911004 1.2526976 0.09604267 0.9754676 0.08931099 1.4436055 0.60959417
0.010325688 -0.046117093 0.7639776 1.6542802 0.4340909 1.3050613 -0.018242523 0.042544674
-0.0018747827 -0.0045353305 0.7279069 0.023029247 1.0293685 -0.07496117 0.88495475 1.712636
-0.07458108 0.054911885 1.3269013 1.54581 1.207449 0.08781113 0.07732537 0.43152243
0.03702436 -0.17864212 -0.024355808 0.4455803 1.2166741 -0.046077292 0.69390434 -0.018522242
-0.013678858 -0.02121806 1.6711694 1.7712687 0.047225345 0.09069666 0.03331738 -0.08514929
1.2591319 1.4740118 -0.051540155 0.06492872 -0.0003237179 -0.073746465 0.915533 0.0607396
0.056616068 1.1137227 0.03772155 0.05130913 0.02019878 1.1576605 0.003732128 -0.0015858412
0.99432516 -0.11296522 -0.018272089 -0.916111 0.04555048 1.0914267 0.06524019 -0.018893862
0.06888708 -0.059809014 -0.004716677 -0.10218878 -0.021516459 1.1452154 0.024063166 1.3560852
00000000: 51fc 513a 04c5 373f 8758 03bd 1096 37bc
00000010: 9a0f a23f 0428 023d adb1 c43f 3fe4 443f
00000020: 84b4 e03c 33fd 9b3d 948e 0ebd 1573 a6bd
00000030: e439 b0bd 34cb 9dbd 3c63 afbd ad13 093f
00000040: b8f3 5ebc b097 913f 462d a93e 704b 9d3f
00000050: c28d f93f 4cd3 8b3d 803c 923f d4af f03c
00000060: 6a4b 753f bc6b 33bd 5889 583f 427a 913c
00000070: 34c4 a93d d947 da3f 0d96 9e3f 5404 973f
00000080: 2fcf c2bd 10f6 0540 9602 9f3a 36ba e73f
00000090: 84ff 283f 7618 853f 201d 993f 6919 1cbc
000000a0: c010 6fbc 9eb7 1b3c a99f ec3c f397 283d
000000b0: 11cb c73c fdeb 5d3d 3c39 2b3f b94f 043d
000000c0: d9fc 25bc ec60 1940 139b ce3f 419f d03d
000000d0: 7924 843f b55f e83d 4225 b93f 427b 193f
000000e0: f0c6 01bd 0eca 17bd 84ec 3f3f 5743 c93f
000000f0: 9f0f dd3e 5a38 c33f 3749 97bd 45e1 92bc
00000100: 3c22 1bbb 68a5 583d 9b7d 6c3f 4fa9 4dbc
00000110: 1b03 593f 0e90 4e3b 7c43 a83f e125 ff3f
00000120: fc90 04bd 6dcb f63c 251d 5c3f 4324 ba3f
00000130: b892 913f 801c 6a3d 6043 d53c 8c77 4cbc
00000140: ff19 b03a 789a bf3e 74a1 a03b 259e d33e
00000150: a8f1 883f fe0d 3dbc 3090 173f 3930 a73d
00000160: 02fb 69bd c655 3c3d 87d3 bb3f 1c87 a93f
00000170: 9355 fbba ae67 e2bb a826 053e b536 5ebd
00000180: 6663 993f 1c72 d53f a555 83bb 0034 5d39
00000190: 5e3f e13c 2360 bb3c fe4f 8b3f 8f17 0c3c
000001a0: 84ba 1b3d e288 b73f a55f 8d3d 9c60 7d3b
000001b0: c68a 063e 0a80 bb3f 68af f7bc f0cf d9bc
000001c0: 887b 2d3f e18f 0f3f f5d7 323d 314b 68bf
000001d0: 6abf 3abd 52af 953f 6f45 1e3d 762f 113d
000001e0: d8be 88bb 2378 78bc 0fee 0dbc 27f6 e3bc
000001f0: 4aa8 4b3d 0b46 853f 14e0 df3c 4dac d13f
00000200: b0b8 6abd e73e 953f ef42 5b3b 1e6f a9bd
00000210: d6ef a23f 7584 05bd 64a2 b03f 8f84 4b3f
00000220: 925f 3bbd 9e6c 403d 16d9 da3d 7d4c 5c3d
00000230: e66a 473c b426 e93d 077e b23d 50df 0f3f
00000240: a051 243b e50b 873f d599 7dbd 0b98 a93f
00000250: 41f2 1140 7874 82bd a899 d53f 75ea ab3d
00000260: dd41 543f b15b 33bd 245d 8d3f 5647 1bbc
00000270: baa3 a2bd 8b59 e43f 84b5 c83f ea09 973f
00000280: 722a 243d 16c9 0a40 a388 a73d 4d50 d13f
00000290: 9488 233f 1915 7e3f c417 ae3f 03fd 93bd
000002a0: d6a4 dcbc 2b53 8e3d fc86 c0bd ce52 c1bc
000002b0: c657 e23d 2b70 b1bc 5c12 323f 4251 9cbc
000002c0: c42c 6fbd ca07 1940 6558 a03f 05b2 c43d
000002d0: 3fb8 793f aee8 b63d 11c8 b83f 5d0e 1c3f
000002e0: 132d 293c 47e5 3cbd 0994 433f 74bf d33f
000002f0: 2a41 de3e 400c a73f 5871 95bc 5343 2e3d
00000300: 45bb f5ba 1c9d 94bb 1b58 3a3f d5a7 bc3c
00000310: 59c2 833f 3e85 99bd 658c 623f a837 db3f
00000320: f7bd 98bd 49eb 603d e7d7 a93f 1add c53f
00000330: b08d 9a3f 52d6 b33d c35c 9e3d 82f0 dc3e
00000340: dba6 173d f6ed 36be d585 c7bc 1a23 e43e
00000350: fabb 9b3f 8bbb 3cbd b7a3 313f f5bb 97bc
00000360: 4a1d 60bc 7fd1 adbc e1e8 d53f efb8 e23f
00000370: 5d6f 413d 2cbf b93d ce77 083d c062 aebd
00000380: 3c2b a13f 6bac bc3f c51b 53bd 59f9 843d
00000390: aeb8 a9b9 6308 97bd 5f60 6a3f 16ca 783d
000003a0: 40e6 673d 778e 8e3f e981 1a3d 8629 523d
000003b0: e977 a53c 382e 943f b896 743b 00dc cfba
000003c0: 188c 7e3f 4f5a e7bd 59af 95bc 4086 6abf
000003d0: 2493 3a3d dfb3 8b3f a69c 853d 4dc7 9abc
000003e0: ab14 8d3d 4cfa 74bd 5b8e 9abb 5a48 d1bd
000003f0: 4943 b0bc 6b96 923f 1e20 c53c 3394 ad3f

network.4.bias f4 [12]
3.453922 5.188674 2.80255 5.0641627 8.314253 6.272401 5.1449084 5.826022
3.3568585 4.9316998 7.0444508 5.5256696
00000000: 0f0d 5d40 9e09 a640 fb5c 3340 9f0d a240
00000010: 2e07 0541 82b7 c840 17a3 a440 c66e ba40
00000020: c5d6 5640 7cd0 9d40 246c e140 49d2 b040
